GNNModels/checkpoints/GAT_PubMed_epochs=300.pt (torch, 132699 bytes, 10 tensors)

conv1.att_src f4 [1, 8, 8]
00000000: 1f94 76bf 6fc5 a0bf 41a1 24bf 13de a1bf
00000010: 04ad 9fbf 9c65 66bf 55c8 683f 939a 9e3f
00000020: 0c6a 94be 3bce a03e a05c 863b 664a cf3e
00000030: 66eb 563e 4dd4 1abd d079 89be de53 71be
00000040: f4fe d93e f7a4 2cbe d423 353f 23b8 4e3f
00000050: 56ec 423f aae6 12bf 0c3d 43bf 7879 13bf
00000060: 0b23 43be ec05 e0be 5a1f 90be 197e 993e
00000070: cb98 893e 22dd ebbe bf0e a7be c4a8 8fbe
00000080: a121 e13e 75f7 123f 2335 7bbe 577d 1b3f
00000090: e10d d8be ae23 f8be a96d 1d3f cf64 0fbf
000000a0: fdb8 2d3f e3db 73bf 6554 a73f 64a6 453f
000000b0: b1ee a83f 64d5 9d3f a8be a0bf 9845 a33f
000000c0: 035c e23e 9439 d33e dd1b 173e 3aac d53e
000000d0: b3e9 6bbe f993 963d 2db0 a4bd 310c e3be
000000e0: 9012 12bf bf54 0c3f 9f22 e2bd b524 b8bd
000000f0: 7b94 fb3e 988f 30be 91fb 7f3e 3251 01bf
-0.96319765 -1.2560252 -0.64308554 -1.2645897 -1.2474675 -0.89998794 0.9093068 1.2390922
-0.28987157 0.3140734 0.004100397 0.4048645 0.20988235 -0.037800122 -0.26850748 -0.23567149
0.42577326 -0.16859804 0.70757794 0.8074972 0.7614187 -0.57383215 -0.76265025 -0.5760722
-0.19056337 -0.43754518 -0.2814892 0.29979017 0.26874384 -0.46067148 -0.32628438 -0.28058445
0.4397097 0.5740884 -0.24531989 0.6073813 -0.4219809 -0.4846472 0.61495453 -0.56013197
0.67860395 -0.95257396 1.307263 0.77207017 1.3197843 1.2330747 -1.2558184 1.2755613
0.44210824 0.41254866 0.14756723 0.4173296 -0.23038368 0.07352442 -0.08041415 -0.4434524
-0.57059574 0.5481681 -0.1104176 -0.08991376 0.4913672 -0.17242277 0.24998309 -0.5051452

conv1.att_dst f4 [1, 8, 8]
00000000: 96ed 34be f5d6 83be 7da6 14be 9caf 82be
00000010: 7065 69be 8164 34be 698b 723e ef2c 453e
00000020: a201 37bd f3ce 6b3d fbc1 533d da64 853d
00000030: a9a2 023d cf64 1dbd 839c 39bd bdeb c1bc
00000040: 5bc9 9c3d ffb8 7a3c 0f88 a23d 85ca 393e
00000050: 6657 253e acbc 2cbe 32fb 1abe 50fa 6fbd
00000060: 34b6 a8bd 3193 03be 6921 a6bd 6251 043d
00000070: 87a8 b43c d491 ebbd f549 d5bd 5fac bcbd
00000080: 207a 423d 07ed 6e3d 8b8d 0cbd 4765 a63d
00000090: fd8d 26bd e5d1 3bbd 99f5 bf3d 2765 6ebd
000000a0: 9ddc 7d3c 41cc 3abe a392 0f3e 0633 323e
000000b0: b840 6b3e 6b19 343e b45f 4ebe 36d3 4a3e
000000c0: ab3b cd3d b9a3 d73d 496f 613c ccc7 c43d
000000d0: f6a6 08bd e704 8e3d ea70 abbd ab5d d5bd
000000e0: 003b 03be ebec fb3d ded7 c2bd ac78 053b
000000f0: 5a9f c23d 01c7 e6bd 4443 3d3d c934 1cbe
-0.17668757 -0.25749937 -0.14516635 -0.25524604 -0.22792602 -0.17616464 0.23685993 0.19255422
-0.04467929 0.05757041 0.051698666 0.065133765 0.031893406 -0.038426217 -0.045315277 -0.02367198
0.07655593 0.015302896 0.07936107 0.18143661 0.16146621 -0.16868848 -0.15134886 -0.058588326
-0.082378775 -0.12849118 -0.08111841 0.032304175 0.022053016 -0.11502424 -0.10414497 -0.09212565
0.04747975 0.058331516 -0.034314673 0.08124786 -0.040662754 -0.045854468 0.09373016 -0.058201935
0.015494493 -0.18241979 0.14020781 0.17402276 0.22973907 0.17587821 -0.20153695 0.19807133
0.100211464 0.105292745 0.013759443 0.09608421 -0.03336235 0.06934529 -0.08371146 -0.10418256
-0.12815475 0.12301048 -0.0951383 0.0020366115 0.0950305 -0.11268426 0.046206728 -0.15254511

conv1.bias f4 [64]
00000000: 30a1 25bc 6ff1 bd3c 9065 b63c 8ec1 d73b
00000010: fc75 ad3b 72b9 c03c 4831 b93c e4cc 5b3c
00000020: 03f6 153d 8eba 643c d48f d7bb 6adc e43c
00000030: 3017 81bd 21f2 7a3c 0898 223d e764 1a3d
00000040: a798 4d3c 74dd 05bd 14ef d13c 1bd9 013c
00000050: d576 afbc 932c 2c3d bebb 1a3d 1ff6 a13c
00000060: 5166 a03c 9243 d53c e189 043d 86bc f63b
00000070: 0d77 073d a6b9 493d ecc8 64bb 4aa1 a83c
00000080: e6c3 acbc fd72 d13b ffee 7cbc 5dc5 e5bc
00000090: cee0 a33d b945 103b ae20 d4bc 03cb d73b
000000a0: c34d 043d 98a1 363d b8ee a239 d309 e73c
000000b0: 946e d8bc 3b68 e1bb 5307 313d c97d 0cbd
000000c0: 98ca 933b 478b e53c 9c9c c9bc c362 11bc
000000d0: 660a 483d 1f59 5fbc ddca 603d 8013 e83c
000000e0: b50e 1abb e166 ff3c 10b2 b63c 05dc 883d
000000f0: 888d a93c b8c8 0cbc 6780 41bc 432d 16bd
-0.010109231 0.023186414 0.022265226 0.006584353 0.005293606 0.023525927 0.022606507 0.013415549
0.03661157 0.013960494 -0.006578425 0.027937133 -0.06303251 0.015316517 0.03969577 0.037693884
0.012548602 -0.032681897 0.025626697 0.007925297 -0.021418968 0.042034697 0.0377767 0.01977068
0.019580038 0.026033197 0.032358054 0.007529798 0.03307252 0.049249314 -0.0034909798 0.020584721
-0.021089505 0.0063918815 -0.0154378405 -0.028048212 0.080018625 0.0022014214 -0.02589449 0.00658548
0.03230072 0.0445877 0.00031076907 0.028202927 -0.026419915 -0.0068788803 0.043219876 -0.034299646
0.004510235 0.028020514 -0.02461081 -0.008873644 0.04883804 -0.013632088 0.054880966 0.02832961
-0.0023507301 0.031176986 0.022301704 0.066825904 0.02069737 -0.008592777 -0.011810399 -0.03666426

conv1.lin_src.weight f4 [64, 500]
00000000: 1d19 6dbe f718 cabd e73b 133e ae1d 153e
00000010: 2cff 593d 38a4 613e 404a 92bd 79ed c53d
00000020: 0c5e 08be ead9 de3d dbdc 11be fa1d 73bd
00000030: 2eff bc3c 675a 3dbd 5bb1 3f3d 3f93 e8bc
00000040: d299 24be 8258 343e 835c 8e3d 1ead 343c
00000050: 9d77 be3d ceea 6c3d 2a29 6b3d 99e3 a13d
00000060: a6ad c23c 0f3a 73bd 4440 05be b1bc d23d
00000070: 3862 26be fbcd dbbd 7e08 4b3d 139f 9fbd
00000080: 08f3 9ebb 6f50 13bc f77a c3bb cdb1 65bd
00000090: 786e 4d3d 1406 1c3d 90d7 ddbd 6691 6d3e
000000a0: f23a 0bbd b35f 183e f34b 5bbd 7feb 983d
000000b0: eb11 b23c 408e 3e3d b6b9 033d 16ee b93c
000000c0: 1692 cf3c 086a b53d f202 d5bd 312a e13a
000000d0: 87d8 65bd 8ae5 0bba deb1 b83d d1d7 e43d
000000e0: 2eb4 543d 655a b0bd c9c7 7ebd eb2f 883d
000000f0: 4db4 97bd f2d5 903d d89b 1bbc 6c79 613d
00000100: 46c2 4a3d 9796 86bd 9de6 89bd fccc 9f3c
00000110: b764 f7bc 27f9 53bd 3d33 5ebd a703 a2bd
00000120: 875e ff3c a72f 49bc 7114 2ebd 97be 63bd
00000130: c5b7 7f3d 2e31 6d3d 6a19 b0bd 84f7 abbd
00000140: c6b0 c2bb 65b4 293d 132f 183d 8b08 af3c
00000150: 8d04 e63a 6144 fabe 871f 63be a22b a23b
00000160: 3601 93bd e930 9c3e 1c92 cf3d 4392 88bb
00000170: 58e7 d5bd e772 48bc 7982 2e3d d051 cebc
00000180: 8e3d 02be 1fec babc 512d 253e fe8c 043c
00000190: 1feb 0c3e 8814 a8bd 126d 03bf 21ff 5dbe
000001a0: f59e 253e fa3c 56bb 08d5 603d 2007 35bd
000001b0: b951 c73d 4cde 9b3d 6469 883d 9089 383e
000001c0: e8ba afbd b85c c43c 94d7 8b3d e846 ca3d
000001d0: 681f c1bc b4d2 98bc c8ed babc 6d23 78be
000001e0: 9250 fcbc 830d 223e f047 c7b8 4689 7fbe
000001f0: bd04 d93b a5d9 2e3d 1e9e a43d 78b6 c53d
00000200: 9951 e73c 459b 8fbc c124 853d d3d4 e9bc
00000210: e072 1d3c ca29 6d3c 9d90 2c3d 1dfd 1fbd
00000220: c996 d33d 9da7 2dbc 7631 123e fa15 9d3e
00000230: 33cc 003d 9c9d 313e 76bf dabd dde4 843c
00000240: 50c3 97bc 0b42 f63c 8b8c 0c3d 14b1 013e
00000250: dc62 4e3c fc1c 363e 6800 c13c b774 c0bd
00000260: 487d 2e3d 2cef fbbc bc61 193d 4f51 813d
00000270: c571 533d 4e86 913c 41e2 0a3e 7699 ae3d
00000280: 4737 b0be 62a1 8bbd 1c96 8b3e 1ea0 2fbc
00000290: 800e 28bd 2dc0 a3bc 19c0 abbd dbeb 0abd
000002a0: 1e6c 8ebc 60a0 03be ad57 12be 5f76 aebd
000002b0: 1f76 dbbc 464a c6bc ea47 b4bd 4541 1ebe
000002c0: bf00 06be 4859 9c3d 933f 5dbd 43c8 59bc
000002d0: 8f6b 733d 6229 cabc 7476 d4bc f764 3fbb
000002e0: e9a5 54bd e35f 483d 0f17 473c baa6 82bd
000002f0: bd2c 6ebc 6a17 64bc 1406 fb3b 9eb9 983d
00000300: a4af f6bd a1a1 b03c 34f9 40bd 76d4 033e
00000310: 7be2 8b3e 1501 ce3c 00f4 2abd 29e2 b63b
00000320: d080 0f3e c135 3d3d 8001 c9bc 10c0 9e3d
00000330: ac07 e73c d412 4b3e b79b eebb 52ae 6f3d
00000340: 86ab c43d b6ae 9c3b 6980 843d 252c 71bd
00000350: c72f 07be 4330 c33c 8e0c 133e a9e3 fc3d
00000360: 6f3e 063d 4ec0 303c 8445 e2bc 459c 65be
00000370: 8c55 9a3d 7b13 123e ce15 8c3d 5308 7f3d
00000380: bc77 063e e21c 283d bdce 6a3e e449 e83d
00000390: 719c 28be 96f1 e43c 4632 4a3d 3a60 d63c
000003a0: 342e 96be 93f1 2dbd 66db 4a3c f39a 01bf
000003b0: ee6c ccbd ed73 dbbd d29b 09be c549 80be
000003c0: fba1 d9bd b869 d1bd ff12 003b a183 17bd
000003d0: ea28 64be 40b3 1e3d 8c7d c23d 582a 8a3e
000003e0: 45eb 4cbd 75f9 083d f64f 9bbc 5844 81bd
000003f0: 41ef f83d f9e1 0b3e 2a2c bebd d80a 85bc
-0.23154111 -0.09868043 0.1437832 0.14562103 0.053221866 0.220353 -0.07143068 0.09664435
-0.13317126 0.108814076 -0.14244406 -0.05935476 0.023070898 -0.046228793 0.0468 -0.028390525
-0.16074303 0.17611888 0.06951239 0.0110276025 0.09300158 0.057841115 0.057412304 0.07904739
0.023764443 -0.05938154 -0.13012797 0.10289896 -0.16248405 -0.10732647 0.049568646 -0.07794013
-0.004850749 -0.008991345 -0.0059655863 -0.056077767 0.05015418 0.038091734 -0.10832131 0.23199996
-0.03399176 0.14880256 -0.053539228 0.07466792 0.02173706 0.04652238 0.03215953 0.022696536
0.025338214 0.088581145 -0.104009524 0.0017178712 -0.0561147 -0.0005336633 0.090183005 0.11173976
0.051929645 -0.086109914 -0.06220225 0.066497646 -0.074074365 0.07072057 -0.009497605 0.055047438
0.04950168 -0.065716915 -0.06733439 0.019506924 -0.030199392 -0.051751282 -0.054248083 -0.07910853
0.031173004 -0.012279428 -0.042499963 -0.055601683 0.062431116 0.05790823 -0.08598597 -0.08396819
-0.005941483 0.041431803 0.03715427 0.021366378 0.0017548964 -0.48880294 -0.22179995 0.004949049
-0.07177965 0.30506065 0.1013529 -0.0041678264 -0.10444516 -0.012234426 0.042604897 -0.025185496
-0.12718794 -0.02281767 0.16130568 0.008090256 0.13761567 -0.08207041 -0.51338303 -0.21679355
0.16173919 -0.0032690153 0.054890662 -0.044196248 0.09732384 0.07610759 0.06660727 0.18021226
-0.085805714 0.023969993 0.06828228 0.098768055 -0.023574546 -0.018655159 -0.022818461 -0.24232264
-0.030800138 0.15825467 -9.502459e-05 -0.2495471 0.0066228793 0.04268803 0.08037971 0.09653944
0.028237151 -0.017530093 0.06501151 -0.028543865 0.009609908 0.014475295 0.0421301 -0.039059747
0.10331494 -0.010599044 0.1427668 0.3068083 0.03144474 0.1734528 -0.106810495 0.016222412
-0.01852575 0.030060789 0.03431372 0.12665206 0.012596812 0.17784494 0.023559764 -0.093972616
0.042599946 -0.030753694 0.037446722 0.063143365 0.05162217 0.017764237 0.13562872 0.08525364
-0.34417173 -0.06817891 0.27262962 -0.010719327 -0.041029453 -0.019989097 -0.08386249 -0.033916336
-0.017385539 -0.12854147 -0.14291258 -0.08518671 -0.026789723 -0.024205338 -0.08802779 -0.15454586
-0.13086222 0.076342165 -0.054015707 -0.013292375 0.059428748 -0.024677936 -0.02593539 -0.0029204467
-0.051916037 0.04891957 0.012151494 -0.06379457 -0.014537034 -0.013921598 0.0076606367 0.07457279
-0.120452195 0.021561446 -0.04711266 0.12874016 0.27321228 0.025147 -0.041736603 0.0055811596
0.14013982 0.04619384 -0.024536848 0.07751477 0.0282019 0.19831401 -0.0072817462 0.058515854
0.09603028 0.0047815694 0.06469805 -0.05887999 -0.1320182 0.023826724 0.14360258 0.1234811
0.032774385 0.0107880365 -0.027621038 -0.22422893 0.07535848 0.14265244 0.068400964 0.062263798
0.13131613 0.04104317 0.22930427 0.113422185 -0.16465928 0.027947228 0.04936435 0.026168931
-0.29332125 -0.04246671 0.01238141 -0.5062706 -0.09981714 -0.107154705 -0.13438347 -0.25056282
-0.106265984 -0.102252424 0.0019542573 -0.036990765 -0.22281232 0.038745165 0.094966024 0.2698543
-0.050029058 0.033441026 -0.018959027 -0.06311864 0.12155009 0.1366042 -0.092857674 -0.016240522

conv1.lin_dst.weight f4 [64, 500]
00000000: 1d19 6dbe f718 cabd e73b 133e ae1d 153e
00000010: 2cff 593d 38a4 613e 404a 92bd 79ed c53d
00000020: 0c5e 08be ead9 de3d dbdc 11be fa1d 73bd
00000030: 2eff bc3c 675a 3dbd 5bb1 3f3d 3f93 e8bc
00000040: d299 24be 8258 343e 835c 8e3d 1ead 343c
00000050: 9d77 be3d ceea 6c3d 2a29 6b3d 99e3 a13d
00000060: a6ad c23c 0f3a 73bd 4440 05be b1bc d23d
00000070: 3862 26be fbcd dbbd 7e08 4b3d 139f 9fbd
00000080: 08f3 9ebb 6f50 13bc f77a c3bb cdb1 65bd
00000090: 786e 4d3d 1406 1c3d 90d7 ddbd 6691 6d3e
000000a0: f23a 0bbd b35f 183e f34b 5bbd 7feb 983d
000000b0: eb11 b23c 408e 3e3d b6b9 033d 16ee b93c
000000c0: 1692 cf3c 086a b53d f202 d5bd 312a e13a
000000d0: 87d8 65bd 8ae5 0bba deb1 b83d d1d7 e43d
000000e0: 2eb4 543d 655a b0bd c9c7 7ebd eb2f 883d
000000f0: 4db4 97bd f2d5 903d d89b 1bbc 6c79 613d
00000100: 46c2 4a3d 9796 86bd 9de6 89bd fccc 9f3c
00000110: b764 f7bc 27f9 53bd 3d33 5ebd a703 a2bd
00000120: 875e ff3c a72f 49bc 7114 2ebd 97be 63bd
00000130: c5b7 7f3d 2e31 6d3d 6a19 b0bd 84f7 abbd
00000140: c6b0 c2bb 65b4 293d 132f 183d 8b08 af3c
00000150: 8d04 e63a 6144 fabe 871f 63be a22b a23b
00000160: 3601 93bd e930 9c3e 1c92 cf3d 4392 88bb
00000170: 58e7 d5bd e772 48bc 7982 2e3d d051 cebc
00000180: 8e3d 02be 1fec babc 512d 253e fe8c 043c
00000190: 1feb 0c3e 8814 a8bd 126d 03bf 21ff 5dbe
000001a0: f59e 253e fa3c 56bb 08d5 603d 2007 35bd
000001b0: b951 c73d 4cde 9b3d 6469 883d 9089 383e
000001c0: e8ba afbd b85c c43c 94d7 8b3d e846 ca3d
000001d0: 681f c1bc b4d2 98bc c8ed babc 6d23 78be
000001e0: 9250 fcbc 830d 223e f047 c7b8 4689 7fbe
000001f0: bd04 d93b a5d9 2e3d 1e9e a43d 78b6 c53d
00000200: 9951 e73c 459b 8fbc c124 853d d3d4 e9bc
00000210: e072 1d3c ca29 6d3c 9d90 2c3d 1dfd 1fbd
00000220: c996 d33d 9da7 2dbc 7631 123e fa15 9d3e
00000230: 33cc 003d 9c9d 313e 76bf dabd dde4 843c
00000240: 50c3 97bc 0b42 f63c 8b8c 0c3d 14b1 013e
00000250: dc62 4e3c fc1c 363e 6800 c13c b774 c0bd
00000260: 487d 2e3d 2cef fbbc bc61 193d 4f51 813d
00000270: c571 533d 4e86 913c 41e2 0a3e 7699 ae3d
00000280: 4737 b0be 62a1 8bbd 1c96 8b3e 1ea0 2fbc
00000290: 800e 28bd 2dc0 a3bc 19c0 abbd dbeb 0abd
000002a0: 1e6c 8ebc 60a0 03be ad57 12be 5f76 aebd
000002b0: 1f76 dbbc 464a c6bc ea47 b4bd 4541 1ebe
000002c0: bf00 06be 4859 9c3d 933f 5dbd 43c8 59bc
000002d0: 8f6b 733d 6229 cabc 7476 d4bc f764 3fbb
000002e0: e9a5 54bd e35f 483d 0f17 473c baa6 82bd
000002f0: bd2c 6ebc 6a17 64bc 1406 fb3b 9eb9 983d
00000300: a4af f6bd a1a1 b03c 34f9 40bd 76d4 033e
00000310: 7be2 8b3e 1501 ce3c 00f4 2abd 29e2 b63b
00000320: d080 0f3e c135 3d3d 8001 c9bc 10c0 9e3d
00000330: ac07 e73c d412 4b3e b79b eebb 52ae 6f3d
00000340: 86ab c43d b6ae 9c3b 6980 843d 252c 71bd
00000350: c72f 07be 4330 c33c 8e0c 133e a9e3 fc3d
00000360: 6f3e 063d 4ec0 303c 8445 e2bc 459c 65be
00000370: 8c55 9a3d 7b13 123e ce15 8c3d 5308 7f3d
00000380: bc77 063e e21c 283d bdce 6a3e e449 e83d
00000390: 719c 28be 96f1 e43c 4632 4a3d 3a60 d63c
000003a0: 342e 96be 93f1 2dbd 66db 4a3c f39a 01bf
000003b0: ee6c ccbd ed73 dbbd d29b 09be c549 80be
000003c0: fba1 d9bd b869 d1bd ff12 003b a183 17bd
000003d0: ea28 64be 40b3 1e3d 8c7d c23d 582a 8a3e
000003e0: 45eb 4cbd 75f9 083d f64f 9bbc 5844 81bd
000003f0: 41ef f83d f9e1 0b3e 2a2c bebd d80a 85bc
-0.23154111 -0.09868043 0.1437832 0.14562103 0.053221866 0.220353 -0.07143068 0.09664435
-0.13317126 0.108814076 -0.14244406 -0.05935476 0.023070898 -0.046228793 0.0468 -0.028390525
-0.16074303 0.17611888 0.06951239 0.0110276025 0.09300158 0.057841115 0.057412304 0.07904739
0.023764443 -0.05938154 -0.13012797 0.10289896 -0.16248405 -0.10732647 0.049568646 -0.07794013
-0.004850749 -0.008991345 -0.0059655863 -0.056077767 0.05015418 0.038091734 -0.10832131 0.23199996
-0.03399176 0.14880256 -0.053539228 0.07466792 0.02173706 0.04652238 0.03215953 0.022696536
0.025338214 0.088581145 -0.104009524 0.0017178712 -0.0561147 -0.0005336633 0.090183005 0.11173976
0.051929645 -0.086109914 -0.06220225 0.066497646 -0.074074365 0.07072057 -0.009497605 0.055047438
0.04950168 -0.065716915 -0.06733439 0.019506924 -0.030199392 -0.051751282 -0.054248083 -0.07910853
0.031173004 -0.012279428 -0.042499963 -0.055601683 0.062431116 0.05790823 -0.08598597 -0.08396819
-0.005941483 0.041431803 0.03715427 0.021366378 0.0017548964 -0.48880294 -0.22179995 0.004949049
-0.07177965 0.30506065 0.1013529 -0.0041678264 -0.10444516 -0.012234426 0.042604897 -0.025185496
-0.12718794 -0.02281767 0.16130568 0.008090256 0.13761567 -0.08207041 -0.51338303 -0.21679355
0.16173919 -0.0032690153 0.054890662 -0.044196248 0.09732384 0.07610759 0.06660727 0.18021226
-0.085805714 0.023969993 0.06828228 0.098768055 -0.023574546 -0.018655159 -0.022818461 -0.24232264
-0.030800138 0.15825467 -9.502459e-05 -0.2495471 0.0066228793 0.04268803 0.08037971 0.09653944
0.028237151 -0.017530093 0.06501151 -0.028543865 0.009609908 0.014475295 0.0421301 -0.039059747
0.10331494 -0.010599044 0.1427668 0.3068083 0.03144474 0.1734528 -0.106810495 0.016222412
-0.01852575 0.030060789 0.03431372 0.12665206 0.012596812 0.17784494 0.023559764 -0.093972616
0.042599946 -0.030753694 0.037446722 0.063143365 0.05162217 0.017764237 0.13562872 0.08525364
-0.34417173 -0.06817891 0.27262962 -0.010719327 -0.041029453 -0.019989097 -0.08386249 -0.033916336
-0.017385539 -0.12854147 -0.14291258 -0.08518671 -0.026789723 -0.024205338 -0.08802779 -0.15454586
-0.13086222 0.076342165 -0.054015707 -0.013292375 0.059428748 -0.024677936 -0.02593539 -0.0029204467
-0.051916037 0.04891957 0.012151494 -0.06379457 -0.014537034 -0.013921598 0.0076606367 0.07457279
-0.120452195 0.021561446 -0.04711266 0.12874016 0.27321228 0.025147 -0.041736603 0.0055811596
0.14013982 0.04619384 -0.024536848 0.07751477 0.0282019 0.19831401 -0.0072817462 0.058515854
0.09603028 0.0047815694 0.06469805 -0.05887999 -0.1320182 0.023826724 0.14360258 0.1234811
0.032774385 0.0107880365 -0.027621038 -0.22422893 0.07535848 0.14265244 0.068400964 0.062263798
0.13131613 0.04104317 0.22930427 0.113422185 -0.16465928 0.027947228 0.04936435 0.026168931
-0.29332125 -0.04246671 0.01238141 -0.5062706 -0.09981714 -0.107154705 -0.13438347 -0.25056282
-0.106265984 -0.102252424 0.0019542573 -0.036990765 -0.22281232 0.038745165 0.094966024 0.2698543
-0.050029058 0.033441026 -0.018959027 -0.06311864 0.12155009 0.1366042 -0.092857674 -0.016240522

conv2.att_src f4 [1, 1, 3]
00000000: 1348 0cbf 5f24 5b3f 041c 343f
-0.54797477 0.8560237 0.7035525

conv2.att_dst f4 [1, 1, 3]
00000000: 982f fcbd 67f7 443f fc93 173f
-0.12313765 0.76940006 0.5921018

conv2.bias f4 [3]
00000000: e50a ac3e b6ec 89be 2f20 033c
0.33602062 -0.2693841 0.008003279

conv2.lin_src.weight f4 [3, 64]
00000000: b4b4 dfbe bd98 7a3f 1966 12bf 1a42 6f3f
00000010: 2177 733f 9726 f8be d41e 6ebf fe7b 33bf
00000020: 4665 523f c5c1 85bf b077 52bf cb96 33bf
00000030: 2a7d 4dbf e56d 543f 1e4c 693f 06fb 293f
00000040: ad9b 6f3f 0b47 16be c656 843f 171c 8d3f
00000050: 5f23 673f 3cb4 87bf 83ad 83bf ad2b 35bf
00000060: eb62 64bf e06f 86bf 0c33 5ebf 95c6 4b3f
00000070: 7f6a 2a3f 66ba 51bf 65c2 73bf 19d8 5fbf
00000080: bc15 143f ffce 10bf e922 833f b940 1fbf
00000090: 437e 703f 5ccd 38bf 2898 65bf d7a2 703f
000000a0: 9306 5d3f f63a 8fbf 543d 813f efc9 713f
000000b0: 9508 943f a9be 733f d310 89bf 8d67 893f
000000c0: be61 5e3f 6dab 443f 10a3 613f 7cd7 513f
000000d0: 752b 82bf 1be5 3dbf db60 683f 2f9f 21bf
000000e0: 7d90 783f 5f5a 54bf a64d 1c3f eec9 1d3f
000000f0: dc3a 46bf 163f 553f dc30 75bf 512e 7f3f
00000100: d085 79bf dc12 96bf 3596 11bf 301d 98bf
00000110: d9b5 80bf 5f51 47bf 0918 7f3f 391b 9b3f
00000120: 8c4b 003f 1ce3 1d3f 8c76 633f 3878 333f
00000130: a521 75bf 8b53 5ebf 326b 583f ab69 653f
00000140: c86c 5ebf de03 86bf 624a 6f3f 45c4 65bf
00000150: 9cf7 5cbf 8b5e 4a3f fce0 3b3f b7ab 49bf
00000160: 0d5b 803f 76b8 103f 6f43 6c3f 4321 523f
00000170: 5727 573f 7ed7 2e3f 2bb4 1e3f 9955 8f3f
00000180: 8cd3 8abf d14f 15bf 10c1 62bf 79db 2bbf
00000190: 53a5 273e 6d1c 853f 4b8a 7abf 06af 043f
000001a0: 9e8f 683f 30c9 213f 0281 62bc 414f 89bf
000001b0: ce40 76bf ab68 2fbf 2298 393f 57cf 5ebf
000001c0: 1b56 60bf 92e8 7abf bc89 41bf 6f62 80bf
000001d0: bda8 463f 0f37 60bf 41e2 623f 7b56 863f
000001e0: d9d2 2cbf 0547 213f 65e6 95bf dbda 823f
000001f0: 5636 f23e 5a09 83bf 41d5 3dbf 3e81 58bf
00000200: ce36 703f b4a7 663f c0a0 883f dc6e 853f
00000210: 44c4 7a3f 0bfc 953f 8ca7 81bf d5f1 ffbe
00000220: 31ec 54bf ffe9 063f 660d 70bf 36a5 763f
00000230: b61d 2a3f 2cfb 6d3f 68e3 89bf 5b70 87bf
00000240: 547f 5f3f 9a61 913f c451 8dbf b418 66bf
00000250: 3b93 7dbf 5783 2f3f 8edb 2c3f dea2 823f
00000260: 1281 74bf 5b92 743f 7a30 44bf 91c5 5abf
00000270: 1f90 82bf 3648 743f 8158 2a3f b29a 30bf
00000280: 57e3 4f3f afef 8e3f 2c51 26bf cce7 8b3f
00000290: b24f 22bf 06e1 6cbf d3f8 933f 9c42 8ebf
000002a0: 23ca 5bbf 7914 493f a9d6 81bf eed5 2a3f
000002b0: 3a86 81bf eda2 35bf 3daf 353f 71d0 31bf
000002c0: c319 893f aede 593f 6d81 45bf e2f1 3e3f
000002d0: 15d0 113f 0075 8b3f 32ef 8bbf a024 41bf
000002e0: d1c1 70bf 8d49 643f 5542 833f 6c47 66bf
000002f0: 1466 5d3f 2982 813f 37eb 803f 7ad2 f0be
-0.43692553 0.9788931 -0.5718704 0.9346024 0.9510365 -0.48466942 -0.9301579 -0.7011107
0.8218578 -1.0449759 -0.8221388 -0.70151967 -0.8026911 0.82980186 0.9113177 0.66398656
0.9359692 -0.14675538 1.0338981 1.1024197 0.90288347 -1.0601878 -1.0287327 -0.7076977
-0.89213437 -1.0502892 -0.8679664 0.7959989 0.6656875 -0.81925046 -0.952185 -0.87439114
0.57845664 -0.5656585 1.0245029 -0.62208134 0.9394266 -0.72188354 -0.89685297 0.93998474
0.86338156 -1.1189868 1.0096841 0.9444875 1.1565119 0.952128 -1.0708259 1.0734726
0.8686789 0.76824075 0.8813944 0.8196943 -1.0169512 -0.7417771 0.9077279 -0.6313352
0.9709547 -0.82950395 0.6105598 0.61636245 -0.7743356 0.83299387 -0.9577768 0.9968005
-0.97469807 -1.1724505 -0.5686982 -1.1883907 -1.0055496 -0.7785854 0.9964605 1.2117683
0.50115275 0.61674666 0.88852763 0.70105314 -0.9575446 -0.86846226 0.8453857 0.8961436
-0.86884737 -1.046993 0.93472874 -0.8975261 -0.8631532 0.7905051 0.73390174 -0.7877764
1.0027786 0.56531465 0.92290395 0.82082003 0.840444 0.68297565 0.61993665 1.1197997
-1.0845809 -0.58324915 -0.8857584 -0.67131764 0.1637166 1.03993 -0.9786727 0.51829565
0.9084414 0.6319761 -0.013824703 -1.0727311 -0.96192634 -0.68519086 0.7249776 -0.87035125
-0.87631387 -0.98011124 -0.7560079 -1.003004 0.77601224 -0.8758401 0.88626486 1.0495142
-0.6750923 0.6299899 -1.1710936 1.0223039 0.4730708 -1.0237229 -0.74153525 -0.8457221
0.93833625 0.90099645 1.0674057 1.0424457 0.9795573 1.1717542 -1.0129256 -0.4998919
-0.831729 0.527008 -0.93770444 0.9634584 0.66451585 0.9296138 -1.0772524 -1.0581163
0.8730366 1.1357911 -1.1040578 -0.89881444 -0.9905278 0.68559784 0.67522514 1.0205953
-0.95509446 0.9553582 -0.7663647 -0.8545771 -1.0200232 0.95422685 0.66541296 -0.68986046
0.8120627 1.1166896 -0.6496761 1.0930114 -0.63402855 -0.9253086 1.156031 -1.1114078
-0.8585531 0.78546864 -1.0143634 0.6673268 -1.0119088 -0.7095173 0.7097052 -0.6945868
1.0710987 0.8510541 -0.77150613 0.74587834 0.56958133 1.089508 -1.0932372 -0.7544651
-0.9404574 0.8917473 1.0254618 -0.8995273 0.86483884 1.0117847 1.0071782 -0.4703558

conv2.lin_dst.weight f4 [3, 64]
00000000: b4b4 dfbe bd98 7a3f 1966 12bf 1a42 6f3f
00000010: 2177 733f 9726 f8be d41e 6ebf fe7b 33bf
00000020: 4665 523f c5c1 85bf b077 52bf cb96 33bf
00000030: 2a7d 4dbf e56d 543f 1e4c 693f 06fb 293f
00000040: ad9b 6f3f 0b47 16be c656 843f 171c 8d3f
00000050: 5f23 673f 3cb4 87bf 83ad 83bf ad2b 35bf
00000060: eb62 64bf e06f 86bf 0c33 5ebf 95c6 4b3f
00000070: 7f6a 2a3f 66ba 51bf 65c2 73bf 19d8 5fbf
00000080: bc15 143f ffce 10bf e922 833f b940 1fbf
00000090: 437e 703f 5ccd 38bf 2898 65bf d7a2 703f
000000a0: 9306 5d3f f63a 8fbf 543d 813f efc9 713f
000000b0: 9508 943f a9be 733f d310 89bf 8d67 893f
000000c0: be61 5e3f 6dab 443f 10a3 613f 7cd7 513f
000000d0: 752b 82bf 1be5 3dbf db60 683f 2f9f 21bf
000000e0: 7d90 783f 5f5a 54bf a64d 1c3f eec9 1d3f
000000f0: dc3a 46bf 163f 553f dc30 75bf 512e 7f3f
00000100: d085 79bf dc12 96bf 3596 11bf 301d 98bf
00000110: d9b5 80bf 5f51 47bf 0918 7f3f 391b 9b3f
00000120: 8c4b 003f 1ce3 1d3f 8c76 633f 3878 333f
00000130: a521 75bf 8b53 5ebf 326b 583f ab69 653f
00000140: c86c 5ebf de03 86bf 624a 6f3f 45c4 65bf
00000150: 9cf7 5cbf 8b5e 4a3f fce0 3b3f b7ab 49bf
00000160: 0d5b 803f 76b8 103f 6f43 6c3f 4321 523f
00000170: 5727 573f 7ed7 2e3f 2bb4 1e3f 9955 8f3f
00000180: 8cd3 8abf d14f 15bf 10c1 62bf 79db 2bbf
00000190: 53a5 273e 6d1c 853f 4b8a 7abf 06af 043f
000001a0: 9e8f 683f 30c9 213f 0281 62bc 414f 89bf
000001b0: ce40 76bf ab68 2fbf 2298 393f 57cf 5ebf
000001c0: 1b56 60bf 92e8 7abf bc89 41bf 6f62 80bf
000001d0: bda8 463f 0f37 60bf 41e2 623f 7b56 863f
000001e0: d9d2 2cbf 0547 213f 65e6 95bf dbda 823f
000001f0: 5636 f23e 5a09 83bf 41d5 3dbf 3e81 58bf
00000200: ce36 703f b4a7 663f c0a0 883f dc6e 853f
00000210: 44c4 7a3f 0bfc 953f 8ca7 81bf d5f1 ffbe
00000220: 31ec 54bf ffe9 063f 660d 70bf 36a5 763f
00000230: b61d 2a3f 2cfb 6d3f 68e3 89bf 5b70 87bf
00000240: 547f 5f3f 9a61 913f c451 8dbf b418 66bf
00000250: 3b93 7dbf 5783 2f3f 8edb 2c3f dea2 823f
00000260: 1281 74bf 5b92 743f 7a30 44bf 91c5 5abf
00000270: 1f90 82bf 3648 743f 8158 2a3f b29a 30bf
00000280: 57e3 4f3f afef 8e3f 2c51 26bf cce7 8b3f
00000290: b24f 22bf 06e1 6cbf d3f8 933f 9c42 8ebf
000002a0: 23ca 5bbf 7914 493f a9d6 81bf eed5 2a3f
000002b0: 3a86 81bf eda2 35bf 3daf 353f 71d0 31bf
000002c0: c319 893f aede 593f 6d81 45bf e2f1 3e3f
000002d0: 15d0 113f 0075 8b3f 32ef 8bbf a024 41bf
000002e0: d1c1 70bf 8d49 643f 5542 833f 6c47 66bf
000002f0: 1466 5d3f 2982 813f 37eb 803f 7ad2 f0be
-0.43692553 0.9788931 -0.5718704 0.9346024 0.9510365 -0.48466942 -0.9301579 -0.7011107
0.8218578 -1.0449759 -0.8221388 -0.70151967 -0.8026911 0.82980186 0.9113177 0.66398656
0.9359692 -0.14675538 1.0338981 1.1024197 0.90288347 -1.0601878 -1.0287327 -0.7076977
-0.89213437 -1.0502892 -0.8679664 0.7959989 0.6656875 -0.81925046 -0.952185 -0.87439114
0.57845664 -0.5656585 1.0245029 -0.62208134 0.9394266 -0.72188354 -0.89685297 0.93998474
0.86338156 -1.1189868 1.0096841 0.9444875 1.1565119 0.952128 -1.0708259 1.0734726
0.8686789 0.76824075 0.8813944 0.8196943 -1.0169512 -0.7417771 0.9077279 -0.6313352
0.9709547 -0.82950395 0.6105598 0.61636245 -0.7743356 0.83299387 -0.9577768 0.9968005
-0.97469807 -1.1724505 -0.5686982 -1.1883907 -1.0055496 -0.7785854 0.9964605 1.2117683
0.50115275 0.61674666 0.88852763 0.70105314 -0.9575446 -0.86846226 0.8453857 0.8961436
-0.86884737 -1.046993 0.93472874 -0.8975261 -0.8631532 0.7905051 0.73390174 -0.7877764
1.0027786 0.56531465 0.92290395 0.82082003 0.840444 0.68297565 0.61993665 1.1197997
-1.0845809 -0.58324915 -0.8857584 -0.67131764 0.1637166 1.03993 -0.9786727 0.51829565
0.9084414 0.6319761 -0.013824703 -1.0727311 -0.96192634 -0.68519086 0.7249776 -0.87035125
-0.87631387 -0.98011124 -0.7560079 -1.003004 0.77601224 -0.8758401 0.88626486 1.0495142
-0.6750923 0.6299899 -1.1710936 1.0223039 0.4730708 -1.0237229 -0.74153525 -0.8457221
0.93833625 0.90099645 1.0674057 1.0424457 0.9795573 1.1717542 -1.0129256 -0.4998919
-0.831729 0.527008 -0.93770444 0.9634584 0.66451585 0.9296138 -1.0772524 -1.0581163
0.8730366 1.1357911 -1.1040578 -0.89881444 -0.9905278 0.68559784 0.67522514 1.0205953
-0.95509446 0.9553582 -0.7663647 -0.8545771 -1.0200232 0.95422685 0.66541296 -0.68986046
0.8120627 1.1166896 -0.6496761 1.0930114 -0.63402855 -0.9253086 1.156031 -1.1114078
-0.8585531 0.78546864 -1.0143634 0.6673268 -1.0119088 -0.7095173 0.7097052 -0.6945868
1.0710987 0.8510541 -0.77150613 0.74587834 0.56958133 1.089508 -1.0932372 -0.7544651
-0.9404574 0.8917473 1.0254618 -0.8995273 0.86483884 1.0117847 1.0071782 -0.4703558
