GNNModels/checkpoints/GAT_CiteSeer_epochs=300.pt (torch, 953583 bytes, 10 tensors)

conv1.att_src f4 [1, 8, 8]
000000 16 fc 91 be c8 1a c3 bc 57 27 83 3e 2e 0a ad 3d
       -0.2851264 -0.023816481 0.2561595 0.08449207
000010 8b de 6a bd a3 7e 4d bd 99 54 a8 3e e5 3c e0 bd
       -0.05734114 -0.0501696 0.32877043 -0.10949115
000020 b0 b6 ae 3d f1 cd e9 bd 57 d1 86 be 62 2f 9f 3d
       0.085309386 -0.11416233 -0.2633159 0.077727094
000030 b2 9d e7 be 48 85 ab be 76 81 84 3e 30 de 27 bd
       -0.452375 -0.33500123 0.2588002 -0.04098338
000040 d3 fe 46 be 14 fe 98 bd 3a 4b 65 be 16 dd 25 3f
       -0.19433145 -0.074703366 -0.22391978 0.64790475
000050 36 e5 c8 3d 07 1c a4 be 85 b0 2d 3f 93 b0 15 be
       0.098093435 -0.32052633 0.6784747 -0.14618139
000060 7b 62 92 3e 6e 86 ae be b7 f3 09 3f 69 3f 1e bf
       0.2859076 -0.34086937 0.53887504 -0.61815506
000070 36 47 7a 3e 0c 4a 81 3e 16 98 8f bd 72 d7 c6 3e
       0.24441227 0.25251806 -0.0701143 0.38836247
000080 2c a9 67 bf c8 e5 2b 3f fb 2f 3e be 81 c0 fc 3d
       -0.9049251 0.67147493 -0.1857299 0.12341405
000090 46 32 d3 3d 89 35 fc 3d 07 d3 71 bf 52 c6 6f 3f
       0.10312323 0.123148985 -0.9446263 0.9366199
0000a0 09 95 00 bf e8 1d 1b be 40 fa 2d bd 4d d9 e6 3e
       -0.5022741 -0.15148127 -0.042474985 0.45087662
0000b0 ac 2b 06 3f a8 03 96 bd 81 0a 5e 3e 49 d8 fe 3e
       0.5241039 -0.07324916 0.21683694 0.49774387
0000c0 2b 56 29 3e be 74 bf 3d 1b e0 3a bd d6 14 96 bd
       0.16536777 0.09348439 -0.04562388 -0.07328193
0000d0 7c 25 71 3e 2a 25 fc 3e 06 a3 5c 3e 13 29 ec 3e
       0.23549455 0.49247104 0.21546564 0.46125087
0000e0 d1 a9 1f 3f 3c 5a 66 3e 09 37 0c 3d 4a 11 7f 3c
       0.62368494 0.22495359 0.034232173 0.015568087
0000f0 6f 0d 91 bd 89 36 8e 3e 24 b7 19 be cb a2 1d bf
       -0.070826404 0.27775982 -0.15011269 -0.6157653

conv1.att_dst f4 [1, 8, 8]
000000 15 56 4c bd 44 9a 01 3d 30 00 19 3d 5a 48 b7 3c
       -0.04988678 0.03164126 0.037353694 0.022373367
000010 44 d3 8c bb 2f ee 93 ba e0 34 b2 3d ff 2b 91 bd
       -0.0042976458 -0.0011286194 0.08701491 -0.0708847
000020 1a 11 46 bc 68 97 3a 3c a2 b2 7e bd 96 af 46 bc
       -0.012089038 0.011388637 -0.062182076 -0.012126824
000030 d4 0a a0 bd 45 6c 53 bd eb 35 c1 3a 45 74 82 bb
       -0.07814565 -0.051616926 0.00147408 -0.0039811456
000040 ea 95 1b 3d ff 64 54 bd 6e 8f 0f ba e6 60 23 3e
       0.037984766 -0.05185413 -0.000547639 0.15954933
000050 3a 31 f4 3d ca 8d 9f bc 83 d1 19 3e 55 81 b7 bd
       0.11923452 -0.01947679 0.15021329 -0.08960215
000060 de 3f 0d 3c 69 a2 51 bd a7 56 ae 3d e2 70 b0 bd
       0.008621184 -0.051180277 0.085126214 -0.08615281
000070 05 80 0e 3d 79 c6 23 3d b6 79 a9 bc a8 ed 7d 3c
       0.034790058 0.0399842 -0.02068792 0.015498556
000080 4d 91 87 be fa 39 31 3e d8 6e 17 3e 4a 44 b9 bd
       -0.26478043 0.17307273 0.14788377 -0.09046228
000090 88 dd 52 3d 93 90 23 bd a5 f1 37 be 36 d2 3a 3e
       0.0514808 -0.0399328 -0.17963274 0.18244252
0000a0 62 09 e7 bd e1 a0 6d bd 9f 06 8a bd ef 65 6a 3d
       -0.112810865 -0.058014754 -0.06739544 0.057226118
0000b0 57 ce c3 3d d2 cf b3 bc 2a 67 af b9 a3 40 fb 3d
       0.095608406 -0.021949682 -0.00033455464 0.12268188
0000c0 c4 0e d1 bc ec 47 95 3c bf f1 e9 bc 79 de 95 bc
       -0.025519736 0.018222772 -0.028557656 -0.01829456
0000d0 f3 fc 18 3e f2 25 0c 3e ad 38 3c 3d 15 8b 9f 3d
       0.14940242 0.1368635 0.045952488 0.077902
0000e0 24 9c cd 3d 3e c3 1a 3d d4 72 15 3c 19 0c f2 3c
       0.10039547 0.037783854 0.009121615 0.029546784
0000f0 c7 b7 d0 3c a3 1a e2 3c 18 a6 8b b9 f7 ee b1 bd
       0.025478257 0.027600592 -0.00026635895 -0.08688157

conv1.bias f4 [64]
000000 7f 65 24 bc 58 64 82 bc f3 b0 92 3c 78 f7 34 3d
       -0.010033964 -0.015916988 0.017906642 0.044181317
000010 56 6f bf bb bf 70 42 3c 6e 36 62 bc 7e a3 30 bc
       -0.0058421297 0.011867701 -0.013806922 -0.010781167
000020 4c bf 11 3b 30 9d b7 3c 59 ed 8e bc b9 db 8e 3c
       0.0022239266 0.02241382 -0.01744716 0.017438756
000030 93 ba 03 3d d7 49 f5 3b fa f0 49 3b 25 45 2e bc
       0.032160353 0.007485609 0.00308138 -0.0106366025
000040 0c ba f3 bb aa 88 46 3c 02 2f 65 3c f9 df 02 3c
       -0.00743795 0.012117544 0.013988258 0.00798797
000050 9f e2 db 3c 40 d7 2d bb aa 3f 28 bc aa 1b ec 3c
       0.02684146 -0.0026526004 -0.010269085 0.028821785
000060 5f 14 a9 3c b0 e5 bf bb 99 49 67 3c 31 d6 98 3c
       0.020639597 -0.0058562383 0.014116668 0.018656822
000070 c8 40 29 bc e1 15 d4 bb 7f 1d 43 3c 0e 25 41 3c
       -0.010330386 -0.0064723347 0.011908888 0.01178862
000080 07 f1 55 3c fe 09 78 bb 02 11 6b 3c c2 e2 b6 bb
       0.013057954 -0.0037847753 0.014347317 -0.005581231
000090 b8 27 82 bc 8d f9 17 3c d0 7b c2 3c 4e af c5 bb
       -0.01588808 0.009275806 0.023740679 -0.006032861
0000a0 24 dc 3d 3c dc 43 36 3d 36 18 05 3c 47 6e e3 3c
       0.01158813 0.04449831 0.008123448 0.027762545
0000b0 c3 66 25 3c ec 16 85 bb 36 af f3 3b 51 b8 20 3b
       0.010095301 -0.0040615704 0.0074366583 0.0024523924
0000c0 9d 7c ac bb c1 1b a3 bc e6 99 f6 3c 40 19 9a 3c
       -0.0052638785 -0.019910695 0.030102681 0.018810868
0000d0 b3 cc 4a 3d 43 48 6d bb 05 d4 a9 3c 9a b0 05 3c
       0.049511623 -0.0036206401 0.020730982 0.008159781
0000e0 b7 f3 17 3b 3f c5 ba 3c 52 71 92 3c 08 14 b7 3b
       0.0023186037 0.022799132 0.017876301 0.0055871047
0000f0 2c c9 d2 3c 2d 5d 4f 3c 9a 46 7f bc 4b 8e e0 3b
       0.025730692 0.012656492 -0.015580798 0.0068529

conv1.lin_src.weight f4 [64, 3703]
000000 b7 29 12 bc 85 b3 a3 bd 98 bf 7b 3a b6 89 61 bc
       -0.008921078 -0.07993225 0.000960344 -0.013765743
000010 43 e8 13 3c ff 08 b4 bd f8 7a 9e 3c 7f e8 b3 b1
       0.0090275435 -0.08790778 0.019345745 -5.2360174e-09
000020 c8 84 07 b1 d2 82 0a bd 9e 45 6f ba 2a b9 c0 bd
       -1.9720563e-09 -0.033816166 -0.00091275 -0.09410317
000030 1e 45 70 3c 1b ea 4c bd ed dc 3e bd aa 3c 10 3c
       0.014664916 -0.050027948 -0.04659741 0.008803526
000040 34 d0 3e bd 22 0d b0 3b 3e e9 2b bd 63 cf c3 bb
       -0.046585277 0.0053726593 -0.041970484 -0.00597565
000050 12 4d 0f 3c c8 7a 24 3d 4a fc a0 3e 9d b8 80 3c
       0.008746402 0.040156156 0.3144248 0.01571303
000060 75 26 33 3d 71 25 b2 3c a1 e4 df bd 82 4d 15 bc
       0.043737847 0.02174637 -0.109322794 -0.009112718
000070 56 f4 b7 3b a6 5f 00 be 68 ba 47 bc ce 00 8a bd
       0.005613844 -0.12536487 -0.012190439 -0.06738435
000080 e1 ab 58 3e 9f 56 7b bc 27 39 22 bd e9 54 af bd
       0.21159317 -0.015340476 -0.039605286 -0.08561117
000090 aa b4 32 be 4c 51 09 bd 27 27 a1 bd 70 40 a8 3c
       -0.1745173 -0.033524796 -0.07868796 0.020538539
0000a0 35 f2 29 bc cb 0e 50 bc 49 8e d9 3c 74 1f 49 b9
       -0.010372688 -0.012698839 0.026557105 -0.00019180571
0000b0 29 20 82 3d 53 a2 c3 bd 50 88 cc bd eb 9f 54 3c
       0.0635379 -0.09552445 -0.09986937 0.012977581
0000c0 5f 78 1c bc cd a1 f9 ba b8 9f d4 b0 8b ad 37 bd
       -0.009550183 -0.0019045413 -1.5470425e-09 -0.044843238
0000d0 46 e1 56 ba 8d a1 a5 3d 78 13 25 3d 7e 83 08 bd
       -0.00081970205 0.08087454 0.04030177 -0.033328526
0000e0 a7 4a 1d bc 2b 92 8b bc 47 1e e7 3b 63 c2 e3 bb
       -0.009600318 -0.017037472 0.00705317 -0.006950663
0000f0 bd 57 95 bb ee ed 05 be 72 96 af 31 0d 74 19 3b
       -0.0045575784 -0.13079044 5.110274e-09 0.002341512
000100 50 e7 20 3a 2a 95 25 bf 9d d4 a0 3c 2a ea 9f bc
       0.0006137984 -0.6468073 0.019632632 -0.019520838
000110 f0 b4 16 b8 18 0c cc ba 7e 67 b4 3b ce 4e 22 bd
       -3.5931298e-05 -0.0015567569 0.0055055013 -0.039625935
000120 c1 dd 78 3d 89 0d d5 bd 2d 49 9c 3b 81 68 2a be
       0.060758356 -0.10402972 0.0047694654 -0.16641428
000130 3e 0b 5c bd ee f2 d8 bb a9 b8 68 3d 48 7a a3 31
       -0.05372166 -0.0066207564 0.05681673 4.757826e-09
000140 97 92 0e 3d 10 10 1c bd ec d7 f9 3d 44 61 18 3c
       0.034807768 -0.038101256 0.12199387 0.009300534
000150 16 73 b2 3a 66 cf 8d 3c 01 31 f5 3c dd d7 c1 bd
       0.001361462 0.01731081 0.029930593 -0.09465001
000160 96 ff 7e b0 ae 28 96 3b 4f 42 e8 3b ed 18 07 bd
       -9.276787e-10 0.004582486 0.0070879827 -0.032982755
000170 8a 80 e2 3c e2 db 52 3d c5 94 ea bc c8 8e 43 3d
       0.027649183 0.051479228 -0.028635392 0.04774359
000180 10 96 58 3c db 05 14 bd 14 46 d1 bb 80 75 c9 b0
       0.013219371 -0.036138397 -0.006386528 -1.465807e-09
000190 88 77 82 af 55 75 e0 3c 52 74 0e 3d 15 a3 95 bb
       -2.3731794e-10 0.027399698 0.0347789 -0.00456656
0001a0 bc 2b be 3b 35 bd 4a 3a 89 67 4c 39 7f 58 bc bb
       0.0058035534 0.00077338825 0.00019493526 -0.0057478542
0001b0 fe 88 98 3b 1f 01 6a bd 4a ef c4 bd 3c 88 3e 3c
       0.0046550026 -0.057129975 -0.09615953 0.0116291605
0001c0 0b 7f de 3c 88 5a b7 3d e5 e3 bd bd e7 1a c9 31
       0.027160188 0.08952814 -0.09271983 5.8529284e-09
0001d0 98 7a 74 af 70 47 38 b0 fd 1d 3f bc 4d 71 ab 3c
       -2.2235225e-10 -6.704033e-10 -0.011664865 0.02092805
0001e0 30 ef 60 ba 5c fb c6 3c e4 08 dc 3a e1 22 88 3a
       -0.00085805636 0.02428978 0.0016787318 0.0010386371
0001f0 93 81 52 3d 22 80 c2 3c 79 27 37 30 50 13 8a 3b
       0.051393103 0.02374274 6.6631106e-10 0.004213728
000200 89 ac 12 bc 80 1a b4 3b 23 1a ab bc 47 e1 b0 bd
       -0.008952268 0.005496323 -0.020886486 -0.08636718
000210 b4 cd 0c 3c c7 46 89 bd 79 b1 93 bd a8 c8 c1 3d
       0.008593965 -0.06702953 -0.072115846 0.094621
000220 49 2b cb 3a 65 2c 35 3c db 1d 4b 3d da b1 7f 3d
       0.0015500571 0.011057948 0.04958902 0.06242547
000230 d2 29 a4 bd 5d e8 95 bc cf c4 84 3c ac 66 06 3c
       -0.08015789 -0.018299276 0.016207127 0.00820319
000240 93 78 1b 30 af 1a 8f 31 7a 8c 9e 3c f0 5f 74 3d
       5.656002e-10 4.1648813e-09 0.019354094 0.059661806
000250 74 5e be bd 62 67 0b 3d 80 35 9a bb 9b b9 cd 3a
       -0.09295359 0.03403414 -0.0047060847 0.0015695574
000260 3c a3 1e b1 aa e7 35 30 dd bb 30 3d ab df dc bd
       -2.3084814e-09 6.617663e-10 0.04314791 -0.10784849
000270 b8 6c 9e bc 08 3c 68 b1 22 28 ac 3b a4 e9 40 3c
       -0.01933895 -3.3794567e-09 0.0052538076 0.011774454
000280 07 4a 36 bd ee 3f e9 bb 69 71 a3 3c 42 d6 79 3c
       -0.04450419 -0.0071182167 0.01995154 0.015248837
000290 de 48 98 3c 02 7e c5 3c f0 65 bc bd c6 26 c8 3a
       0.018589433 0.024107937 -0.091991305 0.0015270344
0002a0 6e fb 41 bc a8 c9 ba be 85 21 03 3c 11 45 da 3b
       -0.011839731 -0.36481977 0.008003597 0.0066610654
0002b0 7a 1b 9d 3b 51 cc 72 3d b3 f3 cc bb a5 e9 aa bc
       0.004794535 0.059276883 -0.006254637 -0.020863364
0002c0 db d6 e0 3b 1e 14 8b be 01 28 5e 3d 47 62 27 3d
       0.0068615503 -0.27163786 0.05423737 0.04086521
0002d0 52 65 84 30 5b b6 7e b1 bf cc 5f 3c 6e 18 60 30
       9.633061e-10 -3.7065522e-09 0.013659655 8.152544e-10
0002e0 c8 2d e5 3c 7e 29 01 3b c8 38 f4 3b e9 71 c1 3c
       0.027975932 0.001970857 0.007453058 0.023613887
0002f0 00 5e a6 3c 02 4f 9e bd b1 42 81 3c 7a 2b e4 af
       0.020308495 -0.07729913 0.015778871 -4.150385e-10
000300 82 df 8b bc 0f f7 a7 3c cd 57 8e bb f9 ee 15 3b
       -0.01707435 0.020503549 -0.0043439628 0.0022878035
000310 6c cb 5a bd 96 32 b4 bd d8 37 b7 3b a1 a7 bf 3c
       -0.053416654 -0.08798711 0.005591374 0.023395361
000320 17 0f d7 bd 4d 6d 86 3c a9 c3 75 bd ae 0e e3 3b
       -0.10500925 0.01640954 -0.06000105 0.00692924
000330 14 47 9f b9 ef 32 27 3b db d5 6a 3d a5 4d b8 b9
       -0.000303798 0.0025512537 0.057332855 -0.00035153065
000340 77 85 7f bc 62 4f 31 be 8e 77 df bb 04 8c 99 3b
       -0.015595785 -0.17315438 -0.006819672 0.0046858806
000350 9a fa c9 3b c0 bd 44 3d 03 05 0f bd 88 fb ee bd
       0.0061639072 0.048032522 -0.03491689 -0.116690695
000360 3c f7 66 39 1f 68 77 bc c8 87 82 bb 16 80 8c bd
       0.00022026611 -0.015100508 -0.0039834715 -0.06860368
000370 33 ce 21 3c 94 39 04 ba 76 d0 03 3c e2 13 15 bc
       0.009875822 -0.000504398 0.008045306 -0.009098979
000380 8d aa 73 bd b4 44 70 bd 2d dc 2a bd 65 41 cb bb
       -0.05948882 -0.05865927 -0.041713882 -0.006202864
000390 d7 04 d1 bb b2 00 58 3d fb e3 2a be d4 32 52 3c
       -0.006378751 0.052735038 -0.1668853 0.012829501
0003a0 ea e8 ca bd d4 04 36 bc b8 96 4d 3c af bc 89 3c
       -0.09907706 -0.01110955 0.012548141 0.016813604
0003b0 60 8a 10 3c 5d 1e e1 3c c3 44 22 3c 03 21 c5 3c
       0.008822054 0.027480299 0.009904089 0.024063593
0003c0 80 06 48 3c bc 67 56 bc a2 26 ec 3a 3c 17 94 ba
       0.012208581 -0.013086256 0.0018016885 -0.0011298428
0003d0 f4 ca e8 bb 10 29 e8 bd 36 80 12 3c 80 2f 28 be
       -0.007104272 -0.11335957 0.008941701 -0.1642437
0003e0 32 f8 d8 bc 53 a4 52 3e f4 78 27 bd d8 b0 ca 39
       -0.026485536 0.20570497 -0.040886834 0.000386602
0003f0 2c 92 00 ba a3 e0 67 3c d8 01 88 3b fb 27 6d 3b
       -0.0004904594 0.014152679 0.0041506104 0.003618716

conv1.lin_dst.weight f4 [64, 3703]
000000 b7 29 12 bc 85 b3 a3 bd 98 bf 7b 3a b6 89 61 bc
       -0.008921078 -0.07993225 0.000960344 -0.013765743
000010 43 e8 13 3c ff 08 b4 bd f8 7a 9e 3c 7f e8 b3 b1
       0.0090275435 -0.08790778 0.019345745 -5.2360174e-09
000020 c8 84 07 b1 d2 82 0a bd 9e 45 6f ba 2a b9 c0 bd
       -1.9720563e-09 -0.033816166 -0.00091275 -0.09410317
000030 1e 45 70 3c 1b ea 4c bd ed dc 3e bd aa 3c 10 3c
       0.014664916 -0.050027948 -0.04659741 0.008803526
000040 34 d0 3e bd 22 0d b0 3b 3e e9 2b bd 63 cf c3 bb
       -0.046585277 0.0053726593 -0.041970484 -0.00597565
000050 12 4d 0f 3c c8 7a 24 3d 4a fc a0 3e 9d b8 80 3c
       0.008746402 0.040156156 0.3144248 0.01571303
000060 75 26 33 3d 71 25 b2 3c a1 e4 df bd 82 4d 15 bc
       0.043737847 0.02174637 -0.109322794 -0.009112718
000070 56 f4 b7 3b a6 5f 00 be 68 ba 47 bc ce 00 8a bd
       0.005613844 -0.12536487 -0.012190439 -0.06738435
000080 e1 ab 58 3e 9f 56 7b bc 27 39 22 bd e9 54 af bd
       0.21159317 -0.015340476 -0.039605286 -0.08561117
000090 aa b4 32 be 4c 51 09 bd 27 27 a1 bd 70 40 a8 3c
       -0.1745173 -0.033524796 -0.07868796 0.020538539
0000a0 35 f2 29 bc cb 0e 50 bc 49 8e d9 3c 74 1f 49 b9
       -0.010372688 -0.012698839 0.026557105 -0.00019180571
0000b0 29 20 82 3d 53 a2 c3 bd 50 88 cc bd eb 9f 54 3c
       0.0635379 -0.09552445 -0.09986937 0.012977581
0000c0 5f 78 1c bc cd a1 f9 ba b8 9f d4 b0 8b ad 37 bd
       -0.009550183 -0.0019045413 -1.5470425e-09 -0.044843238
0000d0 46 e1 56 ba 8d a1 a5 3d 78 13 25 3d 7e 83 08 bd
       -0.00081970205 0.08087454 0.04030177 -0.033328526
0000e0 a7 4a 1d bc 2b 92 8b bc 47 1e e7 3b 63 c2 e3 bb
       -0.009600318 -0.017037472 0.00705317 -0.006950663
0000f0 bd 57 95 bb ee ed 05 be 72 96 af 31 0d 74 19 3b
       -0.0045575784 -0.13079044 5.110274e-09 0.002341512
000100 50 e7 20 3a 2a 95 25 bf 9d d4 a0 3c 2a ea 9f bc
       0.0006137984 -0.6468073 0.019632632 -0.019520838
000110 f0 b4 16 b8 18 0c cc ba 7e 67 b4 3b ce 4e 22 bd
       -3.5931298e-05 -0.0015567569 0.0055055013 -0.039625935
000120 c1 dd 78 3d 89 0d d5 bd 2d 49 9c 3b 81 68 2a be
       0.060758356 -0.10402972 0.0047694654 -0.16641428
000130 3e 0b 5c bd ee f2 d8 bb a9 b8 68 3d 48 7a a3 31
       -0.05372166 -0.0066207564 0.05681673 4.757826e-09
000140 97 92 0e 3d 10 10 1c bd ec d7 f9 3d 44 61 18 3c
       0.034807768 -0.038101256 0.12199387 0.009300534
000150 16 73 b2 3a 66 cf 8d 3c 01 31 f5 3c dd d7 c1 bd
       0.001361462 0.01731081 0.029930593 -0.09465001
000160 96 ff 7e b0 ae 28 96 3b 4f 42 e8 3b ed 18 07 bd
       -9.276787e-10 0.004582486 0.0070879827 -0.032982755
000170 8a 80 e2 3c e2 db 52 3d c5 94 ea bc c8 8e 43 3d
       0.027649183 0.051479228 -0.028635392 0.04774359
000180 10 96 58 3c db 05 14 bd 14 46 d1 bb 80 75 c9 b0
       0.013219371 -0.036138397 -0.006386528 -1.465807e-09
000190 88 77 82 af 55 75 e0 3c 52 74 0e 3d 15 a3 95 bb
       -2.3731794e-10 0.027399698 0.0347789 -0.00456656
0001a0 bc 2b be 3b 35 bd 4a 3a 89 67 4c 39 7f 58 bc bb
       0.0058035534 0.00077338825 0.00019493526 -0.0057478542
0001b0 fe 88 98 3b 1f 01 6a bd 4a ef c4 bd 3c 88 3e 3c
       0.0046550026 -0.057129975 -0.09615953 0.0116291605
0001c0 0b 7f de 3c 88 5a b7 3d e5 e3 bd bd e7 1a c9 31
       0.027160188 0.08952814 -0.09271983 5.8529284e-09
0001d0 98 7a 74 af 70 47 38 b0 fd 1d 3f bc 4d 71 ab 3c
       -2.2235225e-10 -6.704033e-10 -0.011664865 0.02092805
0001e0 30 ef 60 ba 5c fb c6 3c e4 08 dc 3a e1 22 88 3a
       -0.00085805636 0.02428978 0.0016787318 0.0010386371
0001f0 93 81 52 3d 22 80 c2 3c 79 27 37 30 50 13 8a 3b
       0.051393103 0.02374274 6.6631106e-10 0.004213728
000200 89 ac 12 bc 80 1a b4 3b 23 1a ab bc 47 e1 b0 bd
       -0.008952268 0.005496323 -0.020886486 -0.08636718
000210 b4 cd 0c 3c c7 46 89 bd 79 b1 93 bd a8 c8 c1 3d
       0.008593965 -0.06702953 -0.072115846 0.094621
000220 49 2b cb 3a 65 2c 35 3c db 1d 4b 3d da b1 7f 3d
       0.0015500571 0.011057948 0.04958902 0.06242547
000230 d2 29 a4 bd 5d e8 95 bc cf c4 84 3c ac 66 06 3c
       -0.08015789 -0.018299276 0.016207127 0.00820319
000240 93 78 1b 30 af 1a 8f 31 7a 8c 9e 3c f0 5f 74 3d
       5.656002e-10 4.1648813e-09 0.019354094 0.059661806
000250 74 5e be bd 62 67 0b 3d 80 35 9a bb 9b b9 cd 3a
       -0.09295359 0.03403414 -0.0047060847 0.0015695574
000260 3c a3 1e b1 aa e7 35 30 dd bb 30 3d ab df dc bd
       -2.3084814e-09 6.617663e-10 0.04314791 -0.10784849
000270 b8 6c 9e bc 08 3c 68 b1 22 28 ac 3b a4 e9 40 3c
       -0.01933895 -3.3794567e-09 0.0052538076 0.011774454
000280 07 4a 36 bd ee 3f e9 bb 69 71 a3 3c 42 d6 79 3c
       -0.04450419 -0.0071182167 0.01995154 0.015248837
000290 de 48 98 3c 02 7e c5 3c f0 65 bc bd c6 26 c8 3a
       0.018589433 0.024107937 -0.091991305 0.0015270344
0002a0 6e fb 41 bc a8 c9 ba be 85 21 03 3c 11 45 da 3b
       -0.011839731 -0.36481977 0.008003597 0.0066610654
0002b0 7a 1b 9d 3b 51 cc 72 3d b3 f3 cc bb a5 e9 aa bc
       0.004794535 0.059276883 -0.006254637 -0.020863364
0002c0 db d6 e0 3b 1e 14 8b be 01 28 5e 3d 47 62 27 3d
       0.0068615503 -0.27163786 0.05423737 0.04086521
0002d0 52 65 84 30 5b b6 7e b1 bf cc 5f 3c 6e 18 60 30
       9.633061e-10 -3.7065522e-09 0.013659655 8.152544e-10
0002e0 c8 2d e5 3c 7e 29 01 3b c8 38 f4 3b e9 71 c1 3c
       0.027975932 0.001970857 0.007453058 0.023613887
0002f0 00 5e a6 3c 02 4f 9e bd b1 42 81 3c 7a 2b e4 af
       0.020308495 -0.07729913 0.015778871 -4.150385e-10
000300 82 df 8b bc 0f f7 a7 3c cd 57 8e bb f9 ee 15 3b
       -0.01707435 0.020503549 -0.0043439628 0.0022878035
000310 6c cb 5a bd 96 32 b4 bd d8 37 b7 3b a1 a7 bf 3c
       -0.053416654 -0.08798711 0.005591374 0.023395361
000320 17 0f d7 bd 4d 6d 86 3c a9 c3 75 bd ae 0e e3 3b
       -0.10500925 0.01640954 -0.06000105 0.00692924
000330 14 47 9f b9 ef 32 27 3b db d5 6a 3d a5 4d b8 b9
       -0.000303798 0.0025512537 0.057332855 -0.00035153065
000340 77 85 7f bc 62 4f 31 be 8e 77 df bb 04 8c 99 3b
       -0.015595785 -0.17315438 -0.006819672 0.0046858806
000350 9a fa c9 3b c0 bd 44 3d 03 05 0f bd 88 fb ee bd
       0.0061639072 0.048032522 -0.03491689 -0.116690695
000360 3c f7 66 39 1f 68 77 bc c8 87 82 bb 16 80 8c bd
       0.00022026611 -0.015100508 -0.0039834715 -0.06860368
000370 33 ce 21 3c 94 39 04 ba 76 d0 03 3c e2 13 15 bc
       0.009875822 -0.000504398 0.008045306 -0.009098979
000380 8d aa 73 bd b4 44 70 bd 2d dc 2a bd 65 41 cb bb
       -0.05948882 -0.05865927 -0.041713882 -0.006202864
000390 d7 04 d1 bb b2 00 58 3d fb e3 2a be d4 32 52 3c
       -0.006378751 0.052735038 -0.1668853 0.012829501
0003a0 ea e8 ca bd d4 04 36 bc b8 96 4d 3c af bc 89 3c
       -0.09907706 -0.01110955 0.012548141 0.016813604
0003b0 60 8a 10 3c 5d 1e e1 3c c3 44 22 3c 03 21 c5 3c
       0.008822054 0.027480299 0.009904089 0.024063593
0003c0 80 06 48 3c bc 67 56 bc a2 26 ec 3a 3c 17 94 ba
       0.012208581 -0.013086256 0.0018016885 -0.0011298428
0003d0 f4 ca e8 bb 10 29 e8 bd 36 80 12 3c 80 2f 28 be
       -0.007104272 -0.11335957 0.008941701 -0.1642437
0003e0 32 f8 d8 bc 53 a4 52 3e f4 78 27 bd d8 b0 ca 39
       -0.026485536 0.20570497 -0.040886834 0.000386602
0003f0 2c 92 00 ba a3 e0 67 3c d8 01 88 3b fb 27 6d 3b
       -0.0004904594 0.014152679 0.0041506104 0.003618716

conv2.att_src f4 [1, 1, 6]
000000 95 c4 8e 3f 24 d8 4c 3f aa 32 da bd 66 88 dd bf
       1.1153742 0.80017304 -0.10654195 -1.730725
000010 5c 55 79 3f 10 4c d6 3e
       0.97395873 0.41854906

conv2.att_dst f4 [1, 1, 6]
000000 5f 52 3d 3e 98 d6 31 3f 8e 7e c2 be 3a 8b 9b 3d
       0.18488453 0.6946807 -0.3798718 0.07594915
000010 65 b7 a4 3c 06 e9 1d 3e
       0.02010698 0.15420923

conv2.bias f4 [6]
000000 22 0b 0d bf 1d b2 17 be 16 0e 53 bc af 20 61 3f
       -0.5509511 -0.14814039 -0.012881776 0.87940496
000010 96 6a e5 be da 74 e3 bc
       -0.4480788 -0.02776568

conv2.lin_src.weight f4 [6, 64]
000000 4b cf 5d bf fc 44 91 3f b4 7b 30 3f fc 55 97 bf
       -0.8664443 1.1349177 0.68938756 -1.1823115
000010 3b 04 a5 bf 7c 9c 8a bf 53 19 58 3f c5 5a 5c 3f
       -1.2891916 -1.0829005 0.8441364 0.86076003
000020 d0 b7 9d bf 34 19 8a 3f 0c 4a a2 3f 3c c7 79 bf
       -1.232172 1.0788941 1.2678847 -0.9756963
000030 7a 9d 83 3f 93 21 8a 3f 49 03 89 bf bc d7 88 3f
       1.0282433 1.0791496 -1.0704128 1.0690837
000040 1a f1 95 bf 27 0b b0 3f 78 ee 89 bf f4 a8 88 3f
       -1.1714203 1.3753403 -1.07759 1.067656
000050 d5 a6 a4 bf e1 2c 94 bf 33 3b 89 3f a1 7e 97 bf
       -1.2863413 -1.1576196 1.0721191 -1.1835519
000060 b4 cb 83 3f 5c fb 8e 3f ca c3 86 bf c1 64 81 3f
       1.029654 1.1170459 -1.05285 1.0108873
000070 9d a3 51 3d 50 1e 64 bf 47 72 80 3f ea ca 96 bf
       0.051181424 -0.89108753 1.0034875 -1.1780674
000080 06 17 92 3f 25 f2 8b bf e8 7d 95 3f 1a 48 66 bf
       1.1413276 -1.0933272 1.1679049 -0.8995377
000090 ee a9 37 bf 4f 82 a0 bf 2d 78 9e 3f 6f 95 a4 bf
       -0.7174367 -1.2539767 1.2380425 -1.2858104
0000a0 83 10 8b 3f 64 46 34 3f 76 ee 93 3f 88 38 38 bf
       1.0864414 0.7041991 1.1557148 -0.7196126
0000b0 ed 3d af bf 4d 88 8b 3f b5 6b 9f be c0 27 9c bf
       -1.3690773 1.0900971 -0.3113686 -1.2199631
0000c0 56 ab 77 bf a9 9f 97 bf 91 1d 94 3f ee b9 8b 3f
       -0.9674581 -1.18456 1.1571523 1.0916116
0000d0 ca e8 8c 3f 0d 65 71 bf 1f 90 81 bf 36 1b 8c bf
       1.1008542 -0.94294816 -1.0122107 -1.0945804
0000e0 86 4a 88 bf 25 33 96 bf b0 da 80 3f 52 32 51 bf
       -1.0647743 -1.1734358 1.0066738 -0.8171741
0000f0 ff b7 00 3f 7a 83 7e 3f 0e 59 9a 3f 17 bf 8f 3f
       0.50280756 0.9941937 1.2058427 1.1230191
000100 db d2 30 3e 1c a5 88 3f 02 21 96 bf 69 fa 98 3f
       0.17267935 1.0675387 -1.1728823 1.1951419
000110 74 96 91 3f 23 08 7d bf 0c 8d 97 3f d1 33 9b bf
       1.137404 -0.9884054 1.1839919 -1.2125188
000120 55 bf ae 3f b1 b6 22 bf 34 7b a9 bf e1 4f 7a bf
       1.365214 -0.63560015 -1.3240724 -0.97778136
000130 e1 0a ac bf e1 a9 6c bf 5c fc 53 bf d7 b6 5f 3f
       -1.344082 -0.92446715 -0.82806945 0.87388366
000140 aa 0d 84 bf 16 45 86 bf 26 22 76 3f bd f9 9c 3f
       -1.031667 -1.0489833 0.96145856 1.2263714
000150 f1 4b 2e 3f 7d fb 80 3f b7 70 89 3f cf b5 9c bf
       0.6808463 1.0076748 1.0737523 -1.2242984
000160 92 08 67 3f 14 df 86 bf 7d 70 85 3f 13 b6 9e bf
       0.9024745 -1.0536828 1.0424954 -1.2399315
000170 13 11 98 bf 2d 87 93 bf 51 4b ac bf a1 76 93 3f
       -1.1880211 -1.1525627 -1.3460485 1.1520578
000180 7f 58 98 3f 0c db 77 bf cb 97 a1 bf 0b 82 9e 3f
       1.1902007 -0.96818614 -1.2624449 1.2383436
000190 60 28 9b bf 15 70 71 bf 91 81 c6 3e df 83 48 bf
       -1.2121696 -0.9431165 0.38770726 -0.7832622
0001a0 b0 e5 a3 bf 79 1d 80 3f ef 9d 90 bf fb fc 92 3f
       -1.280447 1.0008994 -1.1298198 1.1483454
0001b0 5f 02 95 3f 2e a6 8b 3f 00 a5 64 bf 10 18 94 3f
       1.1641349 1.0910089 -0.8931427 1.1569843
0001c0 66 10 97 3f c7 55 81 bf 6b ab 8b 3f 94 cf 72 3f
       1.180188 -1.0104302 1.0911688 0.9484799
0001d0 b7 4f a6 bf 16 37 90 bf 0c ae 2c bf 2d e3 dd bd
       -1.2993077 -1.1266811 -0.67453074 -0.10834346
0001e0 83 2a 95 3f 80 d4 35 3f 53 28 84 3f 3b b4 94 bf
       1.1653599 0.71027374 1.0324806 -1.1617502
0001f0 c1 25 a6 bf 00 df 5e 3f d7 1c 98 bf 03 6b 9c bf
       -1.2980272 0.8705902 -1.1883801 -1.2220157
000200 5d bc 81 3f 37 69 94 bf 4b c3 88 bf b9 12 87 3f
       1.0135609 -1.1594609 -1.0684599 1.0552589
000210 d4 04 27 3f ab 53 95 bf df 92 8c bf f2 f4 39 3f
       0.6524174 -1.1666158 -1.0982322 0.7263938
000220 c6 9f 9f bf 39 74 8b bf aa 63 87 3f 9e 19 aa 3f
       -1.2470634 -1.0894843 1.057729 1.3289068
000230 f6 97 98 3f 04 49 7a bf 40 1c 8e 3f d3 04 62 3f
       1.1921375 -0.97767663 1.1102371 0.8828861
000240 80 54 96 bf 9d fc 40 bf f3 86 57 3f 11 c4 97 bf
       -1.1744537 -0.7538546 0.8419029 -1.185671
000250 77 fd 9a bf bf f9 60 3f 5c fc 80 bf 53 2d 88 3f
       -1.2108601 0.8788108 -1.0077014 1.0638832
000260 3b a7 80 3f eb a2 97 bf 1c bb 74 3f 4a e6 88 bf
       1.0051035 -1.1846594 0.95598006 -1.0695279
000270 a9 1d 8e 3f 34 2f 7b 3f ee 5f 37 3f 19 c1 94 3f
       1.1102802 0.981189 0.7163075 1.1621429
000280 fa 6b a1 bf 64 9e ac 3f 74 91 9c 3f 93 d3 98 3f
       -1.2611077 1.3485837 1.2231889 1.1939567
000290 d9 1c 94 3f 42 ab 9c bf fd 6d 9b bf f7 d0 8e 3f
       1.1571304 -1.2239764 -1.2142941 1.1157521
0002a0 16 0d 9c bf 09 2c 9f bf 72 cf 57 bf ae e0 6e bf
       -1.2191494 -1.2435313 -0.8430091 -0.93311584
0002b0 74 77 88 bf 6a 18 96 bf 5e 17 c5 be 73 b1 97 3f
       -1.0661454 -1.17262 -0.3849439 1.1851028
0002c0 ad db 1c 3f 87 3b 8a bf c7 fd 90 3f d1 36 83 3f
       0.612727 -1.0799416 1.1327447 1.0251104
0002d0 b8 8f 9c 3f ff 04 9a 3f c0 6a 6a 3f 37 0c 73 3f
       1.223136 1.2032775 0.9156914 0.94940513
0002e0 f2 bc 96 3f 6d b2 04 3f 4e 53 93 bf 05 f0 94 3f
       1.1776412 0.51834756 -1.1509798 1.1635748
0002f0 0e 6e a5 3f a4 08 7c 3f 31 f0 71 3f d9 b0 a6 bf
       1.2924211 0.98450685 0.9450713 -1.302272
000300 3d 0a 66 3f 53 cc 87 3f 6b 85 87 bf 01 bc 9c bf
       0.8985937 1.060923 -1.0587591 -1.2244874
000310 7d d1 64 3f c1 1e 8e 3f dd ac 88 bf 70 37 71 3f
       0.89382154 1.1103135 -1.0677754 0.94225216
000320 20 fa 95 3f cc 0e 69 bf 9f 71 8e 3f 38 ba 8f bf
       1.1716957 -0.91038203 1.1128424 -1.1228704
000330 74 b4 a0 bf a4 e2 95 3f bc 3f 88 3f 10 56 71 3f
       -1.255507 1.170979 1.064445 0.94271946
000340 b1 a8 9d 3f 37 29 89 bf 60 a0 84 3f 58 f6 66 bf
       1.2317106 -1.0715703 1.0361443 -0.9021964
000350 c7 38 a1 3f 71 31 03 3f db 94 7a bf 46 69 a0 bf
       1.2595452 0.51247317 -0.97883385 -1.2532127
000360 87 40 a3 bf af 88 9a 3f bb 1f 5e 3f e4 bb 8a bf
       -1.2754067 1.2072963 0.86767167 -1.083859
000370 a5 b6 97 3f fa 36 7d 3f 3f e9 61 3f ce ae aa bf
       1.1852614 0.9891201 0.8824653 -1.3334596
000380 d9 06 86 bf 24 13 98 bf 14 91 a2 bf 4f 70 43 bf
       -1.047084 -1.1880841 -1.2700524 -0.76343244
000390 0e c8 84 3f 31 cd 92 3f 4a 4f 82 bf 9f e2 5e 3f
       1.0373552 1.146887 -1.0180447 0.87064546
0003a0 6f ad 84 3f 41 8c 4e 3f ed d2 58 bf 7a 42 84 bf
       1.0365428 0.8068276 -0.8469685 -1.0332787
0003b0 7b 02 93 bf cd e5 65 bf c6 35 6f bf 7b 8b 9e bf
       -1.1485132 -0.89803773 -0.93441427 -1.2386316
0003c0 a7 27 64 3f 8b 67 9a 3f cf 7c 86 bf 74 21 9e bf
       0.89123005 1.2062849 -1.0506839 -1.2353959
0003d0 33 39 a1 bf e6 af 62 3f 58 c4 54 3f 87 04 82 3f
       -1.2595581 0.8854965 0.83112097 1.0157632
0003e0 92 21 a1 bf d4 21 76 3f 5a 27 8c bf cb 82 84 3f
       -1.258837 0.9614537 -1.0949509 1.0352415
0003f0 eb b4 98 bf 81 8d 0f 3f 41 65 83 3f b7 c8 9c 3f
       -1.1930212 0.5607529 1.0265275 1.2248753

conv2.lin_dst.weight f4 [6, 64]
000000 4b cf 5d bf fc 44 91 3f b4 7b 30 3f fc 55 97 bf
       -0.8664443 1.1349177 0.68938756 -1.1823115
000010 3b 04 a5 bf 7c 9c 8a bf 53 19 58 3f c5 5a 5c 3f
       -1.2891916 -1.0829005 0.8441364 0.86076003
000020 d0 b7 9d bf 34 19 8a 3f 0c 4a a2 3f 3c c7 79 bf
       -1.232172 1.0788941 1.2678847 -0.9756963
000030 7a 9d 83 3f 93 21 8a 3f 49 03 89 bf bc d7 88 3f
       1.0282433 1.0791496 -1.0704128 1.0690837
000040 1a f1 95 bf 27 0b b0 3f 78 ee 89 bf f4 a8 88 3f
       -1.1714203 1.3753403 -1.07759 1.067656
000050 d5 a6 a4 bf e1 2c 94 bf 33 3b 89 3f a1 7e 97 bf
       -1.2863413 -1.1576196 1.0721191 -1.1835519
000060 b4 cb 83 3f 5c fb 8e 3f ca c3 86 bf c1 64 81 3f
       1.029654 1.1170459 -1.05285 1.0108873
000070 9d a3 51 3d 50 1e 64 bf 47 72 80 3f ea ca 96 bf
       0.051181424 -0.89108753 1.0034875 -1.1780674
000080 06 17 92 3f 25 f2 8b bf e8 7d 95 3f 1a 48 66 bf
       1.1413276 -1.0933272 1.1679049 -0.8995377
000090 ee a9 37 bf 4f 82 a0 bf 2d 78 9e 3f 6f 95 a4 bf
       -0.7174367 -1.2539767 1.2380425 -1.2858104
0000a0 83 10 8b 3f 64 46 34 3f 76 ee 93 3f 88 38 38 bf
       1.0864414 0.7041991 1.1557148 -0.7196126
0000b0 ed 3d af bf 4d 88 8b 3f b5 6b 9f be c0 27 9c bf
       -1.3690773 1.0900971 -0.3113686 -1.2199631
0000c0 56 ab 77 bf a9 9f 97 bf 91 1d 94 3f ee b9 8b 3f
       -0.9674581 -1.18456 1.1571523 1.0916116
0000d0 ca e8 8c 3f 0d 65 71 bf 1f 90 81 bf 36 1b 8c bf
       1.1008542 -0.94294816 -1.0122107 -1.0945804
0000e0 86 4a 88 bf 25 33 96 bf b0 da 80 3f 52 32 51 bf
       -1.0647743 -1.1734358 1.0066738 -0.8171741
0000f0 ff b7 00 3f 7a 83 7e 3f 0e 59 9a 3f 17 bf 8f 3f
       0.50280756 0.9941937 1.2058427 1.1230191
000100 db d2 30 3e 1c a5 88 3f 02 21 96 bf 69 fa 98 3f
       0.17267935 1.0675387 -1.1728823 1.1951419
000110 74 96 91 3f 23 08 7d bf 0c 8d 97 3f d1 33 9b bf
       1.137404 -0.9884054 1.1839919 -1.2125188
000120 55 bf ae 3f b1 b6 22 bf 34 7b a9 bf e1 4f 7a bf
       1.365214 -0.63560015 -1.3240724 -0.97778136
000130 e1 0a ac bf e1 a9 6c bf 5c fc 53 bf d7 b6 5f 3f
       -1.344082 -0.92446715 -0.82806945 0.87388366
000140 aa 0d 84 bf 16 45 86 bf 26 22 76 3f bd f9 9c 3f
       -1.031667 -1.0489833 0.96145856 1.2263714
000150 f1 4b 2e 3f 7d fb 80 3f b7 70 89 3f cf b5 9c bf
       0.6808463 1.0076748 1.0737523 -1.2242984
000160 92 08 67 3f 14 df 86 bf 7d 70 85 3f 13 b6 9e bf
       0.9024745 -1.0536828 1.0424954 -1.2399315
000170 13 11 98 bf 2d 87 93 bf 51 4b ac bf a1 76 93 3f
       -1.1880211 -1.1525627 -1.3460485 1.1520578
000180 7f 58 98 3f 0c db 77 bf cb 97 a1 bf 0b 82 9e 3f
       1.1902007 -0.96818614 -1.2624449 1.2383436
000190 60 28 9b bf 15 70 71 bf 91 81 c6 3e df 83 48 bf
       -1.2121696 -0.9431165 0.38770726 -0.7832622
0001a0 b0 e5 a3 bf 79 1d 80 3f ef 9d 90 bf fb fc 92 3f
       -1.280447 1.0008994 -1.1298198 1.1483454
0001b0 5f 02 95 3f 2e a6 8b 3f 00 a5 64 bf 10 18 94 3f
       1.1641349 1.0910089 -0.8931427 1.1569843
0001c0 66 10 97 3f c7 55 81 bf 6b ab 8b 3f 94 cf 72 3f
       1.180188 -1.0104302 1.0911688 0.9484799
0001d0 b7 4f a6 bf 16 37 90 bf 0c ae 2c bf 2d e3 dd bd
       -1.2993077 -1.1266811 -0.67453074 -0.10834346
0001e0 83 2a 95 3f 80 d4 35 3f 53 28 84 3f 3b b4 94 bf
       1.1653599 0.71027374 1.0324806 -1.1617502
0001f0 c1 25 a6 bf 00 df 5e 3f d7 1c 98 bf 03 6b 9c bf
       -1.2980272 0.8705902 -1.1883801 -1.2220157
000200 5d bc 81 3f 37 69 94 bf 4b c3 88 bf b9 12 87 3f
       1.0135609 -1.1594609 -1.0684599 1.0552589
000210 d4 04 27 3f ab 53 95 bf df 92 8c bf f2 f4 39 3f
       0.6524174 -1.1666158 -1.0982322 0.7263938
000220 c6 9f 9f bf 39 74 8b bf aa 63 87 3f 9e 19 aa 3f
       -1.2470634 -1.0894843 1.057729 1.3289068
000230 f6 97 98 3f 04 49 7a bf 40 1c 8e 3f d3 04 62 3f
       1.1921375 -0.97767663 1.1102371 0.8828861
000240 80 54 96 bf 9d fc 40 bf f3 86 57 3f 11 c4 97 bf
       -1.1744537 -0.7538546 0.8419029 -1.185671
000250 77 fd 9a bf bf f9 60 3f 5c fc 80 bf 53 2d 88 3f
       -1.2108601 0.8788108 -1.0077014 1.0638832
000260 3b a7 80 3f eb a2 97 bf 1c bb 74 3f 4a e6 88 bf
       1.0051035 -1.1846594 0.95598006 -1.0695279
000270 a9 1d 8e 3f 34 2f 7b 3f ee 5f 37 3f 19 c1 94 3f
       1.1102802 0.981189 0.7163075 1.1621429
000280 fa 6b a1 bf 64 9e ac 3f 74 91 9c 3f 93 d3 98 3f
       -1.2611077 1.3485837 1.2231889 1.1939567
000290 d9 1c 94 3f 42 ab 9c bf fd 6d 9b bf f7 d0 8e 3f
       1.1571304 -1.2239764 -1.2142941 1.1157521
0002a0 16 0d 9c bf 09 2c 9f bf 72 cf 57 bf ae e0 6e bf
       -1.2191494 -1.2435313 -0.8430091 -0.93311584
0002b0 74 77 88 bf 6a 18 96 bf 5e 17 c5 be 73 b1 97 3f
       -1.0661454 -1.17262 -0.3849439 1.1851028
0002c0 ad db 1c 3f 87 3b 8a bf c7 fd 90 3f d1 36 83 3f
       0.612727 -1.0799416 1.1327447 1.0251104
0002d0 b8 8f 9c 3f ff 04 9a 3f c0 6a 6a 3f 37 0c 73 3f
       1.223136 1.2032775 0.9156914 0.94940513
0002e0 f2 bc 96 3f 6d b2 04 3f 4e 53 93 bf 05 f0 94 3f
       1.1776412 0.51834756 -1.1509798 1.1635748
0002f0 0e 6e a5 3f a4 08 7c 3f 31 f0 71 3f d9 b0 a6 bf
       1.2924211 0.98450685 0.9450713 -1.302272
000300 3d 0a 66 3f 53 cc 87 3f 6b 85 87 bf 01 bc 9c bf
       0.8985937 1.060923 -1.0587591 -1.2244874
000310 7d d1 64 3f c1 1e 8e 3f dd ac 88 bf 70 37 71 3f
       0.89382154 1.1103135 -1.0677754 0.94225216
000320 20 fa 95 3f cc 0e 69 bf 9f 71 8e 3f 38 ba 8f bf
       1.1716957 -0.91038203 1.1128424 -1.1228704
000330 74 b4 a0 bf a4 e2 95 3f bc 3f 88 3f 10 56 71 3f
       -1.255507 1.170979 1.064445 0.94271946
000340 b1 a8 9d 3f 37 29 89 bf 60 a0 84 3f 58 f6 66 bf
       1.2317106 -1.0715703 1.0361443 -0.9021964
000350 c7 38 a1 3f 71 31 03 3f db 94 7a bf 46 69 a0 bf
       1.2595452 0.51247317 -0.97883385 -1.2532127
000360 87 40 a3 bf af 88 9a 3f bb 1f 5e 3f e4 bb 8a bf
       -1.2754067 1.2072963 0.86767167 -1.083859
000370 a5 b6 97 3f fa 36 7d 3f 3f e9 61 3f ce ae aa bf
       1.1852614 0.9891201 0.8824653 -1.3334596
000380 d9 06 86 bf 24 13 98 bf 14 91 a2 bf 4f 70 43 bf
       -1.047084 -1.1880841 -1.2700524 -0.76343244
000390 0e c8 84 3f 31 cd 92 3f 4a 4f 82 bf 9f e2 5e 3f
       1.0373552 1.146887 -1.0180447 0.87064546
0003a0 6f ad 84 3f 41 8c 4e 3f ed d2 58 bf 7a 42 84 bf
       1.0365428 0.8068276 -0.8469685 -1.0332787
0003b0 7b 02 93 bf cd e5 65 bf c6 35 6f bf 7b 8b 9e bf
       -1.1485132 -0.89803773 -0.93441427 -1.2386316
0003c0 a7 27 64 3f 8b 67 9a 3f cf 7c 86 bf 74 21 9e bf
       0.89123005 1.2062849 -1.0506839 -1.2353959
0003d0 33 39 a1 bf e6 af 62 3f 58 c4 54 3f 87 04 82 3f
       -1.2595581 0.8854965 0.83112097 1.0157632
0003e0 92 21 a1 bf d4 21 76 3f 5a 27 8c bf cb 82 84 3f
       -1.258837 0.9614537 -1.0949509 1.0352415
0003f0 eb b4 98 bf 81 8d 0f 3f 41 65 83 3f b7 c8 9c 3f
       -1.1930212 0.5607529 1.0265275 1.2248753
