GNNModels/checkpoints/GAT_Cora_epochs=300.pt (torch, 372615 bytes, 10 tensors)

conv1.att_src f4 [1, 8, 8]
00000000: 4871 313f cf7e 66bf 71a4 77bf 6a51 1d3f
00000010: 40aa 583e d446 05bf 51ad 1bbf db7e ce3e
00000020: a50a b63e 9f99 6dbf f9fa 8ebe 9b62 3cbe
00000030: d27a 633d 8754 613f 7ef5 b5be 90e1 1b3d
00000040: 2aec 68bf 8fc7 1abf 229b 88bf 728e 9d3f
00000050: 736b 82bf 7ac9 56be fbee 0dbe 34f2 183e
00000060: fe01 4c3f 798c 4dbf b80b 7f3f aa94 9c3e
00000070: a5e7 a23f cdad 9dbf e674 fdbe 9d92 4e3f
00000080: ee77 edbe 9248 a7bf 557c d6be 5ae8 7abf
00000090: ff47 91bf b364 c53e c4e6 b13f 4380 1b3f
000000a0: f713 8cbe 6239 773f 2b76 c8be 77cb 45bf
000000b0: d06c 0b3e a0da 52bf 08fd 6cbf dec8 4bbe
000000c0: 391b 553e d427 0abf 883d 38bf 37a1 e13e
000000d0: 7851 16bf 8906 dc3e f2c7 94be 99fc 103f
000000e0: 9a3c 633f cc04 cf3e cd53 193f bb9a 443f
000000f0: 44cf 523f a96c c9be deba 083f 5128 febe
0.6931348 -0.90037245 -0.9673529 0.61452353 0.21158695 -0.520612 -0.60811335 0.40331158
0.35554996 -0.9281253 -0.27925852 -0.1839699 0.055537052 0.88019603 -0.35538858 0.03805691
-0.9098536 -0.6046075 -1.0672343 1.2309096 -1.0189041 -0.20975295 -0.13860695 0.14936143
0.7969054 -0.8029247 0.99627256 0.30582172 1.2726942 -1.2318665 -0.4950325 0.80692464
-0.46380562 -1.3069022 -0.41891733 -0.9801079 -1.1350096 0.3855339 1.3898549 0.60742587
-0.27358982 0.96571934 -0.39152655 -0.7726359 0.13615727 -0.82364845 -0.92573595 -0.19900844
0.20811166 -0.5396702 -0.7196889 0.4406831 -0.5871806 0.42973736 -0.29058796 0.56635433
0.88764346 0.40433347 0.59893495 0.767986 0.8234751 -0.39340714 0.53410137 -0.49640134

conv1.att_dst f4 [1, 8, 8]
00000000: aace e23d 8500 91be 12d1 52be a3ff 6f3e
00000010: 0d5b 013b d340 cabb b501 9bbd 62bb 473e
00000020: 19aa f23d 0f85 31be 7d54 253d 463f a4bd
00000030: 485b c8bd 2ffa 543e 3254 82bd 1936 5cbd
00000040: 59e7 a4be b006 cbbd e289 73be aa91 803e
00000050: 6c7b 96be f1b7 0bbd 04a1 a03c 1be1 e93d
00000060: d04f ea3c 9413 6ebe 8ca9 db3d 7910 0c3e
00000070: b993 963e d089 93be d9ef 6bbd 9fe7 30bb
00000080: a4b2 993a 6448 87be 341f 063d 06d3 e3bd
00000090: ca73 75be 142f 513e d08f c03e 45b8 683d
000000a0: 6381 a33d c482 9d3e 8c77 c239 7b4b 8bbb
000000b0: fbb9 43bd 398a 0cbe b310 c3be 000a 9e3c
000000c0: 4ece 06be 005e f6bd b923 08be f575 4b3e
000000d0: fdc5 f7bd a196 243e fdc1 fcbd 3883 003e
000000e0: 3619 f63d 1f79 4c3c 343a cc3c 7c4b 263e
000000f0: f99d 293e be46 18be 0af9 423d 21c2 3cbe
0.11074574 -0.2832071 -0.20587566 0.23437361 0.0019738108 -0.0061722784 -0.07568685 0.19505075
0.1184885 -0.17335914 0.040363777 -0.08019881 -0.097830355 0.20798562 -0.06363715 -0.05376253
-0.32207754 -0.09913385 -0.23783067 0.25111133 -0.29391038 -0.034110967 0.019608028 0.114198886
0.02860251 -0.23249656 0.10725698 0.13678159 0.29409578 -0.2881608 -0.057601783 -0.0026993526
0.0011726213 -0.26422417 0.0327446 -0.11124234 -0.23969951 0.20428115 0.3760972 0.056816358
0.07983663 0.3076383 0.00037091633 -0.0042509413 -0.047784787 -0.13724603 -0.38098678 0.019291878
-0.13164636 -0.12029648 -0.13294877 0.19869216 -0.1209831 0.16073085 -0.12341688 0.12550056
0.12016527 0.012480049 0.024930097 0.16239733 0.16564168 -0.14870736 0.047600783 -0.1843343

conv1.bias f4 [64]
00000000: 8ba9 573c ee84 193b 79d2 83bc 9e38 223d
00000010: 0aea 55bc 1e38 873b 0ffa 813b 73b6 143d
00000020: 680b 563b 21ab 713d 6601 eb3c 414d 833c
00000030: 4676 d33b c8de c7bc 1670 76bc 067d 233c
00000040: ca8a 00bc 4b8f c13c b5b5 173d 36ba aabb
00000050: f407 cabb 0e17 633c 20b3 81bc 59e1 dcbb
00000060: f97c 74b9 f779 ca3c 7031 e8ba 1602 0b3d
00000070: 2bd7 3fbd b229 8a3d 3a29 713c 3cbc cc3c
00000080: 3b5a 363d 17c9 443d 5181 303d ba70 30bc
00000090: 2643 3c3d 52e4 18bb b4fa f0bb 26ca 123c
000000a0: 8a31 b03c d16d 6dbc 21cd 37bc 908b 583d
000000b0: 3013 c83c 86d1 7b3c de7e 223d e1ea 6c3c
000000c0: 27c3 b0bc 956c ed3a 9b6d f83c 7066 883b
000000d0: d8e1 57ba d422 723c fcdb 80bc c2ee e53c
000000e0: 0d3a 4cbb 95c2 a83c d24a e1bc 7a2a d0bb
000000f0: 6aa6 b7bc e38c 7c3d 2a98 c7bc ea18 a53d
0.013162981 0.002342518 -0.016091572 0.039604776 -0.013056288 0.0041265627 0.003966577 0.03630681
0.0032660607 0.059001092 0.02868719 0.016028048 0.0064533083 -0.024398223 -0.015041372 0.009978538
-0.00784559 0.023627898 0.037038524 -0.0052101864 -0.006165499 0.013860477 -0.015832484 -0.0067407307
-0.00023316209 0.02471636 -0.0017714929 0.033937536 -0.04683606 0.06746234 0.014719302 0.0249921
0.044519644 0.048043337 0.043092076 -0.010769064 0.045962475 -0.002332945 -0.007354105 0.008959329
0.021507997 -0.014491514 -0.01121834 0.052867472 0.024423212 0.0153697785 0.03967177 0.014460296
-0.02157743 0.0018114025 0.030325701 0.004162602 -0.00082352525 0.0147788115 -0.015729897 0.02806795
-0.003116253 0.020600596 -0.027501497 -0.00635272 -0.02241822 0.061657798 -0.02436455 0.080613926

conv1.lin_src.weight f4 [64, 1433]
00000000: 5602 2cbb 4034 b5bb c863 e93c 94d9 41bc
00000010: bcdd 9fbe f73a 82bc 3f08 f43d 1058 38bc
00000020: 4a1e 71bd 76d2 e83c b7b4 933b 9a28 5e3d
00000030: c02c b5bd 3801 21bd b5d3 13bd f02d 6ab9
00000040: 2279 ed3d 243f 9f3c 7cbe f43d 6362 51be
00000050: 18a3 d230 3878 3ebd a802 49bc c8f0 d5bb
00000060: e6c9 87bb fbe6 e83c ba1c b4bd d364 2a3e
00000070: db7d adbd 3d12 36bd f0f0 103e 187d c0bb
00000080: a162 c7bc cc97 493b 7e2b 4d3d 2ac2 243d
00000090: 491a e93d 05a1 da3b b46d 61bd 2d52 a8bd
000000a0: 76b3 0bbe b38c 77be bc01 943c 9695 983d
000000b0: 3a2c f23b 4342 0e3e 9200 4b3b 6760 e43c
000000c0: 501e dbbd d8f1 30bb a8c4 ca3d fec4 943e
000000d0: 1294 d5be 6c42 9339 87dc 773e d796 863c
000000e0: 4f7b bcbd c177 31bd f556 453e 42ce bebd
000000f0: ff6c fd30 05f9 9f3e c88d 45bc 4aea dbbd
00000100: 3d1f 68bd 3e00 523c 7c6e bf3b 45ad bbbd
00000110: 45e1 95bc de1c 54ba 529b d53c 9dd9 56bc
00000120: 751e 85bc 36e1 11bd ec1b 9a3d d930 c0bd
00000130: 4479 183e 7372 6f3e c909 fa3b 5d96 6bbc
00000140: a271 bfbd c55e ffbd 089f 29bd 788a 663d
00000150: 6cd2 d7bc 3ee9 3fbe 4587 273e b399 dc3a
00000160: f95b b33e 843b e3bc 16d1 e13b d24f 7a3d
00000170: 84eb b63d ed0a 9bbd 2e45 8cbd ca7d 403e
00000180: 08b7 00bc cc0d fbbc 3809 42bd 481e ad3e
00000190: 2040 4d3d 5696 37bb 47a3 c93d 3aef 04be
000001a0: 9ce3 143d a0d9 523c b4b4 173c 788a bbbd
000001b0: a1d0 2f3e 8c76 54bd be85 febc 1622 a2bb
000001c0: 4fb3 5a3d fe39 dc39 9d56 913d 5a92 cb3c
000001d0: 18cf b53d aaa4 3d3c 9eef d73d 3c3c f8bb
000001e0: 033d 0abe ca9b 96bd 7048 99bb 0587 273d
000001f0: 3cbd 13bd a3e6 673c a97e 463e 7a55 b53d
00000200: 7a28 0c3e c0f8 323c 30be f9bd f510 7d3e
00000210: cd32 aabe c668 8c3d aab8 14bb 992a 783c
00000220: ea93 81bd d667 84bb 29a0 be3b 8a0a 833d
00000230: 167c 943e be23 033e cfe8 2d3d 1aa5 6ebd
00000240: e2bb 8fb9 005a 1fb1 9051 ba3c 32c8 a23d
00000250: cbbe 593d d523 163e 3b87 afbd 3ae1 ae3c
00000260: 5eea 553b 0cf9 a93d 9452 52bc 2747 ae3c
00000270: e67c 503d 1eee 9e3d 070d f6bc 56bb 31bc
00000280: 9623 b7bd 5064 ebbc f54a 853d f7e1 363c
00000290: 6499 743c 88df 80bb 3a04 21bb db0e 993c
000002a0: 0610 29be bbc4 adbc ae68 adbc abb0 003b
000002b0: d9bc 4f3d e4aa a8bd 05c5 ff3c 8931 a2bc
000002c0: 8c4e e1bd 6445 483d b370 a63c 3287 0ebe
000002d0: 447a 983a ba2a 6b3d c55a 593c a349 b33d
000002e0: b746 663b 8ccf a638 d124 8cbc 7d75 e5bd
000002f0: 1ee7 133e 5de8 b8bc 2157 e3bc 57ca ff3d
00000300: 5bf2 dbbd d39e f8bc 6062 2b3d 909c 8fbd
00000310: 4321 f8bd 7dd6 1cbc 7483 d03b c4ca 6bba
00000320: 470c ca3c 57ca 08bc 75b9 b83c ec70 ef3d
00000330: a9cd acbc 6e34 b43d 32b2 133b 4660 44bd
00000340: c3be c4bc 9693 1339 fc0b 64bc df28 ecbd
00000350: 3367 1a3d 5307 003d 58a3 88bd 523f adbc
00000360: 2d13 95bc 7394 f5bd 7907 a5bd eaef b8bb
00000370: f0ea 9e3c 7f6c 10bd 1db9 99bd 4008 afbc
00000380: e743 873b a14e 4a3d 8ce2 7fbd c6da 433b
00000390: 5b0b f3bd 22a9 703c 2285 d739 983b 01be
000003a0: 3842 bb3d 68c9 e4bb 399d 03be f242 8cbc
000003b0: 6aca b5bc d16e 08be 252d 7d3d d876 193b
000003c0: 6f2e 10bd 34dc f6bc 35af 1a3d 702b 473d
000003d0: f505 60bd e223 65bd 00e9 6c3c d6d7 bcbd
000003e0: fdd4 993d 64f4 063e 0cb9 183d ef84 923c
000003f0: 5c2a 42bd 4214 21bc e8fb 9cbc d153 60bc
-0.002624651 -0.0055299103 0.028489962 -0.01183166 -0.31223857 -0.015897257 0.11915635 -0.0112514645
-0.058866777 0.028420668 0.004507627 0.05423794 -0.08846426 -0.039307803 -0.03609057 -0.00022333092
0.1159537 0.019439287 0.119503945 -0.20447688 1.5325865e-09 -0.04650137 -0.0122687 -0.0065289475
-0.004143941 0.028430453 -0.08794542 0.16640024 -0.08471271 -0.044450987 0.1415441 -0.0058742873
-0.024339022 0.0030760644 0.050090306 0.04022423 0.113819666 0.006672027 -0.05503626 -0.08218799
-0.13642678 -0.24174766 0.018067233 0.07450406 0.007390526 0.13892464 0.0030975682 0.027878
-0.10699141 -0.002699962 0.099007905 0.29056543 -0.4171453 0.00028087513 0.24205218 0.016429348
-0.09203207 -0.043327097 0.19271453 -0.09316684 1.8439151e-09 0.31244674 -0.012057729 -0.107380465
-0.056670416 0.012817441 0.005842028 -0.09163908 -0.018295893 -0.000809146 0.026075039 -0.0131134065
-0.016249875 -0.03561517 0.07524857 -0.09384317 0.14890009 0.23383503 0.007630561 -0.014379111
-0.093478456 -0.12469248 -0.04141143 0.056284398 -0.026345454 -0.18741319 0.16360195 0.0016830474
0.35031107 -0.02773834 0.00689138 0.06111128 0.0893164 -0.07570443 -0.068491325 0.18797985
-0.007856138 -0.030646227 -0.047372073 0.33812165 0.050109982 -0.0028013191 0.09845596 -0.12981883
0.036349878 0.012869269 0.009259392 -0.0915727 0.1716943 -0.051870868 -0.031069633 -0.004947911
0.05339366 0.00042004877 0.07096598 0.02485006 0.088773906 0.0115749035 0.1054375 -0.00757554
-0.13499837 -0.07353933 -0.0046778247 0.04090025 -0.03606914 0.014154109 0.19384255 0.08854194
0.13687316 0.010923564 -0.121944785 0.247135 -0.33241883 0.068559214 -0.0022693076 0.015146875
-0.063270405 -0.0040406985 0.0058174324 0.063984945 0.2900092 0.12806603 0.04245835 -0.058262922
-0.0002741507 -2.3188704e-09 0.02274397 0.079483405 0.05316047 0.14662106 -0.08570715 0.02134763
0.0032640914 0.08299455 -0.012837071 0.021274162 0.050900362 0.07760261 -0.030035509 -0.010847887
-0.08942334 -0.028734356 0.065084375 0.011162273 0.014929149 -0.003932897 -0.002456917 0.018683841
-0.16510019 -0.021211972 -0.02116808 0.0019636552 0.05071721 -0.0823572 0.031221876 -0.01979901
-0.1100131 0.0488943 0.020317411 -0.1391876 0.0011633118 0.057413794 0.01326627 0.087542795
0.0035137364 7.9541554e-05 -0.0171074 -0.1120405 0.14443633 -0.022571737 -0.027751507 0.12489765
-0.10739585 -0.03034917 0.041841865 -0.07012284 -0.12115719 -0.009572622 0.0063633267 -0.0008994753
0.024664057 -0.008349023 0.02254937 0.1169146 -0.02109416 0.08799063 0.0022536633 -0.047943376
-0.024016744 0.00014073992 -0.013918873 -0.11531233 0.037696075 0.031256985 -0.0667178 -0.021148358
-0.01819762 -0.11991205 -0.08058066 -0.0056438344 0.019399136 -0.03525972 -0.07506011 -0.021366239
0.0041279676 0.049391393 -0.06247191 0.0029885038 -0.118674 0.014688762 0.00041107187 -0.1262039
0.091434896 -0.0069820173 -0.12852944 -0.017121766 -0.022191245 -0.13323523 0.06181063 0.0023416784
-0.035200533 -0.030134298 0.037764747 0.04862541 -0.05469318 -0.055942424 0.014459848 -0.09220855
0.075113274 0.13179165 0.03728585 0.017885653 -0.04740368 -0.00983149 -0.019163087 -0.013691858

conv1.lin_dst.weight f4 [64, 1433]
00000000: 5602 2cbb 4034 b5bb c863 e93c 94d9 41bc
00000010: bcdd 9fbe f73a 82bc 3f08 f43d 1058 38bc
00000020: 4a1e 71bd 76d2 e83c b7b4 933b 9a28 5e3d
00000030: c02c b5bd 3801 21bd b5d3 13bd f02d 6ab9
00000040: 2279 ed3d 243f 9f3c 7cbe f43d 6362 51be
00000050: 18a3 d230 3878 3ebd a802 49bc c8f0 d5bb
00000060: e6c9 87bb fbe6 e83c ba1c b4bd d364 2a3e
00000070: db7d adbd 3d12 36bd f0f0 103e 187d c0bb
00000080: a162 c7bc cc97 493b 7e2b 4d3d 2ac2 243d
00000090: 491a e93d 05a1 da3b b46d 61bd 2d52 a8bd
000000a0: 76b3 0bbe b38c 77be bc01 943c 9695 983d
000000b0: 3a2c f23b 4342 0e3e 9200 4b3b 6760 e43c
000000c0: 501e dbbd d8f1 30bb a8c4 ca3d fec4 943e
000000d0: 1294 d5be 6c42 9339 87dc 773e d796 863c
000000e0: 4f7b bcbd c177 31bd f556 453e 42ce bebd
000000f0: ff6c fd30 05f9 9f3e c88d 45bc 4aea dbbd
00000100: 3d1f 68bd 3e00 523c 7c6e bf3b 45ad bbbd
00000110: 45e1 95bc de1c 54ba 529b d53c 9dd9 56bc
00000120: 751e 85bc 36e1 11bd ec1b 9a3d d930 c0bd
00000130: 4479 183e 7372 6f3e c909 fa3b 5d96 6bbc
00000140: a271 bfbd c55e ffbd 089f 29bd 788a 663d
00000150: 6cd2 d7bc 3ee9 3fbe 4587 273e b399 dc3a
00000160: f95b b33e 843b e3bc 16d1 e13b d24f 7a3d
00000170: 84eb b63d ed0a 9bbd 2e45 8cbd ca7d 403e
00000180: 08b7 00bc cc0d fbbc 3809 42bd 481e ad3e
00000190: 2040 4d3d 5696 37bb 47a3 c93d 3aef 04be
000001a0: 9ce3 143d a0d9 523c b4b4 173c 788a bbbd
000001b0: a1d0 2f3e 8c76 54bd be85 febc 1622 a2bb
000001c0: 4fb3 5a3d fe39 dc39 9d56 913d 5a92 cb3c
000001d0: 18cf b53d aaa4 3d3c 9eef d73d 3c3c f8bb
000001e0: 033d 0abe ca9b 96bd 7048 99bb 0587 273d
000001f0: 3cbd 13bd a3e6 673c a97e 463e 7a55 b53d
00000200: 7a28 0c3e c0f8 323c 30be f9bd f510 7d3e
00000210: cd32 aabe c668 8c3d aab8 14bb 992a 783c
00000220: ea93 81bd d667 84bb 29a0 be3b 8a0a 833d
00000230: 167c 943e be23 033e cfe8 2d3d 1aa5 6ebd
00000240: e2bb 8fb9 005a 1fb1 9051 ba3c 32c8 a23d
00000250: cbbe 593d d523 163e 3b87 afbd 3ae1 ae3c
00000260: 5eea 553b 0cf9 a93d 9452 52bc 2747 ae3c
00000270: e67c 503d 1eee 9e3d 070d f6bc 56bb 31bc
00000280: 9623 b7bd 5064 ebbc f54a 853d f7e1 363c
00000290: 6499 743c 88df 80bb 3a04 21bb db0e 993c
000002a0: 0610 29be bbc4 adbc ae68 adbc abb0 003b
000002b0: d9bc 4f3d e4aa a8bd 05c5 ff3c 8931 a2bc
000002c0: 8c4e e1bd 6445 483d b370 a63c 3287 0ebe
000002d0: 447a 983a ba2a 6b3d c55a 593c a349 b33d
000002e0: b746 663b 8ccf a638 d124 8cbc 7d75 e5bd
000002f0: 1ee7 133e 5de8 b8bc 2157 e3bc 57ca ff3d
00000300: 5bf2 dbbd d39e f8bc 6062 2b3d 909c 8fbd
00000310: 4321 f8bd 7dd6 1cbc 7483 d03b c4ca 6bba
00000320: 470c ca3c 57ca 08bc 75b9 b83c ec70 ef3d
00000330: a9cd acbc 6e34 b43d 32b2 133b 4660 44bd
00000340: c3be c4bc 9693 1339 fc0b 64bc df28 ecbd
00000350: 3367 1a3d 5307 003d 58a3 88bd 523f adbc
00000360: 2d13 95bc 7394 f5bd 7907 a5bd eaef b8bb
00000370: f0ea 9e3c 7f6c 10bd 1db9 99bd 4008 afbc
00000380: e743 873b a14e 4a3d 8ce2 7fbd c6da 433b
00000390: 5b0b f3bd 22a9 703c 2285 d739 983b 01be
000003a0: 3842 bb3d 68c9 e4bb 399d 03be f242 8cbc
000003b0: 6aca b5bc d16e 08be 252d 7d3d d876 193b
000003c0: 6f2e 10bd 34dc f6bc 35af 1a3d 702b 473d
000003d0: f505 60bd e223 65bd 00e9 6c3c d6d7 bcbd
000003e0: fdd4 993d 64f4 063e 0cb9 183d ef84 923c
000003f0: 5c2a 42bd 4214 21bc e8fb 9cbc d153 60bc
-0.002624651 -0.0055299103 0.028489962 -0.01183166 -0.31223857 -0.015897257 0.11915635 -0.0112514645
-0.058866777 0.028420668 0.004507627 0.05423794 -0.08846426 -0.039307803 -0.03609057 -0.00022333092
0.1159537 0.019439287 0.119503945 -0.20447688 1.5325865e-09 -0.04650137 -0.0122687 -0.0065289475
-0.004143941 0.028430453 -0.08794542 0.16640024 -0.08471271 -0.044450987 0.1415441 -0.0058742873
-0.024339022 0.0030760644 0.050090306 0.04022423 0.113819666 0.006672027 -0.05503626 -0.08218799
-0.13642678 -0.24174766 0.018067233 0.07450406 0.007390526 0.13892464 0.0030975682 0.027878
-0.10699141 -0.002699962 0.099007905 0.29056543 -0.4171453 0.00028087513 0.24205218 0.016429348
-0.09203207 -0.043327097 0.19271453 -0.09316684 1.8439151e-09 0.31244674 -0.012057729 -0.107380465
-0.056670416 0.012817441 0.005842028 -0.09163908 -0.018295893 -0.000809146 0.026075039 -0.0131134065
-0.016249875 -0.03561517 0.07524857 -0.09384317 0.14890009 0.23383503 0.007630561 -0.014379111
-0.093478456 -0.12469248 -0.04141143 0.056284398 -0.026345454 -0.18741319 0.16360195 0.0016830474
0.35031107 -0.02773834 0.00689138 0.06111128 0.0893164 -0.07570443 -0.068491325 0.18797985
-0.007856138 -0.030646227 -0.047372073 0.33812165 0.050109982 -0.0028013191 0.09845596 -0.12981883
0.036349878 0.012869269 0.009259392 -0.0915727 0.1716943 -0.051870868 -0.031069633 -0.004947911
0.05339366 0.00042004877 0.07096598 0.02485006 0.088773906 0.0115749035 0.1054375 -0.00757554
-0.13499837 -0.07353933 -0.0046778247 0.04090025 -0.03606914 0.014154109 0.19384255 0.08854194
0.13687316 0.010923564 -0.121944785 0.247135 -0.33241883 0.068559214 -0.0022693076 0.015146875
-0.063270405 -0.0040406985 0.0058174324 0.063984945 0.2900092 0.12806603 0.04245835 -0.058262922
-0.0002741507 -2.3188704e-09 0.02274397 0.079483405 0.05316047 0.14662106 -0.08570715 0.02134763
0.0032640914 0.08299455 -0.012837071 0.021274162 0.050900362 0.07760261 -0.030035509 -0.010847887
-0.08942334 -0.028734356 0.065084375 0.011162273 0.014929149 -0.003932897 -0.002456917 0.018683841
-0.16510019 -0.021211972 -0.02116808 0.0019636552 0.05071721 -0.0823572 0.031221876 -0.01979901
-0.1100131 0.0488943 0.020317411 -0.1391876 0.0011633118 0.057413794 0.01326627 0.087542795
0.0035137364 7.9541554e-05 -0.0171074 -0.1120405 0.14443633 -0.022571737 -0.027751507 0.12489765
-0.10739585 -0.03034917 0.041841865 -0.07012284 -0.12115719 -0.009572622 0.0063633267 -0.0008994753
0.024664057 -0.008349023 0.02254937 0.1169146 -0.02109416 0.08799063 0.0022536633 -0.047943376
-0.024016744 0.00014073992 -0.013918873 -0.11531233 0.037696075 0.031256985 -0.0667178 -0.021148358
-0.01819762 -0.11991205 -0.08058066 -0.0056438344 0.019399136 -0.03525972 -0.07506011 -0.021366239
0.0041279676 0.049391393 -0.06247191 0.0029885038 -0.118674 0.014688762 0.00041107187 -0.1262039
0.091434896 -0.0069820173 -0.12852944 -0.017121766 -0.022191245 -0.13323523 0.06181063 0.0023416784
-0.035200533 -0.030134298 0.037764747 0.04862541 -0.05469318 -0.055942424 0.014459848 -0.09220855
0.075113274 0.13179165 0.03728585 0.017885653 -0.04740368 -0.00983149 -0.019163087 -0.013691858

conv2.att_src f4 [1, 1, 7]
00000000: 13cc 16bf bade 3c3f 28a6 e9bd 6a81 1b3f
00000010: 63f5 f43e 94aa 4ebf afa5 78be
-0.5890514 0.73777354 -0.11408645 0.60744345 0.47843465 -0.8072903 -0.24281953

conv2.att_dst f4 [1, 1, 7]
00000000: 6633 60bf 9cfc ea3d 0363 f13e e423 a53d
00000010: bf74 443e 112f 05bf 1346 edbe
-0.8757843 0.11473963 0.47145852 0.08063486 0.1918516 -0.5202494 -0.46342525

conv2.bias f4 [7]
00000000: 567a e83e 381d f0be 41d2 86bc 2e39 abbe
00000010: 8212 1bbe 45ed db3e db20 5c3e
0.45405835 -0.46897292 -0.016457679 -0.33442062 -0.15143779 0.4295446 0.21496908

conv2.lin_src.weight f4 [7, 64]
00000000: a1eb 4fbf 8a0e a03f 63eb a33f e3c7 a4bf
00000010: f7f3 63bf 8b25 1cbf 0915 7dbf 9dbf 9abf
00000020: 28cc 81bf 4b37 783f 14d1 8dbf 1e11 873f
00000030: 8379 a73f 001d 69bf 80df 9e3f c97a 6a3f
00000040: 8aef 923f 419b 95bf c523 99bf 361a 913f
00000050: 1e5a c53e 7d8a 80bf 4506 a3bf 689e 85bf
00000060: 8369 08be feda 69bf 69f8 7fbf b281 803f
00000070: e415 793f e136 50bf 2898 993f 1b84 90bf
00000080: 6da9 5b3f e7af 723f eed9 5fbf ccc6 61bf
00000090: 4013 25bf 5579 6ebf 2ef2 92bf 3fd3 86bf
000000a0: 81cf 193f 2e78 823f 5737 97bf 2957 143f
000000b0: a62c 113f 4b95 883f a18b 9abf b61a 8b3f
000000c0: ffca 803f 467d 953f 63a6 3b3f c426 7cbf
000000d0: 08b3 8dbf f9f4 81bf ea47 893f 1d17 763f
000000e0: f6dc 8fbe 593f 703f 35f5 8dbf 3b17 7abf
000000f0: 8c81 80bf e940 95bf 9147 a73f 55aa 5a3f
00000100: 1fb1 acbe 3d3f 2f3f ec05 853f a968 84bf
00000110: e8e8 513f 419d 8b3f 76af 803f 7810 853f
00000120: e160 693f 2111 76bf 10ba 7bbf d095 623f
00000130: 1a19 6bbf e2f9 833f 9636 383f 5128 373f
00000140: 46df 86bf 3c20 8abf e4a2 69bf 67d4 073f
00000150: 6c05 64bf b3a7 6e3f 9400 7f3f 4794 943f
00000160: 382b 893f 63d1 aabe 6408 873f 6f61 7d3f
00000170: 6323 533f f4a7 8bbf b5e9 92bf 19ec 7b3f
00000180: 5d1a 7ebf 832c 8fbf 0545 82bf 1b17 01bf
00000190: cd82 63bf 2c18 813f 4485 973f 5e6a 4c3f
000001a0: 1c47 653f df9c 94bf efa1 343f 7f66 7f3f
000001b0: 7c19 39bf a6df 673f 27c1 893f b93c 79bf
000001c0: 4886 64bf f220 443f 3d7c 86bf 6f42 8c3f
000001d0: 89fa 91be adff 683f df44 193f 736d 473f
000001e0: a27b 16bf 46b8 1f3f b58d 3b3f a4ad 50bf
000001f0: 519c 58bf f073 61bf 4c1c 91bd 03b0 5ebf
00000200: 124b 803f c687 633f 12f7 3d3f 7ef2 513f
00000210: a004 16bf 4d7c 443f d2c5 753f 3697 6b3f
00000220: 3b7c 793f d79d 89bf 08f1 72bf a200 74bf
00000230: 3092 583f 7430 583f 1a2f 69bf 4f61 5fbf
00000240: 61df 543f dd53 41bf 9d24 733f a180 7bbf
00000250: e4bf 6d3f c4fb 3c3f 445c 57bf 1b0f 4d3f
00000260: 48e5 27bf a8fa 7a3f ff4b 68bf fb8c ff3e
00000270: bb5c 89bf 7804 743f 1052 493f 1cce 61bf
00000280: cec7 63bf 89e0 5cbf 2884 233f 5669 803f
00000290: 0402 653f cbb0 793f ba85 10bf b943 67bf
000002a0: 2a30 60bf fd50 523f 6e36 6dbf 026f 6bbf
000002b0: 85a1 723f d36c 80bf 9725 86bf ede0 82bf
000002c0: 71e7 673f 774f 6bbf 2639 8dbf 50fd 833f
000002d0: 31a1 6abf 28f7 773f 61ca 81bf 7013 643f
000002e0: 06a0 873f 3871 213f 979d 5c3f f336 813f
000002f0: c435 6c3f d3e1 88bf 7f9e 7c3f 8358 80bf
00000300: b630 76bf 5cab 90bf 193c 633d 5ec7 853f
00000310: 68c4 35bf db68 913f ff34 47bf 2acd a1bf
00000320: 471a 233f 5268 923f 9af9 943f ee61 883f
00000330: 7373 85bf e9f6 2a3f af26 a7bf b987 6cbf
00000340: 1df7 35bf 80b6 a93f aaa9 983c bab6 183f
00000350: 5063 33bf c01d 7b3f a24b 7ebf 3a2e 8f3f
00000360: 1275 a0bf c965 763f f6da a23f 02d1 3e3f
00000370: 7dd0 84bf 76ff 893f f06f 8fbf 01cd 873f
00000380: 4afd 1cbe 21ba 923f aba1 02bf 031b 1abf
00000390: 6ac5 ac3f 0801 54bf e243 8abf 949c 923f
000003a0: e909 86bf b04c 853f 5852 3dbf 06e3 873f
000003b0: 09f2 843f c0a1 8bbf e1d0 16bf 819d 50bf
000003c0: 8f42 a6be b181 65bf 9376 6a3f baaf 1c3f
000003d0: 9f52 ab3f 0fa7 6f3f 493a 3dbf 0024 abbf
000003e0: e64c 9dbf e60d b23e 02fb 7fbf 0364 eebd
000003f0: 07c8 5ebf 4133 8b3f 5c8e 87bf 0d45 653f
-0.81218916 1.2504437 1.2806209 -1.28735 -0.89044136 -0.60994786 -0.9886022 -1.2089726
-1.0140429 0.9695937 -1.107943 1.0552099 1.3083957 -0.91059875 1.2411957 0.91593605
1.1479352 -1.1688005 -1.1964041 1.1336124 0.38545316 -1.0042263 -1.2736288 -1.0438967
-0.133215 -0.9134978 -0.9998842 1.003958 0.9729903 -0.8133374 1.1999559 -1.1290315
0.858054 0.94799656 -0.8744191 -0.88193965 -0.644825 -0.9315389 -1.1480157 -1.0533217
0.6008225 1.0192926 -1.1813763 0.57945496 0.56708753 1.0670561 -1.2073861 1.0867527
1.006195 1.1678855 0.7330076 -0.9849665 -1.1070261 -1.0152885 1.0725071 0.9612902
-0.28098267 0.9384666 -1.1090456 -0.97691697 -1.0039535 -1.1660434 1.3068715 0.85416156
-0.33728883 0.6845587 1.0392432 -1.034444 0.8199601 1.0907365 1.0053546 1.0395651
0.9116345 -0.96119887 -0.98330784 0.88509846 -0.91835177 1.0310633 0.7195829 0.7154589
-1.0536888 -1.0791087 -0.91264176 0.53058475 -0.89070773 0.9322464 0.9961026 1.1607751
1.0716314 -0.33362874 1.0549436 0.98976797 0.8247587 -1.091063 -1.1477572 0.9840713
-0.9925898 -1.1185459 -1.0177313 -0.5042588 -0.8887146 1.0085502 1.1837544 0.79849803
0.8956163 -1.1610373 0.7055959 0.9976577 -0.7230451 0.90575635 1.076207 -0.9735828
-0.89267397 0.7661277 -1.0506665 1.0957774 -0.28511456 0.9101513 0.59870714 0.7790138
-0.587824 0.62390554 0.732631 -0.81514955 -0.8461352 -0.8806753 -0.07085475 -0.8698732
1.002291 0.8887905 0.74205124 0.8201064 -0.5860081 0.7675217 0.96004975 0.92027605
0.97455186 -1.0751294 -0.94899035 -0.95313466 0.84598064 0.84448934 -0.91087496 -0.87257856
0.8315335 -0.7551859 0.9497774 -0.9824315 0.92870927 0.73821664 -0.8412516 0.80101174
-0.6558423 0.9803872 -0.9074096 0.49912247 -1.0731424 0.9531932 0.7864084 -0.8820512
-0.8897675 -0.86280113 0.6387353 1.0032146 0.894562 0.9753539 -0.5645405 -0.9033771
-0.8757349 0.8215483 -0.9266118 -0.9196626 0.9477771 -1.003321 -1.0480222 -1.0224892
0.90587527 -0.9191813 -1.1033065 1.031168 -0.9165221 0.96861506 -1.0139886 0.8909216
1.059571 0.63063383 0.86177963 1.0094894 0.9226954 -1.0693916 0.98679346 -1.0027012
-0.96168077 -1.1302295 0.055477235 1.0451467 -0.7100282 1.1360124 -0.7781524 -1.2640736
0.6371197 1.1438086 1.1638672 1.0654886 -1.0425857 0.66783005 -1.305868 -0.92394596
-0.7108019 1.325882 0.01863559 0.5965382 -0.70073414 0.9809227 -0.99334157 1.1185982
-1.2535727 0.9624906 1.2723072 0.7453767 -1.0376126 1.0781085 -1.1206036 1.0609437
-0.15330997 1.1463052 -0.51027936 -0.60197467 1.3497746 -0.82814074 -1.0801966 1.1454034
-1.0471774 1.0414028 -0.7395377 1.0616157 1.0386363 -1.0908737 -0.58912474 -0.8149033
-0.32472655 -0.8965102 0.9158718 0.6120564 1.3384589 0.93614286 -0.7391706 -1.3370361
-1.2289093 0.3477623 -0.9999238 -0.116401695 -0.8702397 1.0875016 -1.059032 0.8955849

conv2.lin_dst.weight f4 [7, 64]
00000000: a1eb 4fbf 8a0e a03f 63eb a33f e3c7 a4bf
00000010: f7f3 63bf 8b25 1cbf 0915 7dbf 9dbf 9abf
00000020: 28cc 81bf 4b37 783f 14d1 8dbf 1e11 873f
00000030: 8379 a73f 001d 69bf 80df 9e3f c97a 6a3f
00000040: 8aef 923f 419b 95bf c523 99bf 361a 913f
00000050: 1e5a c53e 7d8a 80bf 4506 a3bf 689e 85bf
00000060: 8369 08be feda 69bf 69f8 7fbf b281 803f
00000070: e415 793f e136 50bf 2898 993f 1b84 90bf
00000080: 6da9 5b3f e7af 723f eed9 5fbf ccc6 61bf
00000090: 4013 25bf 5579 6ebf 2ef2 92bf 3fd3 86bf
000000a0: 81cf 193f 2e78 823f 5737 97bf 2957 143f
000000b0: a62c 113f 4b95 883f a18b 9abf b61a 8b3f
000000c0: ffca 803f 467d 953f 63a6 3b3f c426 7cbf
000000d0: 08b3 8dbf f9f4 81bf ea47 893f 1d17 763f
000000e0: f6dc 8fbe 593f 703f 35f5 8dbf 3b17 7abf
000000f0: 8c81 80bf e940 95bf 9147 a73f 55aa 5a3f
00000100: 1fb1 acbe 3d3f 2f3f ec05 853f a968 84bf
00000110: e8e8 513f 419d 8b3f 76af 803f 7810 853f
00000120: e160 693f 2111 76bf 10ba 7bbf d095 623f
00000130: 1a19 6bbf e2f9 833f 9636 383f 5128 373f
00000140: 46df 86bf 3c20 8abf e4a2 69bf 67d4 073f
00000150: 6c05 64bf b3a7 6e3f 9400 7f3f 4794 943f
00000160: 382b 893f 63d1 aabe 6408 873f 6f61 7d3f
00000170: 6323 533f f4a7 8bbf b5e9 92bf 19ec 7b3f
00000180: 5d1a 7ebf 832c 8fbf 0545 82bf 1b17 01bf
00000190: cd82 63bf 2c18 813f 4485 973f 5e6a 4c3f
000001a0: 1c47 653f df9c 94bf efa1 343f 7f66 7f3f
000001b0: 7c19 39bf a6df 673f 27c1 893f b93c 79bf
000001c0: 4886 64bf f220 443f 3d7c 86bf 6f42 8c3f
000001d0: 89fa 91be adff 683f df44 193f 736d 473f
000001e0: a27b 16bf 46b8 1f3f b58d 3b3f a4ad 50bf
000001f0: 519c 58bf f073 61bf 4c1c 91bd 03b0 5ebf
00000200: 124b 803f c687 633f 12f7 3d3f 7ef2 513f
00000210: a004 16bf 4d7c 443f d2c5 753f 3697 6b3f
00000220: 3b7c 793f d79d 89bf 08f1 72bf a200 74bf
00000230: 3092 583f 7430 583f 1a2f 69bf 4f61 5fbf
00000240: 61df 543f dd53 41bf 9d24 733f a180 7bbf
00000250: e4bf 6d3f c4fb 3c3f 445c 57bf 1b0f 4d3f
00000260: 48e5 27bf a8fa 7a3f ff4b 68bf fb8c ff3e
00000270: bb5c 89bf 7804 743f 1052 493f 1cce 61bf
00000280: cec7 63bf 89e0 5cbf 2884 233f 5669 803f
00000290: 0402 653f cbb0 793f ba85 10bf b943 67bf
000002a0: 2a30 60bf fd50 523f 6e36 6dbf 026f 6bbf
000002b0: 85a1 723f d36c 80bf 9725 86bf ede0 82bf
000002c0: 71e7 673f 774f 6bbf 2639 8dbf 50fd 833f
000002d0: 31a1 6abf 28f7 773f 61ca 81bf 7013 643f
000002e0: 06a0 873f 3871 213f 979d 5c3f f336 813f
000002f0: c435 6c3f d3e1 88bf 7f9e 7c3f 8358 80bf
00000300: b630 76bf 5cab 90bf 193c 633d 5ec7 853f
00000310: 68c4 35bf db68 913f ff34 47bf 2acd a1bf
00000320: 471a 233f 5268 923f 9af9 943f ee61 883f
00000330: 7373 85bf e9f6 2a3f af26 a7bf b987 6cbf
00000340: 1df7 35bf 80b6 a93f aaa9 983c bab6 183f
00000350: 5063 33bf c01d 7b3f a24b 7ebf 3a2e 8f3f
00000360: 1275 a0bf c965 763f f6da a23f 02d1 3e3f
00000370: 7dd0 84bf 76ff 893f f06f 8fbf 01cd 873f
00000380: 4afd 1cbe 21ba 923f aba1 02bf 031b 1abf
00000390: 6ac5 ac3f 0801 54bf e243 8abf 949c 923f
000003a0: e909 86bf b04c 853f 5852 3dbf 06e3 873f
000003b0: 09f2 843f c0a1 8bbf e1d0 16bf 819d 50bf
000003c0: 8f42 a6be b181 65bf 9376 6a3f baaf 1c3f
000003d0: 9f52 ab3f 0fa7 6f3f 493a 3dbf 0024 abbf
000003e0: e64c 9dbf e60d b23e 02fb 7fbf 0364 eebd
000003f0: 07c8 5ebf 4133 8b3f 5c8e 87bf 0d45 653f
-0.81218916 1.2504437 1.2806209 -1.28735 -0.89044136 -0.60994786 -0.9886022 -1.2089726
-1.0140429 0.9695937 -1.107943 1.0552099 1.3083957 -0.91059875 1.2411957 0.91593605
1.1479352 -1.1688005 -1.1964041 1.1336124 0.38545316 -1.0042263 -1.2736288 -1.0438967
-0.133215 -0.9134978 -0.9998842 1.003958 0.9729903 -0.8133374 1.1999559 -1.1290315
0.858054 0.94799656 -0.8744191 -0.88193965 -0.644825 -0.9315389 -1.1480157 -1.0533217
0.6008225 1.0192926 -1.1813763 0.57945496 0.56708753 1.0670561 -1.2073861 1.0867527
1.006195 1.1678855 0.7330076 -0.9849665 -1.1070261 -1.0152885 1.0725071 0.9612902
-0.28098267 0.9384666 -1.1090456 -0.97691697 -1.0039535 -1.1660434 1.3068715 0.85416156
-0.33728883 0.6845587 1.0392432 -1.034444 0.8199601 1.0907365 1.0053546 1.0395651
0.9116345 -0.96119887 -0.98330784 0.88509846 -0.91835177 1.0310633 0.7195829 0.7154589
-1.0536888 -1.0791087 -0.91264176 0.53058475 -0.89070773 0.9322464 0.9961026 1.1607751
1.0716314 -0.33362874 1.0549436 0.98976797 0.8247587 -1.091063 -1.1477572 0.9840713
-0.9925898 -1.1185459 -1.0177313 -0.5042588 -0.8887146 1.0085502 1.1837544 0.79849803
0.8956163 -1.1610373 0.7055959 0.9976577 -0.7230451 0.90575635 1.076207 -0.9735828
-0.89267397 0.7661277 -1.0506665 1.0957774 -0.28511456 0.9101513 0.59870714 0.7790138
-0.587824 0.62390554 0.732631 -0.81514955 -0.8461352 -0.8806753 -0.07085475 -0.8698732
1.002291 0.8887905 0.74205124 0.8201064 -0.5860081 0.7675217 0.96004975 0.92027605
0.97455186 -1.0751294 -0.94899035 -0.95313466 0.84598064 0.84448934 -0.91087496 -0.87257856
0.8315335 -0.7551859 0.9497774 -0.9824315 0.92870927 0.73821664 -0.8412516 0.80101174
-0.6558423 0.9803872 -0.9074096 0.49912247 -1.0731424 0.9531932 0.7864084 -0.8820512
-0.8897675 -0.86280113 0.6387353 1.0032146 0.894562 0.9753539 -0.5645405 -0.9033771
-0.8757349 0.8215483 -0.9266118 -0.9196626 0.9477771 -1.003321 -1.0480222 -1.0224892
0.90587527 -0.9191813 -1.1033065 1.031168 -0.9165221 0.96861506 -1.0139886 0.8909216
1.059571 0.63063383 0.86177963 1.0094894 0.9226954 -1.0693916 0.98679346 -1.0027012
-0.96168077 -1.1302295 0.055477235 1.0451467 -0.7100282 1.1360124 -0.7781524 -1.2640736
0.6371197 1.1438086 1.1638672 1.0654886 -1.0425857 0.66783005 -1.305868 -0.92394596
-0.7108019 1.325882 0.01863559 0.5965382 -0.70073414 0.9809227 -0.99334157 1.1185982
-1.2535727 0.9624906 1.2723072 0.7453767 -1.0376126 1.0781085 -1.1206036 1.0609437
-0.15330997 1.1463052 -0.51027936 -0.60197467 1.3497746 -0.82814074 -1.0801966 1.1454034
-1.0471774 1.0414028 -0.7395377 1.0616157 1.0386363 -1.0908737 -0.58912474 -0.8149033
-0.32472655 -0.8965102 0.9158718 0.6120564 1.3384589 0.93614286 -0.7391706 -1.3370361
-1.2289093 0.3477623 -0.9999238 -0.116401695 -0.8702397 1.0875016 -1.059032 0.8955849
