GNNModels/checkpoints/GCN_3L_MUTAG_epochs=300.pt (torch, 38959 bytes, 8 tensors)

conv1.bias f4 [64]
0	0xbd8211f2	-0.06351079
1	0xbde484c7	-0.11158138
2	0xbd87b047	-0.06625419
3	0xbe1225d2	-0.1427224
4	0xbdc421a5	-0.0957673
5	0xbdb2d274	-0.08731547
6	0xbb3d39fc	-0.0028873673
7	0xbdd278ce	-0.10276948
8	0xbe265587	-0.16243564
9	0x3d22f94a	0.03978852
10	0xbd66a3fa	-0.056308724
11	0x3a9a1ef7	0.0011758496
12	0xbcfb7d9c	-0.030699544
13	0xbd75e916	-0.06003674
14	0xbd9157a2	-0.07096793
15	0xbd09fd63	-0.033688914
16	0x3d955f76	0.07293598
17	0xbd93117e	-0.07181071
18	0xbdc025a8	-0.09382182
19	0xbde65996	-0.11247556
20	0xbd4b3acf	-0.04961663
21	0xbdd026b1	-0.1016363
22	0xbdb13aba	-0.08653779
23	0xbd8eb822	-0.06968714
24	0xbe0bf05a	-0.13665906
25	0xbdfbaa18	-0.12288302
26	0xbda7bab0	-0.08189905
27	0xbe1e2395	-0.15443261
28	0xbe0d4285	-0.13794906
29	0xbe20ec60	-0.1571517
30	0xbd73f378	-0.05955836
31	0xbd159e74	-0.036528066
32	0xbd9f26ba	-0.077710584
33	0x3da255bd	0.079265095
34	0xbc9fb9b3	-0.019497728
35	0xbe008840	-0.12551975
36	0x3dce653e	0.10077904
37	0xbdc30af8	-0.095235765
38	0xbda7db0e	-0.08196078
39	0xbe43c236	-0.19117054
40	0x00000000	0.0
41	0xbd729e44	-0.059232965
42	0xbe28612c	-0.16443318
43	0xbd6c9bda	-0.05776582
44	0x3bda7e0f	0.0066678594
45	0xbda47756	-0.08030574
46	0x3cb9f720	0.022700846
47	0xbca9fc52	-0.020750199
48	0xbdbd2c8a	-0.09237011
49	0xbd8273a1	-0.06369711
50	0xbdcb0d3d	-0.099146344
51	0xbde13ee6	-0.10998325
52	0xbc548324	-0.0129707195
53	0x3e56e058	0.20984018
54	0xbdca8d84	-0.09890273
55	0x3dc9fb7e	0.098624215
56	0xbd71f8a6	-0.05907502
57	0xbda652f2	-0.08121289
58	0xbd75fc34	-0.060054973
59	0xbb2affe4	-0.0026092464
60	0xbd75b467	-0.0599865
61	0xbd891645	-0.06693701
62	0xbe879eb1	-0.2648826
63	0xbdc603b8	-0.09668678

conv1.lin.weight f4 [64, 7]
0	0xbe1ebe82	-0.1550236
1	0xbe867687	-0.26262304
2	0x3d0e0b74	0.03467889
3	0xbe8b7681	-0.2723885
4	0xbe0150ca	-0.12628475
5	0xbe4d560b	-0.20052354
6	0x3ccf1f91	0.025283607
7	0x3cb48fd8	0.022041246
8	0xbcdb10f1	-0.026741477
9	0xbe16f89e	-0.14743277
10	0xbca0093e	-0.019535657
11	0xbe4c3e7d	-0.19945712
12	0xbe85c34f	-0.2612557
13	0xbd50fae1	-0.051020507
14	0xbd6e8238	-0.058229655
15	0xbea00823	-0.31256208
16	0x3e06086e	0.13089153
17	0xbe68e61a	-0.22744027
18	0x3dfd132c	0.12357172
19	0xbe02a658	-0.12758768
20	0x3bafe400	0.005367756
21	0xbe651a7c	-0.22373384
22	0xbbffc2ac	-0.007805189
23	0x3e120cd5	0.14262708
24	0xbe92b88e	-0.2865643
25	0xbe7f383c	-0.24923795
26	0xbcc56c50	-0.024099499
27	0x3c2759a0	0.010214239
28	0x3e7a2615	0.2442859
29	0xbedf5bc9	-0.43624714
30	0xbea5689c	-0.32306373
31	0xbf196169	-0.5991426
32	0x3d836bf8	0.06417078
33	0xbef4cc96	-0.47812337
34	0x3fabbc44	1.3416829
35	0xbe372b77	-0.17887674
36	0x3d4d9312	0.050189085
37	0x3e6d760b	0.23189561
38	0x3f4ba09a	0.79541934
39	0xbe82f68c	-0.25578725
40	0x3e492cba	0.19645968
41	0xbe576f4f	-0.21038555
42	0xbdd98f65	-0.106230535
43	0x3f6873ea	0.9080187
44	0x3eb72440	0.35769844
45	0x3f6299f9	0.88516194
46	0xbe22bfee	-0.15893528
47	0x3f3d7ede	0.7402171
48	0xbe3d512e	-0.18487999
49	0xbe53e772	-0.20693758
50	0x3d0ecc07	0.034862544
51	0x3d529fd4	0.051421955
52	0x3ce20add	0.02759307
53	0xbd8e077e	-0.06935023
54	0xbdeada88	-0.11467463
55	0xbdad8e18	-0.08474368
56	0x3dc24194	0.09485164
57	0xbe12f023	-0.14349417
58	0xbd667084	-0.056259647
59	0xbe9678c3	-0.2938901
60	0x3e0f75f0	0.14009833
61	0xbe5f390d	-0.21799107
62	0x3ef4123d	0.47670165
63	0xbddc52ca	-0.10757978
64	0x3f1dec03	0.6168825
65	0x3d5f0f2c	0.05445783
66	0x3f9bddaa	1.2177022
67	0x3e490be6	0.19633445
68	0x3f2ca8bc	0.6744497
69	0xbe641c7c	-0.22276491
70	0xbe94b96b	-0.29047713
71	0x3d98e086	0.074646994
72	0xbd9ec324	-0.07752064
73	0xbe934d87	-0.28770086
74	0xbe011d1d	-0.12608762
75	0xbe0dd7aa	-0.138518
76	0xbe3ecd9c	-0.18633121
77	0xbddbdef9	-0.10735888
78	0x3f8f3132	1.1186888
79	0xbf8138f5	-1.0095507
80	0xbedea2e7	-0.4348366
81	0x3e42f016	0.19036898
82	0x3f8a1db0	1.079031
83	0xbea614c3	-0.32437715
84	0x3df51dd2	0.119685784
85	0xbed76d6c	-0.4207567
86	0xbebe4e2e	-0.3716902
87	0xbec141de	-0.37745565
88	0xbe10f7db	-0.1415705
89	0xbee3bcc9	-0.4447997
90	0x3fa5a2ef	1.2940348
91	0xbdd62fa2	-0.10458304
92	0xbd3878d0	-0.04503709
93	0xbe773734	-0.24142152
94	0x3c307040	0.01076895
95	0xbac1f600	-0.0014798045
96	0xbe52a9e7	-0.20572625
97	0xbe7d4f12	-0.24737194
98	0xbe9ac102	-0.30225378
99	0xbeadd409	-0.33950832
100	0x3e32e5cc	0.17470473
101	0xbe0f8f06	-0.14019403
102	0xbd7edd08	-0.06222251
103	0x3e1de7e9	0.15420498
104	0x3d9bb27c	0.076024026
105	0xbd9973b5	-0.074927725
106	0xbe80ea7d	-0.251789
107	0xbea66137	-0.32496044
108	0x3d16506e	0.036697797
109	0xbddb3c40	-0.10704851
110	0xbdca1b13	-0.09868445
111	0x4011d744	2.2787638
112	0xbe31dbb3	-0.17368965
113	0x3f89e7f6	1.0773914
114	0x3e9fec4e	0.31234974
115	0x3ebf4f6e	0.37365288
116	0x3de67348	0.11252457
117	0x3f01139e	0.5042056
118	0xbe959da4	-0.29221833
119	0xbc0fec14	-0.008784313
120	0x3f3209d3	0.6954624
121	0xbf103f7e	-0.5634688
122	0x3fb3eb68	1.4056215
123	0xbdca153c	-0.098673314
124	0xbe79fe67	-0.24413453
125	0xbe75757b	-0.23970596
126	0xbd70a0b1	-0.058746997
127	0x3b772ce8	0.0037715975
128	0xbdd5e07e	-0.10443209
129	0xbcf966d1	-0.030444534
130	0x3e8dc679	0.27690485
131	0xbd784a30	-0.060617626
132	0x3d9cff5b	0.07665893
133	0xbec6463e	-0.38725466
134	0x3d2d1717	0.04225835
135	0x3dd11754	0.102095276
136	0x3b0d4200	0.0021554232
137	0xbd699cd8	-0.057034343
138	0x3de48bb8	0.11159462
139	0x3d7972f0	0.06090063
140	0x3e0522d0	0.13001561
141	0xbea5410a	-0.32276183
142	0xbeddbf46	-0.43309993
143	0xbf0499b6	-0.51797044
144	0x3e50641e	0.20350692
145	0xbed1ae50	-0.40953302
146	0x3fa200d8	1.2656507
147	0x3dad342b	0.08457216
148	0xbf01cd85	-0.5070422
149	0xbece36ec	-0.40276277
150	0xbeab2a07	-0.33430502
151	0xbdbc227a	-0.091862634
152	0xbde224f3	-0.11042204
153	0x3f137513	0.57600516
154	0xbe4954f6	-0.19661316
155	0x3f067532	0.52522576
156	0xbf12fe5b	-0.57419366
157	0x3fec816f	1.8477
158	0xbcaf9d80	-0.021437407
159	0x3eec9e19	0.4621437
160	0xbe5d9999	-0.21640624
161	0xbeb0276e	-0.34405082
162	0xbb8a70ba	-0.004224864
163	0x3e06a353	0.13148241
164	0xbd301fa4	-0.042998925
165	0x3d2ece78	0.042677373
166	0x3df8471c	0.12122938
167	0x3de278fc	0.11058232
168	0xbf060193	-0.5234615
169	0xbd1e721c	-0.038683042
170	0xbe4280ca	-0.18994442
171	0x3f721ea5	0.9457801
172	0x3e8e77f9	0.27825907
173	0x3e216715	0.15761979
174	0x3ca8f939	0.020626651
175	0xbe829eeb	-0.2551187
176	0x3dbe0a43	0.09279301
177	0xbe03d7c4	-0.12875277
178	0xbe6dc407	-0.2321931
179	0x3e3133ba	0.17304888
180	0x3d218fe8	0.03944388
181	0x3e0a8131	0.13525845
182	0xbdcb0478	-0.09912962
183	0xbdad9e4d	-0.08477459
184	0xbd41618b	-0.047212165
185	0xbe189fc7	-0.149047
186	0x3d95a410	0.07306683
187	0x3f909e83	1.1298374
188	0xbd2d0161	-0.042237643
189	0xbdedd68a	-0.11613186
190	0x3f1280ff	0.5722808
191	0xbeee5318	-0.4654777
192	0xbe281c2d	-0.16416998
193	0xbd343b68	-0.044001967
194	0x3ef43d80	0.4770317
195	0xbdb2aebd	-0.08724735
196	0xbe352df7	-0.17693315
197	0x3f2d3ae5	0.6766799
198	0xbef87ed8	-0.48534274
199	0xbe2fd8d7	-0.17172562
200	0xbe5ec5fa	-0.2175521
201	0x3f802a0e	1.0012834
202	0xbda5e347	-0.0809999
203	0x3df6ee22	0.12057139
204	0xbecb8bb2	-0.39755017
205	0x3dbfe976	0.09370701
206	0xbdab1ec6	-0.08355479
207	0xbc1d4a20	-0.009600192
208	0x3c1037d8	0.008802377
209	0x3f36a2ca	0.71342146
210	0xbe209e33	-0.15685348
211	0xbdfbb8d0	-0.122911096
212	0x3df0e21f	0.11761879
213	0xbe53f4b6	-0.20698819
214	0x3d89cc58	0.067284286
215	0xbe673ffe	-0.22583005
216	0xbdc5c74a	-0.09657152
217	0xbe0f51d8	-0.13996065
218	0xbe003751	-0.12521102
219	0xbdf006b6	-0.1172003
220	0x3d12554d	0.03572588
221	0xbe358fcb	-0.17730634
222	0xbdc1c9a0	-0.09462285
223	0xbe225018	-0.15850866
224	0xbd4c1cd3	-0.049832176
225	0x3c57a553	0.013161975
226	0xbe064708	-0.13113034
227	0x3d8dc30d	0.069219686
228	0x3e7eaa86	0.24869737
229	0x3d659227	0.056047585
230	0xbe420c50	-0.1895001
231	0xbe38909c	-0.18023914
232	0x3f674cde	0.90351665
233	0x3e361baf	0.17783998
234	0x3f7ccd46	0.9875072
235	0x3e44b77a	0.19210616
236	0x3f0f59ce	0.55996406
237	0xbe9ef2e2	-0.3104468
238	0x3baac603	0.005211593
239	0x3afe362a	0.0019394804
240	0xbe5ce8df	-0.21573208
241	0xbeac7046	-0.33679408
242	0x3e8e96f5	0.27849546
243	0xbd047bcd	-0.032344628
244	0x4052e2ec	3.2951002
245	0x3da02a44	0.078205615
246	0xbed06702	-0.4070359
247	0xbeb53be8	-0.35397267
248	0xbea08e86	-0.31358737
249	0xbe51172e	-0.20418999
250	0xbe9f2260	-0.31080914
251	0x3ff6135a	1.9224656
252	0xbf16f170	-0.58962154
253	0x3ee3b18b	0.44471392
254	0x3f7663e6	0.9624618
255	0xbe57854c	-0.21046942

conv2.bias f4 [64]
0	0xbe2fb5c6	-0.17159185
1	0xbd8cc391	-0.06873239
2	0xbc6553a6	-0.013996994
3	0xbd73139c	-0.059344873
4	0xbcf7f7f5	-0.030269602
5	0x3e057110	0.13031411
6	0x3ca72b6d	0.02040645
7	0xbe0d904b	-0.13824575
8	0xbd4a0588	-0.04932168
9	0xbdb37b0f	-0.08763706
10	0xbe5c9a4f	-0.21543239
11	0xbce8f7eb	-0.028438529
12	0xbdb922ca	-0.090398386
13	0xbd60329d	-0.05473577
14	0xbd741450	-0.059589684
15	0xbd3f4d5a	-0.046704628
16	0x3da0d160	0.07852435
17	0xbe2721ef	-0.16321538
18	0x00000000	0.0
19	0xbd24aa3c	-0.04020141
20	0xbd8af519	-0.0678503
21	0xbcad5843	-0.02116025
22	0xbe4f76bb	-0.20260136
23	0x00000000	0.0
24	0xbd84e2f0	-0.064885974
25	0xbd8cf431	-0.06882513
26	0xbe2f93a3	-0.17146163
27	0xbd75d712	-0.06001956
28	0x3dcdc28c	0.100468725
29	0xbd75fc16	-0.06005486
30	0xbda0759e	-0.07834934
31	0x3de73708	0.11289793
32	0xbd823d46	-0.06359343
33	0xbd75fb31	-0.060054008
34	0xbd833e94	-0.0640842
35	0xbd2ecb05	-0.042674083
36	0xbddef38a	-0.10886295
37	0xbddcf458	-0.10788792
38	0xbd848518	-0.06470698
39	0xbdc5d605	-0.096599616
40	0xbf028b5b	-0.5099389
41	0xbd860429	-0.06543762
42	0x3e143af4	0.14475614
43	0xbd6b4c33	-0.057445716
44	0x3d902ed2	0.0704018
45	0xbd7c45f6	-0.061590157
46	0xbd9732a3	-0.07382705
47	0xbf175f40	-0.59129715
48	0xbd75fbe6	-0.060054682
49	0xbd074d46	-0.033032678
50	0xbd892e8f	-0.066983335
51	0x3e3edc25	0.18638666
52	0xbd70ffbe	-0.058837645
53	0xbda13967	-0.07872277
54	0xbdbc2aac	-0.091878265
55	0xbd8ef2dc	-0.069799155
56	0x3d5bc5b1	0.05365533
57	0xbcf55228	-0.029946402
58	0x3dbb1ee4	0.09136751
59	0xbe0806fe	-0.13283917
60	0xbd1ba09b	-0.037994962
61	0xbc66ca46	-0.014086312
62	0x3d28eb05	0.041239757
63	0xbd75f987	-0.06005242

conv2.lin.weight f4 [64, 64]
0	0xbd95fa2f	-0.07323109
1	0xbe0a145c	-0.13484329
2	0x3d53f76e	0.05174964
3	0xbe57d904	-0.21078879
4	0xbdfea5ea	-0.12433989
5	0xbe8d6090	-0.27612734
6	0xbd543a1f	-0.05181324
7	0xbcb17d11	-0.021666082
8	0x3b47ec0a	0.003050568
9	0xbe532771	-0.20620514
10	0x3dd00b6d	0.10158429
11	0xbd2586db	-0.04041181
12	0x3dd7705e	0.10519479
13	0xbdd328d7	-0.10310524
14	0xbe239b0f	-0.15977119
15	0x3db5df70	0.08880508
16	0xbec674b9	-0.38760927
17	0xbd25b8ff	-0.04045963
18	0x3ddabacc	0.1068016
19	0x3d871adf	0.06596922
20	0xbd9c3d96	-0.07628934
21	0xbe217256	-0.15766272
22	0xbe0686d3	-0.13137369
23	0xbe454377	-0.19264017
24	0xbdf122a8	-0.11774188
25	0x3e806a7c	0.2508124
26	0xbe0019d2	-0.1250985
27	0xbd575c40	-0.05257821
28	0xbeab13cd	-0.33413544
29	0xbd84e35e	-0.06488679
30	0xbd9d7798	-0.07688826
31	0xbc302664	-0.010751341
32	0x3d8f441c	0.06995413
33	0xbdf228fc	-0.118242234
34	0xbdc6e760	-0.097121
35	0xbde59ad9	-0.112111755
36	0xbca78374	-0.020448424
37	0x3e17c498	0.14821088
38	0xbd9bff6f	-0.076170795
39	0xbd53b5ff	-0.051687237
40	0x3e3e08e5	0.1855808
41	0x3e22f104	0.15912253
42	0x3b921619	0.0044582007
43	0x3d95cc6a	0.073143795
44	0x3d7b7141	0.061387304
45	0xbe4588ec	-0.19290513
46	0x3e6cb356	0.23115286
47	0xbcc12fbc	-0.023582332
48	0xbdf00b8e	-0.11720954
49	0x3df503f2	0.11963643
50	0xbe175146	-0.14777097
51	0x3e11ada1	0.1422639
52	0xbd76193a	-0.06008265
53	0xbdc5d56e	-0.09659849
54	0x3e6d9be9	0.23204006
55	0xbe97240b	-0.29519686
56	0x3e1bfd38	0.15233314
57	0xbe619b4c	-0.22031897
58	0xbd1eda5e	-0.03878247
59	0xbece55cf	-0.40299842
60	0xbdcd6f71	-0.100310214
61	0xbe67b6ff	-0.22628401
62	0x3d7be826	0.06150069
63	0x3e6a8698	0.22902906
64	0x3dadba89	0.084828444
65	0xbe2a8ac5	-0.16654499
66	0xbd8e37d0	-0.06944239
67	0x3dc6f3b3	0.09714451
68	0x3e020995	0.12698968
69	0xbd52ce19	-0.05146608
70	0xbe8b81e4	-0.27247536
71	0xbbdb1388	-0.006685678
72	0xbdd06592	-0.10175623
73	0xbe5fd560	-0.2185874
74	0x3d58e891	0.052956168
75	0x3db5224f	0.088444345
76	0x3d924979	0.0714292
77	0x3e31fdce	0.17381975
78	0xbe1671f6	-0.1469191
79	0xbc937406	-0.01799966
80	0xbe9c2f3d	-0.3050479
81	0xbe6249a8	-0.2209841
82	0x3da34af3	0.0797328
83	0x3d82457b	0.063609086
84	0x3e258031	0.16162182
85	0x3da167a4	0.07881096
86	0xbc3b1bc9	-0.011420199
87	0xbe9c075c	-0.30474365
88	0xbe8b0542	-0.2715245
89	0x3cae67fa	0.021289814
90	0x3dd778ea	0.105211094
91	0xbe46c15c	-0.19409698
92	0x3d1fd47d	0.039021004
93	0xbe4a168e	-0.19735166
94	0x3dea8a3a	0.11452146
95	0xbe258a89	-0.16166128
96	0xbde117ab	-0.109908424
97	0xbe0ec5c2	-0.13942626
98	0x3e0a02b3	0.13477592
99	0x3c026280	0.007958055
100	0x3d55e68d	0.052221823
101	0x3db4712e	0.0881065
102	0x3d9d7832	0.07688941
103	0x3dccede2	0.1000631
104	0x3d8abaae	0.067738876
105	0x3d63e491	0.0556379
106	0x3dc7393c	0.097277135
107	0xbe168ffd	-0.14703365
108	0x3e079116	0.1323894
109	0xbdda9e04	-0.1067467
110	0xbe491991	-0.19638659
111	0xbe33d9f2	-0.17563608
112	0xbdd835dd	-0.105571486
113	0x3c00c039	0.007858329
114	0xbd0a42ab	-0.033754986
115	0xbda6037b	-0.081061326
116	0x3de4146d	0.111367084
117	0x3cb17f0f	0.021667032
118	0xbd4ef8a2	-0.050530083
119	0x3e115b13	0.14194898
120	0xbd735e35	-0.059416015
121	0xbdf8d33f	-0.12149667
122	0x3cb05003	0.021522528
123	0xbe8d1572	-0.27555424
124	0x3e00ccdd	0.12578149
125	0xbe47bd1e	-0.19505736
126	0xbe06de67	-0.13170777
127	0x3aa0684c	0.0012238114
128	0x3e7f3746	0.24923429
129	0x3d983c82	0.07433416
130	0xbe1cded4	-0.15319377
131	0xbd01883a	-0.031624056
132	0xbdf4073c	-0.11915442
133	0x3d152cf2	0.036419816
134	0xbde030b6	-0.10946791
135	0x3e24ecc1	0.1610594
136	0x3d9e4b6c	0.07729229
137	0x3e8d32a1	0.2757769
138	0xbe444456	-0.19166693
139	0x3f40f1eb	0.7536914
140	0xbdc9fbe9	-0.09862501
141	0x3d9ce1ba	0.076602414
142	0x3e34f391	0.17671038
143	0x3dc79878	0.09745878
144	0xbdcd457b	-0.10023018
145	0x3f74c853	0.9561817
146	0x3df7027a	0.12061019
147	0x3e5a4032	0.21313551
148	0xbd94084d	-0.07228146
149	0xbdd145f4	-0.102184206
150	0x3f305a6b	0.68887967
151	0x3e0fc65c	0.14040512
152	0xbf89bf45	-1.0761496
153	0xbe3d26b7	-0.184718
154	0x3f4e568b	0.80600804
155	0x3e319fd6	0.17346129
156	0x3e7d5b23	0.24741797
157	0x3e1a3eba	0.15062991
158	0xbbe99bdf	-0.007129177
159	0x3d917ace	0.07103501
160	0x3d708ab5	0.05872603
161	0xbd47d42e	-0.048786335
162	0xbe1b2cd3	-0.15153818
163	0xbe77cb50	-0.24198651
164	0xbf15923b	-0.58426255
165	0x3c99a1d1	0.018753918
166	0x3da67468	0.081276715
167	0x3dfa5a34	0.12224236
168	0x3e560fbd	0.20904441
169	0x3e2e2acf	0.17008518
170	0xbdb7716b	-0.0895718
171	0xbd28ea6c	-0.041239187
172	0x3f2105bf	0.6289939
173	0x3d78319d	0.06059419
174	0x3f60d681	0.87827307
175	0x3e844885	0.25836578
176	0xbe1b861a	-0.15187874
177	0x3e1132bd	0.14179511
178	0x3e43f5e4	0.19136769
179	0x3e9efc38	0.31051803
180	0xbd438434	-0.0477335
181	0xbf0ef062	-0.55835545
182	0xbdd97b80	-0.10619259
183	0x3e203abf	0.1564741
184	0xbd820213	-0.06348052
185	0x3d5d9822	0.054100163
186	0x3e76cbbb	0.24101155
187	0x3eb98de4	0.36241066
188	0x3d8be6ce	0.06831132
189	0x3e7a9241	0.24469854
190	0xbcfb0e9f	-0.03064662
191	0x3dc22f2c	0.094816536
192	0x3dff0a2d	0.12453113
193	0xbe3da0ff	-0.18518446
194	0xbe6ce296	-0.2313331
195	0x3d30c726	0.043158673
196	0xbd8e9968	-0.06962854
197	0xbda93918	-0.08262843
198	0xbd16acca	-0.03678588
199	0x3c3d1574	0.011540759
200	0xbe878145	-0.26465812
201	0xbe01806a	-0.12646642
202	0xbdf053bf	-0.11734723
203	0x3c546fe1	0.012966127
204	0xbe6282e6	-0.22120246
205	0x3c81dc1d	0.015852029
206	0x3daaf4f6	0.08347504
207	0x3e9213be	0.28530687
208	0xbe3fea3f	-0.18741702
209	0x3d9b14ee	0.075723514
210	0x3c9a5196	0.018837731
211	0x3d5d026a	0.05395738
212	0xbe68136e	-0.22663662
213	0xbe267e47	-0.16259108
214	0xbcc2408a	-0.023712415
215	0x3d8fc6bd	0.07020328
216	0x3d9d5471	0.076821215
217	0xbad5d57f	-0.0016314237
218	0xbd17fe2d	-0.037107635
219	0xbe855cbf	-0.26047322
220	0x3d78c02a	0.060730137
221	0xbe056c06	-0.13029489
222	0xbe4d7571	-0.20064332
223	0xbe89b9fa	-0.268997
224	0x3dc451bc	0.09585902
225	0xbd1d3bb6	-0.038387023
226	0xbde73b23	-0.11290576
227	0x3cc07cd2	0.023497019
228	0x3c338a8c	0.010958325
229	0x3d9950ca	0.074861124
230	0x3dd01371	0.10159958
231	0x3dd909d0	0.10597575
232	0x3e02087f	0.12698554
233	0xbe2e061c	-0.16994518
234	0xbe3077b7	-0.17233168
235	0x3dd45af4	0.103689104
236	0xbd13b3ab	-0.036060017
237	0xbdb5c693	-0.08875766
238	0xbdd8a2b0	-0.10577905
239	0xbc196ae7	-0.009363866
240	0xbd8f5bf6	-0.06999962
241	0x3e164c2d	0.14677496
242	0xbdb3cdf8	-0.0877952
243	0x3d90466d	0.07044683
244	0x3defb3f8	0.11704248
245	0xbdcd6240	-0.10028505
246	0xbccf67d6	-0.025318068
247	0xbe8f495d	-0.2798566
248	0xbe724bd7	-0.23661743
249	0xbe5f83f6	-0.21827683
250	0xbd96fcfc	-0.07372472
251	0xbe903211	-0.28163198
252	0xbe34a40c	-0.17640704
253	0x3e2b7ebc	0.16747564
254	0xbc6fe7aa	-0.014642635
255	0x3c2029be	0.009775577

conv3.bias f4 [64]
0	0x3d18def2	0.037321992
1	0xbb80814a	-0.0039216625
2	0x3d224238	0.039613932
3	0x3d0cc1be	0.034364454
4	0x3a92a342	0.0011187571
5	0xbd183666	-0.037161253
6	0x3c924a92	0.017857824
7	0xbccfd6da	-0.025371004
8	0x3ca3562b	0.019938549
9	0xbcf5fc7a	-0.030027617
10	0x396cbcf8	0.0002257711
11	0x3ca9a12c	0.020706736
12	0x3e09b006	0.13446054
13	0xbe0f1bc6	-0.13975438
14	0x3d4f1ac5	0.05056264
15	0xbd2bc87a	-0.041939236
16	0xbbcd5674	-0.0062664095
17	0xba407fa2	-0.00073432375
18	0x3df08e78	0.11745924
19	0x3c53ac42	0.012919487
20	0x3cfea153	0.031082785
21	0xbccb57ee	-0.024822202
22	0x3d130071	0.035889093
23	0x3e3055da	0.1722025
24	0xbbbcb783	-0.005759181
25	0xbdcb7172	-0.09933747
26	0x3dbc4e43	0.09194615
27	0x3ca37395	0.019952575
28	0xbda6d3a4	-0.08145836
29	0xbd76d7a0	-0.06026423
30	0xba2dad76	-0.0006625274
31	0x3dc7ad3e	0.0974984
32	0x3d9dd334	0.077062994
33	0x3bd24308	0.006416682
34	0xbab9255d	-0.0014125515
35	0x3b4aba95	0.0030933965
36	0x3cc3372e	0.023830023
37	0x3e0f4bb4	0.13993722
38	0xbb2c69f8	-0.002630828
39	0x3d2bd0f0	0.041947305
40	0xbdfc5e3c	-0.12322661
41	0xbca8ae36	-0.020590883
42	0xbd5db5fc	-0.054128632
43	0xba81e9d2	-0.0009911603
44	0xbc8bc027	-0.017059399
45	0x3ad11828	0.0015952634
46	0x3be5417d	0.006996332
47	0xbc88edae	-0.016714897
48	0x3b6ece79	0.0036438985
49	0xbdbddfef	-0.092712276
50	0xbd41e3bd	-0.04733633
51	0x3da25d10	0.079279065
52	0x3a961b08	0.0011452148
53	0xbd887eda	-0.0666482
54	0x3c6580f4	0.014007796
55	0xbcde94a0	-0.02717048
56	0x3da205ad	0.07911239
57	0x3cc04069	0.023468213
58	0xbc3d3a3c	-0.011549529
59	0xbcc8c674	-0.024508692
60	0xbc09fcd9	-0.0084221
61	0x3d837960	0.06419635
62	0xbd1d010e	-0.038331084
63	0xbbadb8c7	-0.005301568

conv3.lin.weight f4 [64, 64]
0	0xbe21c98b	-0.15799539
1	0xbdfd5243	-0.12369206
2	0xbe3b6700	-0.1830101
3	0xbe292907	-0.16519557
4	0xbe654d79	-0.22392835
5	0x3ef70e6c	0.4825319
6	0x3e6bb525	0.2301832
7	0x3eb21ef9	0.34789255
8	0x3e514501	0.20436479
9	0x3e3ede67	0.18639527
10	0xbdeb6586	-0.114939734
11	0x3e163eb4	0.14672357
12	0xbde73f86	-0.11291413
13	0xbd9a0bac	-0.075217575
14	0xbc235e58	-0.009971224
15	0x3cad8dea	0.021185834
16	0x3d982d3f	0.07430505
17	0xbf27f202	-0.6560365
18	0xbdaa2aea	-0.083089665
19	0xbc0afd97	-0.008483312
20	0x3db8e5e9	0.09028227
21	0xbd1544be	-0.03644251
22	0xbe08a9f7	-0.13346086
23	0xbe02fc82	-0.12791637
24	0x3df1fbbe	0.11815594
25	0x3d092f18	0.033492178
26	0xbca439c2	-0.020047072
27	0x3e0f244d	0.13978691
28	0x3ecb8f0c	0.39757574
29	0x3af4e1f3	0.0018683061
30	0xbb35b0c8	-0.0027723778
31	0x3e6dfd07	0.23241054
32	0x3d63254e	0.0554555
33	0x3d2fd7ea	0.04293052
34	0x3e095d9f	0.1341462
35	0xbe8b5d03	-0.272194
36	0xbd66464c	-0.056219384
37	0x3d874bff	0.06606292
38	0xbe098283	-0.13428693
39	0xbd3c9c1e	-0.046047322
40	0x3f6f61f0	0.93508816
41	0x3de515f4	0.11185828
42	0x3e248be5	0.1606899
43	0x3e026d81	0.12737085
44	0x3e9bfbfb	0.30465683
45	0xbe4dca72	-0.20096758
46	0x3d6626c4	0.056189314
47	0x3ecd301a	0.4007576
48	0x3d9928e9	0.07478506
49	0x3e2a16fb	0.16610329
50	0xbeab8434	-0.334993
51	0x3ebb2bdd	0.36556903
52	0xbdec4526	-0.115366265
53	0x3d617d5d	0.055051196
54	0xbd9be4c8	-0.07611996
55	0x3d808c16	0.06276719
56	0x3eb83111	0.35974935
57	0xbea036d4	-0.3129183
58	0x3e7cc80f	0.24685691
59	0x3e01cb78	0.12675273
60	0x3e2fae99	0.17156447
61	0xbe1850c3	-0.14874558
62	0x3e5204a4	0.20509583
63	0xbcb8cef8	-0.022559628
64	0x3c1795d7	0.009252033
65	0xbddd7ac6	-0.10814433
66	0xbe3e1e1b	-0.18566172
67	0xbd56ee3d	-0.052473295
68	0xbe4d1d0c	-0.20030612
69	0x3ede681d	0.43438807
70	0x3cbaa65f	0.02278441
71	0x3cf987a9	0.030460196
72	0xbd1058c3	-0.0352409
73	0x3d99e50b	0.075143896
74	0xbd4494ac	-0.047993347
75	0x3def1bfc	0.116752595
76	0x3e18cc6f	0.14921735
77	0xbe3d46cc	-0.18484038
78	0xbdd17009	-0.10226447
79	0x3e0f1057	0.13971077
80	0x3e563153	0.20917253
81	0xbe787f33	-0.24267273
82	0x3e289b81	0.1646557
83	0xbdd5720b	-0.104221426
84	0x3e524fa6	0.20538196
85	0xbd80db6f	-0.06291854
86	0x3c32bd51	0.010909394
87	0x3d97e9f2	0.074176684
88	0xbe01b0ac	-0.12665051
89	0xbd1460fa	-0.036225297
90	0xbca8c1bc	-0.020600192
91	0x3e250175	0.16113837
92	0x3e890b52	0.2676645
93	0xbe84b657	-0.25920364
94	0xbdae594b	-0.08513125
95	0x3e8c503c	0.27404964
96	0x3d80784a	0.06272943
97	0x3e502cfa	0.20329657
98	0xbdfd65dc	-0.12372944
99	0x3def3c97	0.116814785
100	0x3e0eaa1f	0.13932084
101	0x3cdb8879	0.026798474
102	0xbe6a6610	-0.22890496
103	0x3c0b82ab	0.00851504
104	0x3f4f24cf	0.8091554
105	0x3d10de8d	0.03536849
106	0x3dcaa82e	0.09895359
107	0xbe467273	-0.19379596
108	0x3e703a94	0.23459846
109	0xbe11e51e	-0.14247558
110	0xbe28e467	-0.16493379
111	0x3ead3137	0.3382661
112	0x3cd0bbcf	0.02548018
113	0x3d716494	0.05893381
114	0xbcf9578d	-0.030437255
115	0x3ee2adef	0.44273326
116	0x3c4d68b3	0.012537169
117	0xbd0a5ec2	-0.033781774
118	0xbc9ea4f6	-0.019365769
119	0xbdd127eb	-0.10212692
120	0xbdd848b9	-0.10560746
121	0xbde96b49	-0.11397416
122	0x3d983845	0.074326076
123	0xbdc97b37	-0.098379545
124	0xbdb5aada	-0.08870478
125	0xbe05fd9a	-0.13085023
126	0xbe00e7f3	-0.12588482
127	0x3e7030d4	0.23456126
128	0xbd9be467	-0.07611924
129	0x3dd0c717	0.101942234
130	0x3e10b56a	0.14131704
131	0x3e4489da	0.19193211
132	0x3cd2aa8e	0.025716092
133	0xbe4d92c7	-0.20075522
134	0x3e4e743e	0.2016153
135	0xbea407e2	-0.32037264
136	0x3e0896ff	0.1333885
137	0x3e86754e	0.2626137
138	0xbe8f93e2	-0.28042513
139	0x3e17bd43	0.14818291
140	0x3e08ec8a	0.13371482
141	0xbdeeffc3	-0.116698764
142	0x3d488484	0.0489545
143	0x3d297a98	0.04137668
144	0xbe0b62e0	-0.13611937
145	0x3e8db153	0.2767435
146	0x3d2947dc	0.041328296
147	0xbe7f42a2	-0.24927762
148	0xbdf88e3f	-0.12136506
149	0xbe57263a	-0.21010676
150	0x3e625175	0.22101386
151	0xbabc2900	-0.0014355481
152	0xbde0ff53	-0.10986199
153	0xbdd9e3e0	-0.10639167
154	0xbd094d3a	-0.033520915
155	0x3dd9d4be	0.106362805
156	0xbe17a598	-0.14809263
157	0x3e674456	0.22584662
158	0xbd4508d1	-0.04810411
159	0xbe304014	-0.17211944
160	0xbdb7f6df	-0.08982634
161	0xbe80895c	-0.25104797
162	0xbe4e3008	-0.2013551
163	0x3dc949d6	0.09828536
164	0xbe419533	-0.18904571
165	0xbdaaf59e	-0.08347629
166	0x3e0e63f7	0.13905321
167	0x3c887bac	0.016660534
168	0xbf7497af	-0.9554395
169	0xbd874e44	-0.06606725
170	0xbe142a6b	-0.14469306
171	0x3e70cc08	0.23515332
172	0x3cc35233	0.023842907
173	0x3e851648	0.25993562
174	0x3cef65be	0.02922332
175	0xbf753b48	-0.9579358
176	0x3e8b8720	0.2725153
177	0x3dd13643	0.10215428
178	0xbe42c0d5	-0.19018872
179	0xbe8a7d1b	-0.27048573
180	0xbd507fa6	-0.050902985
181	0x3dcc3859	0.09971685
182	0x3e26f9a4	0.16306168
183	0x3e4dcde0	0.20098066
184	0xbe7001cc	-0.23438185
185	0xbdc83c03	-0.09777071
186	0xbe8c85b3	-0.27445754
187	0xbd7ef012	-0.062240668
188	0xbe4a1e4b	-0.19738118
189	0xbdf5a1c7	-0.11993747
190	0xbd28732f	-0.041125473
191	0x3d38e6aa	0.045141853
192	0x3d93c50a	0.072153166
193	0xbdf0efce	-0.11764489
194	0x3deb649c	0.11493799
195	0xbe6fc88b	-0.23416345
196	0x3dec8dc2	0.11550476
197	0xbea3c17c	-0.31983554
198	0xbe45a32b	-0.19300525
199	0xbe910e45	-0.283312
200	0xbe0baefc	-0.1364097
201	0xbe13546d	-0.14387675
202	0xbed3d2cd	-0.41371766
203	0x3c69e169	0.014274933
204	0xbc888ada	-0.016667772
205	0xbdda9068	-0.106720746
206	0xbda991db	-0.08279773
207	0x3dff461d	0.12464545
208	0xbb23bca5	-0.0024984267
209	0x3ebeb72d	0.37249127
210	0xbd9f4130	-0.077761054
211	0x3d928941	0.07155085
212	0x3db1b764	0.08677557
213	0xbe1f1599	-0.15535583
214	0xbe2eeeb3	-0.17083244
215	0xbc5e5e20	-0.013572246
216	0x3e19aa0e	0.15006277
217	0x3e06411b	0.13110773
218	0x3e62ea0e	0.22159597
219	0xbe0b62fc	-0.13611978
220	0x3be7773b	0.007063774
221	0x3dd5833a	0.1042542
222	0x3e36e5bb	0.17861073
223	0xbe1903a9	-0.14942802
224	0xbbbd6812	-0.0057802284
225	0xbe0b1390	-0.13581681
226	0xbe3a1721	-0.18172885
227	0xbd6fb9f1	-0.058526937
228	0xbe147141	-0.14496328
229	0xbc1c40b0	-0.009536907
230	0xbd668733	-0.05628128
231	0x3e26ec61	0.16301109
232	0xbef5bee0	-0.4799719
233	0x3cbf1221	0.023324074
234	0xbe98c8de	-0.2984075
235	0xbd771bf4	-0.060329393
236	0x3dcc3c8a	0.099724844
237	0x3e1c2051	0.15246703
238	0x3e4bf32e	0.19916984
239	0xbf89777e	-1.0739591
240	0xbafb534a	-0.0019174602
241	0xbe1a1d38	-0.15050209
242	0x3cbb9176	0.02289651
243	0xbd4a4c49	-0.049389157
244	0xbe8299f4	-0.25508082
245	0xbe4e5ec8	-0.20153344
246	0xbd07c9fa	-0.033151604
247	0x3dffcc16	0.12490098
248	0xbc658b8d	-0.014010322
249	0x3e83b586	0.2572443
250	0xbe9356de	-0.28777212
251	0xbd77bb12	-0.06048114
252	0x3db5c574	0.08875552
253	0x3e6e1350	0.23249555
254	0xbdca13a6	-0.09867029
255	0x3d9c1455	0.076210655

lin.weight f4 [2, 64]
0	0xbdad172e	-0.08451687
1	0xbe1e90e0	-0.15484953
2	0x3de507eb	0.11183151
3	0xb9d37d5d	-0.0004033846
4	0x3e16c01c	0.14721721
5	0xbdd95e3f	-0.10613679
6	0x3c4a3505	0.012341742
7	0x3cdb5e4e	0.026778366
8	0x3d169c4f	0.03677016
9	0xbc7a64a6	-0.0152827855
10	0x3c8ed039	0.017433273
11	0x3d853fa1	0.06506277
12	0x3e0c7767	0.13717423
13	0x3eb6ecdb	0.3572758
14	0x3d970a9a	0.07375069
15	0x3ab017c4	0.0013434817
16	0x3ba7d372	0.005121642
17	0xbcdec105	-0.027191648
18	0xbe37893e	-0.17923447
19	0xbbc22acf	-0.0059255133
20	0xbd8f4a70	-0.0699662
21	0xbd8af8d3	-0.06785741
22	0xbd23fdbf	-0.040036913
23	0x3e575a53	0.2103055
24	0xbd5c09f1	-0.05372042
25	0xbda5a342	-0.080877796
26	0x3d938b1f	0.072042696
27	0x3b545b0e	0.0032402906
28	0xbe0c9d8e	-0.13731977
29	0x3de3c120	0.1112082
30	0xbd294303	-0.041323673
31	0x3dced65b	0.10099479
32	0x3ddefd22	0.10888125
33	0x3dd5fbdf	0.10448431
34	0xbd3a80fc	-0.045533165
35	0x3e107722	0.14107946
36	0x3de97586	0.11399369
37	0xbd576061	-0.05258215
38	0xbe861a3a	-0.26191884
39	0x3dfbb8ba	0.12291093
40	0xbde427d0	-0.11140406
41	0xbe91bfce	-0.28466648
42	0x3d896e85	0.06710533
43	0xbd980d67	-0.07424431
44	0xbe046f99	-0.12933196
45	0xbe11ecaa	-0.14250436
46	0xbe8f3743	-0.2797185
47	0xbdfdf561	-0.12400318
48	0xbca5fa31	-0.020260902
49	0xbd3ba7c6	-0.045814298
50	0xbd1ebd07	-0.03875449
51	0xbdea6719	-0.114454456
52	0x3b949512	0.004534372
53	0xbd8e14fc	-0.06937596
54	0xbc0e3cef	-0.00868152
55	0x3c5af86a	0.013364891
56	0xbe0a75cd	-0.135215
57	0x3db556d2	0.0885445
58	0xbd5a5e77	-0.053312745
59	0xbdb03580	-0.08603954
60	0xbb1d7780	-0.0024027526
61	0x3d6ff533	0.05858345
62	0x3bedc43c	0.007256059
63	0x3ddf2939	0.108965345
64	0x3e7f549c	0.2493462
65	0x3c7cdb97	0.015433214
66	0xbd4feb79	-0.050761674
67	0x3c8e42dd	0.017365867
68	0xbd10e80b	-0.035377543
69	0x3b823abd	0.0039742873
70	0xbd8b7c19	-0.06810779
71	0x3c22a025	0.009925877
72	0xbe088c14	-0.13334686
73	0x3a85a64e	0.0010196657
74	0xbde6ed30	-0.11275709
75	0x3ca460fa	0.020065773
76	0x3b62e7f5	0.003462312
77	0xbe7447f8	-0.23855579
78	0xbdd120ed	-0.10211358
79	0x3d853b3c	0.06505439
80	0x3c1659cf	0.0091766855
81	0xbcdd4145	-0.027008662
82	0x3d1824b7	0.03714439
83	0xbbe98680	-0.0071266294
84	0x3e1d407d	0.15356632
85	0xbd3efe24	-0.046629086
86	0x3e46a29f	0.19397973
87	0xbc9e8d1e	-0.0193544
88	0x3d2c2e8b	0.042036574
89	0x3a7559cc	0.0009359389
90	0xbbeddafa	-0.00725877
91	0x3cb8026c	0.022462092
92	0x3d8629cb	0.0655094
93	0x3ccce28c	0.02501037
94	0xbe2cb005	-0.16864021
95	0x3c8085e5	0.015688846
96	0xbde62116	-0.112367794
97	0x3dc12eb0	0.09432733
98	0xbc49721d	-0.012295273
99	0xbd4085f1	-0.047002736
100	0xbe2359b9	-0.15952195
101	0x3e18ebcc	0.149337
102	0x3e52f5eb	0.20601623
103	0xbc7d3d31	-0.015456484
104	0x3e2261fc	0.1585769
105	0x3e117a5a	0.1420683
106	0x3da90444	0.08252767
107	0x3d4c0802	0.049812324
108	0x3db1119d	0.086459376
109	0x3df93af1	0.12169445
110	0x3e5e3c55	0.21702702
111	0xbd019a94	-0.031641558
112	0xbd468cb4	-0.04847403
113	0x3dbd5347	0.092443995
114	0x3ceba381	0.028764488
115	0x3deb51f3	0.1149024
116	0xbdb20ffe	-0.086944565
117	0xbde3acc3	-0.11116936
118	0xbd572e5e	-0.052534454
119	0x3b34b448	0.0027573276
120	0x3e11d060	0.14239645
121	0x3dfdc679	0.12391371
122	0x3dbe715a	0.09298964
123	0xbd332035	-0.043731887
124	0xbc4bb677	-0.01243364
125	0xbd1c9737	-0.038230147
126	0x3cfd6fd6	0.030937117
127	0x3e077006	0.13226327

lin.bias f4 [2]
0	0xbe3700d8	-0.17871416
1	0x3c7cca7a	0.015429134
