GNNModels/checkpoints/GCN_Cora_epochs=300.pt (torch, 94055 bytes, 4 tensors)

conv1.bias f4 [16]
00000000: 3ee0 0b3e 9fca 163d 1ac9 a7bc f133 ec3d
00000010: 9964 2ebd 4d13 463d d5bd 083e 9b2a ce3d
00000020: b5f9 413d 6a8b 193e 8db6 c23d 834a b63d
00000030: 1e15 ca3d 797f 163e 4e0f ef3d 7611 a5bc
0.1365976 0.03681433 -0.020481635 0.115333445 -0.042576406 0.04835825 0.13353665 0.1006672
0.04735728 0.14994588 0.09507475 0.08900931 0.09867309 0.14697064 0.11672841 -0.020149928

conv1.lin.weight f4 [16, 1433]
00000000: a47a 4d3d e6ae af3e c4e7 9abe 1074 16be
00000010: 371a c53f ca9d fe3c c6b7 c8be f2ac 013e
00000020: 91e8 303d d549 f53c d6b9 3f3c 1066 5e3d
00000030: c921 e13d 6c6e 203e 419e 4f3e cad2 633e
00000040: 5509 0f3e 7535 1ebe 564a abbd 5b08 fc3f
00000050: 5d39 7e31 3959 44be f425 6f3d d6d3 0a3d
00000060: 93d3 6abd a2e0 01bf f7bb 2bbd b182 b73e
00000070: 7b41 373e b77b e9bd 5d15 65be 1964 033d
00000080: 0260 9c3c 604d 8bbc a455 673a 88f5 953e
00000090: 6fbe be3d de01 ea3c df2a 68bd 092b b03e
000000a0: d9fa 933e 6f85 123f c4c8 7ebd e759 9b3d
000000b0: 3eae 023e efc8 b8bd 7956 8f3b d624 efbd
000000c0: ea8f 013e 488e e6ba 3bf5 0bbe af5b 273f
000000d0: 5cdc 4c3e e050 db3a b09b 99be 806f 963d
000000e0: 7d93 a8be 7195 f63d 25c2 c33e ed45 013e
000000f0: e0ba 09b2 c042 353e 0394 20be 285a 43bf
00000100: 5c85 243e 864e 21be f2a1 efbc 445a a2bd
00000110: 0add a13c 04f9 5dbd 5c6d 09be 0a9b 1bbd
00000120: 8074 243d 95ec c93d d887 b1bd d011 723e
00000130: a3d3 75be 4cc8 8d3e 2131 8f3e 361c 0fbc
00000140: 8970 173e d23a 8cbe 9a07 2e3e f7c5 22be
00000150: bef2 973d 73e4 993e 89c8 babd 5e18 9ebd
00000160: 5666 8b3e aff6 243e 087b e3bd 7b62 dd3d
00000170: ec69 db3c e243 ae3e 58cc 343e 0a23 d83d
00000180: 43ad b9bd 6dbf 283e 3b08 8fbe 6485 20bf
00000190: d4a5 53bd c74d 2b3d 32ae 893d c057 d13d
000001a0: 7135 263e 909a d3bc bf0a 2ebe 5425 a93d
000001b0: 323b 34bf 01e4 1a3d 36cc 103d e505 5e3d
000001c0: 715c 00be f86f e831 a00b 0abd 8007 0b3a
000001d0: 9fe0 7cbd e722 e4bc 32a9 fbbd 6398 433d
000001e0: 7ebc 2e3e 116b c63d 22b9 02bf db12 143e
000001f0: fefe 883e b164 643e b16d 91be ac04 b93d
00000200: 1740 ee3e 188e 03bc ee6c c03d a112 953e
00000210: b7cd 85be 6578 febc fd7d d73d 4080 003f
00000220: 7329 a83e b7b4 b0bc b171 fc3c 1c17 1b3b
00000230: 9c50 48bf 3ee9 433d 4aef 36be ce55 b53d
00000240: f106 753c 4c04 e32f 7dda 4cbe b513 68be
00000250: 3b76 33bd d3ba b7bc f281 8c3d 24a8 c43e
00000260: 1366 56bc 1d26 2a3e 8707 263e 3612 173e
00000270: b80a 6fbe 3876 753d a388 bbbd f0d3 e0bd
00000280: ed11 913e f08b 34be 1518 783e e0e3 ccbc
00000290: 72d8 bebb 7315 94bc c3d4 203e ee59 f2bd
000002a0: 40e0 533f 1bf2 213d 40e7 163d 9671 543c
000002b0: cbfe ed3d 6f14 07bc 3e10 e5bd b9ab 05bc
000002c0: 32d0 ca3e 3e36 333d 23aa b3bd a04d 56be
000002d0: 976a 913c a953 5fbd 3882 713a 0e0a ea3b
000002e0: db32 18bb f8cc de2f c406 1bbe 0e40 f13e
000002f0: 3cbf c7be c74a 743d 622a 40bd 1be7 80bd
00000300: ca02 d33e ecae 5abd 34cb 40be 1bfb 03bc
00000310: 1b8b d63e 6592 c93d 8550 2a3d f0ff 013d
00000320: ec59 a1bd f882 973c cd2b a1bd 266e a1be
00000330: c78c 263d 3cb0 bebe bf91 253d 3ed0 023e
00000340: 029f a43e 1e5d a23c d833 b83d 4c5a 1fbe
00000350: fd32 523e 8d91 1b3d dbf0 88be 1f0e 90bd
00000360: d944 543d 50ff 813e d73e fa3d 9e79 10be
00000370: cdf2 13be f430 19bd 62ee 033d 6dd7 0e3d
00000380: 68f4 1c3d 9f37 05be b8e7 d13d 4582 353c
00000390: c9ab 70be 5839 063d 446f 1c3e 7d0a 2e3e
000003a0: c0ec 2e3e 6696 59be 8f15 dcbd cce3 183c
000003b0: 6444 9b3d ff0f c2be 5841 4dbd e611 9f3d
000003c0: f1e7 923d ddd3 dfbd d49c bcbc 5076 89bd
000003d0: 2499 253e 7d53 46be c48b b53b 6b6f 44be
000003e0: aa58 cabd a429 303d 05d2 283e 3d72 4c3d
000003f0: d543 93bd 7120 e7bd 9f31 3b3d 114e 71be
0.050165787 0.34313124 -0.30254948 -0.14692712 1.5398625 0.031081099 -0.39202708 0.1266363
0.043190543 0.029942432 0.011702022 0.054296553 0.10992772 0.15667123 0.20275213 0.22248378
0.13968404 -0.1545008 -0.08363788 1.969005 3.6994472e-09 -0.1917466 0.058385804 0.03389343
-0.05733068 -0.5073339 -0.041927304 0.35841897 0.17896073 -0.1140055 -0.2237143 0.032077882
0.019088749 -0.017004669 0.0008824712 0.29288888 0.09313666 0.028565343 -0.05668151 0.34407833
0.2890232 0.57234854 -0.062203184 0.07585507 0.1276178 -0.090227 0.004374322 -0.11676948
0.12652555 -0.001759001 -0.13667767 0.65374273 0.20005935 0.0016732477 -0.30001593 0.07345486
-0.32925025 0.120402224 0.38234058 0.12624331 -8.01694e-09 0.17701244 -0.15681462 -0.7630944
0.16066498 -0.1575261 -0.029252026 -0.07927373 0.01975872 -0.054192558 -0.13420624 -0.037989654
0.040150166 0.098595776 -0.08668488 0.23639607 -0.24006514 0.27691877 0.2796717 -0.008734753
0.14789023 -0.27388626 0.16995087 -0.1589583 0.07419346 0.30057105 -0.0912028 -0.077194914
0.27226514 0.16109727 -0.11107451 0.10809799 0.026783906 0.34036165 0.17656076 0.10553558
-0.0906625 0.16479273 -0.27935967 -0.6270354 -0.051671818 0.04182222 0.06722678 0.10221815
0.16231324 -0.025830537 -0.16996287 0.08259073 -0.70402825 0.037815098 0.035351 0.05420484
-0.12535264 6.764818e-09 -0.033702493 0.0005303547 -0.061737653 -0.027848674 -0.12288131 0.04775275
0.17064092 0.0968839 -0.5106374 0.14460318 0.26757044 0.22304036 -0.28404 0.09034094
0.46533272 -0.008029483 0.09395777 0.29115775 -0.2613351 -0.031063268 0.10522077 0.50195694
0.32844123 -0.021570547 0.030815931 0.0023664897 -0.78248 0.04782986 -0.17864719 0.088542566
0.014955268 4.1294113e-10 -0.20005222 -0.22663768 -0.043813925 -0.022427952 0.068607226 0.3840953
-0.01308586 0.16616102 0.16213809 0.1475304 -0.23343933 0.059927195 -0.09156921 -0.10977924
0.2833399 -0.17631507 0.24227937 -0.025011003 -0.005824142 -0.018076634 0.15706162 -0.11833559
0.82764053 0.03953753 0.03684163 0.012966534 0.116208635 -0.008244618 -0.111847386 -0.008158618
0.39611965 0.0437529 -0.087726854 -0.20928049 0.017751021 -0.054523144 0.00092128245 0.007142312
-0.0023223672 4.0527204e-10 -0.151393 0.47119182 -0.39013088 0.059641626 -0.04691542 -0.0629408
0.41213065 -0.053389475 -0.18827516 -0.008055474 0.41903004 0.09842376 0.041580696 0.03173822
-0.07878479 0.018495068 -0.078696825 -0.3152935 0.0406616 -0.3724383 0.040422197 0.1277475
0.32152563 0.019819792 0.089942634 -0.1556179 0.20527263 0.037980605 -0.26746258 -0.070339434
0.05182347 0.253901 0.12219017 -0.14108893 -0.1444809 -0.0374002 0.03220976 0.034873415
0.03831902 -0.13009499 0.10249275 0.011078422 -0.23503031 0.03276953 0.1527682 0.16996188
0.170825 -0.21248779 -0.107462995 0.009331655 0.07581404 -0.3790283 -0.050111145 0.07767086
0.071731456 -0.109290816 -0.023024 -0.067120194 0.161717 -0.19367786 0.005540343 -0.19183128
-0.098801926 0.04300846 0.16486366 0.049913634 -0.07190672 -0.112854846 0.04570162 -0.23564936

conv2.bias f4 [7]
00000000: 1348 8abf 044c cabe 19d3 9b3f aed3 233f
00000010: 488c 483d b40b e4bd d0e2 1a3e
-1.0803245 -0.3951112 1.2173797 0.6399487 0.048961908 -0.11135045 0.15125585

conv2.lin.weight f4 [7, 16]
00000000: a9ee 1fc0 a497 1640 8c46 0732 9983 e33f
00000010: 7d2f 89b3 dd3f fa3f 0d44 1ac0 6f90 1140
00000020: f7bd e73f 124d 003f 91a6 e03f 12e1 66bf
00000030: db22 0dc0 cf5a 0b40 009d 1640 834b 8132
00000040: e31a af3f e2d4 0c40 8058 6f32 13db 1ac0
00000050: a0c4 8333 20fe 1240 0a1f 1140 0ffd 05c0
00000060: 2057 1d40 8de6 c53f 021d 1a40 899f 03c0
00000070: b420 f4bf 3bdb 97bf 0c3e 11c0 91e3 1133
00000080: 1da1 0cc0 38b9 93bf a8fd 0f33 55e2 20c0
00000090: b282 3b33 d61e 03c0 7a5f 2140 e85f 2a40
000000a0: 7640 fbbf d19c fdbf cb1f 09c0 5ded ee3f
000000b0: c61e da3f a671 07c0 8f47 03c0 e6b3 9432
000000c0: 982e 1540 e2d8 1dc0 1e17 3531 c4ce 1b40
000000d0: 3bf0 a933 3b44 20c0 d310 21c0 164a 2340
000000e0: c230 a3bf 21df 0640 f8d0 15c0 a0ee 1fc0
000000f0: bbff 14c0 0248 793f 7ea2 00c0 96d3 f6b3
00000100: d94b f53f 944f 23c0 78e2 93b2 1948 18c0
00000110: 87fd 0bb4 f17d 03c0 d00b 1440 af22 05c0
00000120: d855 11c0 ddd6 0d40 74a4 143e 1831 bebf
00000130: d413 e4bf f6d1 1a40 4c7b 2040 c8ba 7132
00000140: eb0a 0140 63c9 01c0 f8f2 d432 cf83 d43f
00000150: 7a5f 02b3 65d2 1e40 5425 1cc0 d7bf 11c0
00000160: 8d6a 1640 e174 14c0 147c edbf 1977 0940
00000170: 3440 0b40 aa59 653f 6f57 f1bf 479e a2b2
00000180: b090 10c0 561e 29bf 3364 9ab1 8368 1440
00000190: c4ce 5bb2 228e 0cc0 7dd2 3e3d 40ea 14c0
000001a0: b1de 06c0 9072 febf 9e2a 2440 de5d f03f
000001b0: 7ccd 0b40 204c 0cc0 6222 1640 9097 ea33
-2.4989417 2.3530054 7.874075e-09 1.7774535 -6.388198e-08 1.955074 -2.4104035 2.2744405
1.8104848 0.501176 1.7550832 -0.9018718 -2.2052524 2.1774175 2.3533325 1.5051915e-08
1.368008 2.2004933 1.39317535e-08 -2.4196212 6.135929e-08 2.2967606 2.2675195 -2.0935705
2.4584427 1.5460984 2.4080205 -2.0566123 -1.907248 -1.1863779 -2.269412 3.3967414e-08
-2.1973336 -1.1540899 3.352548e-08 -2.5138142 4.3658197e-08 -2.048757 2.5214524 2.6621037
-1.9629047 -1.9813482 -2.1425655 1.8666188 1.7040641 -2.1163116 -2.0512426 1.7311276e-08
2.3309689 -2.4663625 2.6352107e-09 2.434495 7.9133734e-08 -2.5041645 -2.5166519 2.5513968
-1.2749255 2.1073687 -2.3408794 -2.4989395 -2.3281085 0.973755 -2.0099177 -1.1493755e-07
1.9163772 -2.551732 -1.7216038e-08 -2.3794005 -1.3037616e-07 -2.0545619 2.313221 -2.080242
-2.2708645 2.2162392 0.14515859 -1.4858732 -1.7818551 2.419065 2.5075254 1.4070515e-08
2.0162914 -2.0279167 2.4790538e-08 1.6602725 -3.035482e-08 2.4815915 -2.4397783 -2.277334
2.3502533 -2.3196337 -1.8553491 2.1478941 2.1757936 0.8958994 -1.8854808 -1.8931258e-08
-2.258831 -0.66061914 -4.4933812e-09 2.318879 -1.2794491e-08 -2.196175 0.046587456 -2.3267975
-2.107342 -1.9878712 2.5651011 1.8778646 2.1844168 -2.1921463 2.3458486 1.0924043e-07
