GNNModels/checkpoints/GCN_CiteSeer_epochs=300.pt (torch, 239359 bytes, 4 tensors)

conv1.bias f4 [16]
000000 b6 16 cb 3d de 27 a1 3d f2 07 a3 3d 13 80 ab 3d
       0.09916441 0.07868932 0.079605 0.083740376
000010 d2 76 b7 3d 70 d8 86 3d 8b 4d ae 3d 5b 00 99 3d
       0.0895821 0.06584251 0.08510884 0.07470771
000020 85 a3 aa 3d 07 69 cc bc 66 74 83 3d 38 8d 97 3d
       0.0833197 -0.024952425 0.064186856 0.07399982
000030 cd f5 91 3d c6 80 eb 3d 1f 1a 80 3d 2a db a0 3d
       0.07126961 0.11499171 0.06254982 0.07854302

conv1.lin.weight f4 [16, 3703]
000000 96 05 1e 3e 82 5f a4 bd 64 f9 7c bc f8 7b 97 3d
       0.15431818 -0.08026029 -0.015440319 0.07396692
000010 96 82 4f bd b9 06 a7 3d 9c 7f 8a 3a 8c 76 d5 af
       -0.050661646 0.08155579 0.0010566595 -3.8828707e-10
000020 96 91 be b1 2a 05 b0 3d 00 25 bd 2e d2 ef 20 3e
       -5.546279e-09 0.08594735 8.6012975e-11 0.15716484
000030 4c 3a f9 3b 91 ed d7 3e 4d 50 9a 3c 42 ec ba 3b
       0.0076058265 0.42173436 0.018837119 0.0057044337
000040 2f 88 60 3e 84 12 26 bc 25 0e a4 be 6c 86 5a 3d
       0.2192695 -0.01013625 -0.3204204 0.05335085
000050 56 44 9c bc 06 e6 64 bb d4 42 0b 3f cd c2 8c bc
       -0.019075554 -0.0034927144 0.54398847 -0.017182732
000060 63 b2 89 3d 34 4c b4 3b 02 6a 03 bd 57 e8 97 bd
       0.06723478 0.005502248 -0.03208352 -0.07417362
000070 06 5d 55 3d e2 28 54 3e 0c ad 71 3d 78 e4 06 bc
       0.052090667 0.2071872 0.05900292 -0.008233182
000080 b8 2b 0c 3d 6c 17 ad bc 32 14 04 be 1f ef 1b be
       0.03422138 -0.021129332 -0.12898329 -0.15227936
000090 c0 4d 6a 3e 5b bd 25 3e e8 bc 3c 3e 5d ce 84 3d
       0.22881222 0.16185515 0.18431437 0.06484673
0000a0 02 ba 81 3b e3 55 a3 bd 19 bd 28 bd 38 d7 13 3c
       0.0039589414 -0.07975366 -0.041195963 0.00902348
0000b0 47 ff 8d be 50 92 43 3e 8b 0d 69 3e f7 92 86 bb
       -0.27733824 0.19098783 0.22759072 -0.004106875
0000c0 6f ea 4b be e3 4d ab bc d2 54 a2 b0 19 cb 84 3d
       -0.19913648 -0.020911163 -1.1811159e-09 0.0648405
0000d0 c1 b7 9b bc a9 e8 8b 3e 09 7e 0e 3d 62 1b 28 be
       -0.01900852 0.27325943 0.034788165 -0.16416696
0000e0 e0 7f 90 b9 84 f6 8a be 9d 66 29 bc 9a e0 b7 bc
       -0.00027561095 -0.27141201 -0.010339406 -0.022445966
0000f0 cf e3 b9 3c c3 27 06 be f6 34 c3 b0 1b 80 32 3b
       0.022691635 -0.13101105 -1.420317e-09 0.0027237001
000100 3c fe 0a 39 94 56 1c 40 42 46 4b 3b e8 37 9a 3d
       0.00013255415 2.4427843 0.0031017219 0.075301945
000110 4e ca bd 3b b3 ee 31 3e 13 11 7e 3c f3 71 f5 3d
       0.005791939 0.17376213 0.0155070005 0.11984625
000120 72 f1 23 be e6 2a 30 be 80 e4 ea 3b e2 29 45 be
       -0.16010073 -0.17203864 0.0071683526 -0.19254258
000130 8e 09 67 be 07 04 12 3e 39 f8 eb 3d 49 ab ac 31
       -0.22562239 0.14259349 0.11521954 5.0253317e-09
000140 34 a3 b5 3b 41 3c fa 3c 56 c1 82 bd 28 24 9c bd
       0.005543137 0.03054631 -0.06384532 -0.07624084
000150 2e c0 3a 3d 62 9d 98 bd d9 8f 45 bd 58 17 52 be
       0.045593433 -0.074518934 -0.048232887 -0.20516717
000160 c7 01 3c 31 72 cb c8 ba d6 82 a6 bd c2 85 75 bd
       2.735861e-09 -0.001531942 -0.08130424 -0.059942015
000170 82 ff 35 bc e4 28 43 3e c5 4f 3c bd 48 87 b9 3d
       -0.011108281 0.19058567 -0.04597451 0.09059006
000180 6f d8 fb 3c 62 97 a5 bb 5c 60 86 3d 61 62 8b b1
       0.030742852 -0.0050534466 0.06561348 -4.056617e-09
000190 8b 94 f3 30 e8 df 6a 3d 47 f0 51 bf 88 26 99 3b
       1.7722795e-09 0.05734244 -0.8200726 0.0046737827
0001a0 e2 be f8 3b 49 79 22 bc f3 45 a9 3c b0 55 df b0
       0.0075911144 -0.009916612 0.020663237 -1.6249739e-09
0001b0 03 e7 fc bc 12 7c 91 3d e4 aa 6d 3e e7 bf 55 3d
       -0.030871874 0.07103743 0.23209721 0.052184965
0001c0 d4 48 33 3e b5 70 3a 3e 3d 9c 01 be 14 7e f6 af
       0.1750825 0.18207057 -0.12657256 -4.4836723e-10
0001d0 90 6d c6 30 70 bf e0 2f 76 a6 0c ba a7 e3 46 bd
       1.4437536e-09 4.0881387e-10 -0.0005365381 -0.04855695
0001e0 80 c9 df 39 06 e6 95 bb d3 88 0c 3e 44 ab 05 3c
       0.00042684004 -0.00457454 0.1372407 0.008158509
0001f0 a7 ff 55 bc fd fa 9c 3d 98 ac 4d 31 e6 36 4c bc
       -0.013061441 0.0766506 2.9929534e-09 -0.012464261
000200 45 28 5d bd 72 08 df 3c d5 c8 88 3d 85 17 93 be
       -0.053993482 0.027225707 0.06678931 -0.2872888
000210 76 67 82 bd 7a 98 84 bd b7 de 66 3d 6e fe 4c 3e
       -0.0636739 -0.06474395 0.05636474 0.20018932
000220 ff 01 a0 bc 5c 5d d7 bb cb 7b 93 3d 6e f2 2d 3d
       -0.019532202 -0.0065724086 0.07201346 0.042467527
000230 5b 73 93 bd 30 84 76 3d 68 2b 62 bd a5 bf 62 bd
       -0.07199737 0.060184658 -0.055217177 -0.055358548
000240 0f 50 50 31 a6 36 8c 30 7f 71 e7 3d 58 f6 a4 3c
       3.0313492e-09 1.0201873e-09 0.113009445 0.020136997
000250 31 5f 3f be 4a 22 53 3c fe 97 7c 3c 5b ab 11 bc
       -0.18688656 0.012886593 0.015417097 -0.008890952
000260 0c 61 01 b1 0b 7b c3 30 d0 6d 86 3c d9 28 d6 bc
       -1.8827135e-09 1.4223088e-09 0.016409785 -0.026142525
000270 1b 96 07 bd d3 fd 4f 31 74 a5 71 3c 46 b2 f2 3c
       -0.033102136 3.0266747e-09 0.01474892 0.029626023
000280 c1 4a de 3c ce 38 1b 3b 5d 1c aa bd 97 1c 9d bd
       0.027135255 0.0023684981 -0.08306191 -0.07671469
000290 38 ae ac 3d 6e 7c 9f bc b2 fa 09 bf 6e 64 a8 3b
       0.08431667 -0.019468512 -0.53898156 0.0051389253
0002a0 a4 b7 a0 3c 37 c0 bc 3e 2f bd 8f bd cd 52 82 be
       0.019618817 0.36865398 -0.07018506 -0.25453797
0002b0 aa b0 3e 3d df f9 28 3e 00 37 64 b7 9c 07 50 bd
       0.0465552 0.16501568 -1.3602665e-05 -0.050788507
0002c0 4b 19 ed bc 22 04 99 3e 7f 14 30 3e 1b 0d d2 bc
       -0.028942725 0.29885966 0.17195319 -0.025641015
0002d0 7e 92 9a 30 56 fe 23 b0 90 23 2a 3a 26 f1 50 b0
       1.124661e-09 -5.966049e-10 0.00064902846 -7.601265e-10
0002e0 41 5e 0d 3e 23 66 05 bb a3 0d 59 3e fb 1d 55 3d
       0.13805486 -0.0020355068 0.21196608 0.052030545
0002f0 9e 06 0c bc 1a 5b 1b 3e 60 4b a2 3a 13 1e 10 31
       -0.0085465 0.15171471 0.0012382083 2.0971853e-09
000300 08 b2 3d bc c4 b1 b1 bd 7b 6c 3e bd 21 7e f7 bc
       -0.0115780905 -0.08676484 -0.046490174 -0.03021151
000310 6e 53 d6 3d 27 a7 db be ba 28 df ba 14 41 53 bd
       0.10465132 -0.42900965 -0.0017025687 -0.051575735
000320 66 f9 75 be d0 db b6 bd 2a e4 91 bc a6 53 a8 bb
       -0.24020919 -0.08928645 -0.017808992 -0.005136925
000330 2d 68 cd bc e9 72 4b bb f6 61 c2 3d f8 42 1a 3c
       -0.025074089 -0.0031043834 0.09491341 0.009415381
000340 51 42 ba bc d4 e8 57 3d 7b 02 15 be cf 3b 46 3b
       -0.0227367 0.052712277 -0.14551727 0.003024805
000350 7d aa 8b be e9 1b 8c 3e e7 c3 6a 3d 5a 67 5f 3e
       -0.2727851 0.27365044 0.057315733 0.21816769
000360 ee 5d 81 bc 72 64 74 3d 29 fc ae 3c 06 5f fe 3d
       -0.01579186 0.059666105 0.021360474 0.12420468
000370 a2 91 8a 3d 8a e5 02 3d 46 9c ce bd 9c ca 17 3d
       0.067660585 0.031957187 -0.100884005 0.037058458
000380 a2 12 10 be e1 46 65 3d d1 40 ab 3e 9f 28 31 3d
       -0.14069608 0.0559758 0.33447888 0.04325163
000390 09 38 51 3d d7 a3 39 be 78 25 14 3e a1 52 48 3d
       0.05107883 -0.18128906 0.14467418 0.048906926
0003a0 f5 3c 52 3e a8 d1 2b 3d 30 56 22 39 89 08 48 3d
       0.20531066 0.04194799 0.00015481631 0.048836265
0003b0 13 26 4a bd 9b b5 24 3e 9e 2a ef bc 31 c3 ba bd
       -0.049352717 0.16084902 -0.029195126 -0.09119261
0003c0 fe bc 8c 3b a2 89 f6 bd 82 11 5a 3d f8 d8 83 bc
       0.0042949906 -0.1203797 0.053239353 -0.01609467
0003d0 a0 75 f6 bd 2e ec bd be 44 f4 2a 3d 84 29 9d be
       -0.12034154 -0.37094253 0.041736856 -0.30695736
0003e0 24 5d f4 bc 4a e6 3c 3e 2b 43 9f 3d b6 1c 99 bd
       -0.02982957 0.18447223 0.07776483 -0.07476179
0003f0 8c 9d c9 3b 49 7b 70 3e 70 f5 85 3d 59 31 b5 3c
       0.0061528143 0.2348453 0.06540954 0.022118257

conv2.bias f4 [6]
000000 37 21 19 bf cb 6a b6 be d3 48 65 3f 34 47 2c bd
       -0.59816307 -0.35628352 0.89564246 -0.042060092
000010 b1 ab 11 bf 29 c5 e9 3e
       -0.56902605 0.45658234

conv2.lin.weight f4 [6, 16]
000000 76 11 02 c0 58 77 12 40 ef ac 1b 40 9b 3d 27 c0
       -2.0323157 2.2885342 2.43243 -2.613135
000010 3c c3 1f c0 67 b8 00 40 de c6 18 40 c5 97 e6 bf
       -2.4962912 2.011255 2.387138 -1.8015066
000020 32 5c 11 40 24 98 aa 32 61 9d 0f 40 12 7c 15 40
       2.2712522 1.985979e-08 2.2439806 2.3356977
000030 78 1d c6 bf 21 48 29 c0 03 3e e6 bf b7 d6 f7 3f
       -1.5477743 -2.6450274 -1.7987674 1.9362401
000040 a0 0a 0f c0 09 9c 1d c0 95 03 1b 40 cc ac 26 40
       -2.2350235 -2.4626486 2.4220936 2.6042967
000050 95 57 18 40 a9 40 f1 3f 05 fe 21 c0 83 94 02 c0
       2.3803456 1.8847858 -2.5311291 -2.0403144
000060 61 45 c9 3f 32 b8 9d b3 e5 be 2a c0 5e 5d 13 40
       1.5724298 -7.344387e-08 -2.6679013 2.3025737
000070 7f 73 e5 bf ad fd 12 40 d1 34 02 c0 c7 74 e7 3f
       -1.7925872 2.2967331 -2.0344737 1.8082513
000080 37 b1 1c c0 51 25 11 c0 a0 3e 08 c0 50 0c 1e c0
       -2.4483163 -2.2679026 -2.1288223 -2.4695015
000090 4a e9 2b 40 c6 50 10 40 e3 34 0c 40 c0 af 05 c0
       2.6861138 2.25493 2.190728 -2.088852
0000a0 a1 56 20 c0 5c f3 43 b3 5d ba 10 40 57 17 2d c0
       -2.5052874 -4.562331e-08 2.2613747 -2.7045496
0000b0 38 88 05 c0 ca b8 e7 3f ae 04 df bf d2 02 1c c0
       -2.0864391 1.8103268 -1.7423303 -2.4376721
0000c0 c3 f8 19 40 cb 79 11 c0 07 d7 fc bf bf 62 1d bf
       2.4058082 -2.2730587 -1.9753121 -0.614788
0000d0 95 ff 0d c0 26 25 13 c0 f5 c8 16 40 37 bb 04 40
       -2.2187245 -2.2991424 2.3560154 2.0739267
0000e0 73 33 b1 bf 30 b4 9c b3 10 31 f0 bf 7a 0c 1e 40
       -1.3843826 -7.297092e-08 -1.8764973 2.4695115
0000f0 6f 16 14 40 d1 fc 0d 40 d1 06 08 c0 ce e7 d5 bf
       2.3138692 2.2185557 -2.125416 -1.6711366
000100 88 66 13 40 78 ff e7 3f 0f 09 05 c0 e3 1e 11 40
       2.303133 1.8124838 -2.078678 2.2675102
000110 f8 c0 00 40 b8 f2 13 c0 5b d6 da bf 93 78 fc bf
       2.0117779 -2.3116894 -1.7096666 -1.9724296
000120 32 23 0c 40 c4 bf a2 b2 95 99 15 40 b2 c3 05 c0
       2.1896482 -1.8946487e-08 2.337499 -2.0900693
000130 54 48 f9 bf f2 20 0d c0 d4 89 06 40 3f 8f ea 3f
       -1.9475198 -2.2051358 2.1021624 1.8324965
000140 20 79 d5 3e 98 ba 16 40 d8 44 2a 40 e4 2b 10 c0
       0.41693974 2.3551388 2.660452 -2.2526789
000150 d7 21 ea bf a7 72 d8 bf 92 b0 01 c0 fb 13 0b 40
       -1.8291577 -1.6909989 -2.026402 2.1730945
000160 69 25 0a c0 fd d8 2a 33 2c 0b 07 c0 f1 9b 0d c0
       -2.1585333 3.977856e-08 -2.1100569 -2.212643
000170 be b3 0c 40 18 ef 0e c0 66 fe 08 40 92 c1 0b c0
       2.1984706 -2.2333431 2.1405272 -2.1836896
