GNNModels/checkpoints/GCN_3L_PROTEINS_epochs=300.pt (torch, 37965 bytes, 8 tensors)

conv1.bias f4 [64]
000000 8c 80 d9 bd 47 59 01 be 41 02 a7 bd 00 00 00 00
       -0.106202215 -0.12631713 -0.08154727 0.0
000010 2c fb 75 bd 39 a4 07 be 00 00 00 00 00 00 00 00
       -0.06005399 -0.1324624 0.0 0.0
000020 9d 8b 06 be 00 00 00 00 4f ad ad bd 9a 9b f5 3d
       -0.13139196 0.0 -0.084803216 0.11992569
000030 5a 61 a3 bd 6d 04 69 be 4d 23 27 bd 5d f2 1d 3e
       -0.07977553 -0.22755595 -0.04080515 0.15424486
000040 c2 02 7f 3e 00 00 00 00 e6 a3 8d bd 00 00 00 00
       0.24903396 0.0 -0.06916027 0.0
000050 67 ed 5f be dc 3b 97 bd f7 43 6a bd 0f 04 fa bd
       -0.21867906 -0.07384464 -0.057193723 -0.12207805
000060 43 97 be bd ee 58 0d be 4d 70 94 bb 04 63 de bd
       -0.09306195 -0.13803455 -0.004529989 -0.108587295
000070 ba 70 0e 3e 00 00 00 00 00 00 00 00 ce d4 54 3d
       0.1391019 0.0 0.0 0.05196076
000080 62 b7 82 3d d9 b8 c6 3d a9 6c d1 bd a3 a5 b3 bd
       0.06382634 0.09703226 -0.102258034 -0.08771827
000090 6d c9 23 be 72 85 30 be 02 2b 1d be ce 67 fb bd
       -0.15994807 -0.17238405 -0.15348437 -0.122756585
0000a0 f1 56 77 bd 00 00 00 00 a5 25 d5 bd 71 c6 15 be
       -0.06038565 0.0 -0.10407571 -0.1462648
0000b0 89 c2 65 be 19 32 24 be 53 a2 9a be c4 96 34 be
       -0.2243749 -0.16034736 -0.3020197 -0.17635638
0000c0 2e 4a 43 bd 22 8b 85 3e 00 00 00 00 24 ae 09 be
       -0.047678165 0.26082712 0.0 -0.13445336
0000d0 e3 df b0 bd 76 f5 07 3c 07 44 f2 bb 00 cc 3f 3e
       -0.08636453 0.008298269 -0.0073933634 0.18730164
0000e0 19 98 71 bd 75 51 18 be 41 a0 a9 bd 45 61 27 3e
       -0.058982942 -0.14874823 -0.08282519 0.16345699
0000f0 a9 b1 1d be 60 f3 b9 bd 4f d4 ae bd 72 6e d9 bd
       -0.15399803 -0.09079623 -0.085365884 -0.10616769

conv1.lin.weight f4 [64, 3]
000000 d0 c7 6c bf 54 be cd bc 74 12 2e 3e 86 17 f8 3d
       -0.9249239 -0.02511517 0.16999227 0.12113862
000010 7a 1c bf 3d c5 27 ae 3c 2d de 3d 3f 60 a2 29 bf
       0.09331603 0.021259198 0.7416714 -0.6626339
000020 c3 f4 5d 3e 90 4d e2 bc b0 f6 83 bd 20 f6 68 bc
       0.216754 -0.027624875 -0.06443536 -0.014218837
000030 00 a3 58 bd 1c 62 2c be ee cf 82 be 24 83 fb bf
       -0.052889824 -0.16834301 -0.25549263 -1.9649396
000040 01 75 f3 be e0 de 11 3f ae 68 89 be ec 9b 89 be
       -0.47550204 0.56980705 -0.26837677 -0.2687677
000050 50 52 8c bc a2 e5 ea bd 68 cb f9 bd ff 2c 94 be
       -0.017129093 -0.1146958 -0.12197 -0.2894058
000060 c9 71 83 3e 91 da 48 be e9 61 1f 3d 8c c9 44 be
       0.2567275 -0.19614626 0.038911734 -0.19217509
000070 f6 37 8b be 00 7c 7e bb 9b d1 fe 3c 36 89 6b 3d
       -0.27191132 -0.0038831234 0.031105807 0.0575039
000080 47 08 36 bd 9e b3 ab 3e 82 3f 2e c0 e7 77 0c c0
       -0.044441488 0.33535475 -2.7226262 -2.1948183
000090 38 65 5b be 08 43 3d be 6a 7f ce 3c 2b 25 01 3e
       -0.2142533 -0.18482602 0.02520724 0.12611835
0000a0 2b 2f 5c 3e 15 e2 59 be 25 88 a8 3e f1 55 1c bf
       0.21502368 -0.2127765 0.3291637 -0.61068636
0000b0 88 18 ec bd 47 9a a3 3d 3d d6 00 c0 e6 69 7f 3e
       -0.115281165 0.079884104 -2.013076 0.24942741
0000c0 2d eb 86 be 4f 72 4d 3f c8 bd 70 be eb 5b 87 be
       -0.263513 0.80252546 -0.23509896 -0.26437315
0000d0 80 b8 84 bc 22 7a 58 be 39 19 09 be 7b e3 ee 3d
       -0.016201258 -0.2114034 -0.13388528 0.11664482
0000e0 97 0a f7 bd 70 37 0b bd 24 3b 8e be a2 23 c8 bd
       -0.12062567 -0.033988416 -0.27779496 -0.097724214
0000f0 63 d0 54 bf 5b ca e4 3d 9f 23 69 3e e4 47 49 bd
       -0.8313047 0.11171409 0.22767495 -0.049140826
000100 db ff 45 3e 9e 1f 19 3d 19 13 d7 be 95 83 38 bf
       0.19335882 0.037383668 -0.42006758 -0.7207578
000110 bd 1b 9f 3f 21 1b 05 c0 e1 5b de be d3 bb 1c 3f
       1.243034 -2.0797808 -0.43429473 0.61224097
000120 60 d2 04 3f de da d2 be 2d 9e ee 3d c3 9a f5 bc
       0.51883507 -0.41182607 0.116512634 -0.029981023
000130 e5 8e 17 3e b1 2c 6e 3c 0c 52 96 be e2 61 4c bf
       0.14800604 0.014537022 -0.29359472 -0.7983686
000140 c7 09 82 3f 22 b4 ff 3d bc ca 8a 3b a8 4d f6 bd
       1.0159234 0.124855295 0.0042355936 -0.120265305
000150 dc d3 03 bf 55 ee 21 3f 5c 49 ab be a0 87 87 be
       -0.51495147 0.6325429 -0.33454406 -0.2647066
000160 d8 c8 82 be 7e e8 b2 bd 3c 40 70 bd 10 76 69 be
       -0.25543857 -0.087357506 -0.05865501 -0.22798944
000170 7e 7c e9 bd 80 c0 ad bd 13 de c1 3e 45 bd 44 bd
       -0.11400698 -0.08483982 0.37864742 -0.048032064
000180 b8 79 d2 bd 3a d9 32 3f 71 db 78 bd 22 22 09 3e
       -0.10277122 0.6986271 -0.06075615 0.13391927
000190 6d bb d8 bf 9c 35 83 3e 9a 10 80 3d d4 2d d4 3c
       -1.6932198 0.25626838 0.062531665 0.025900759
0001a0 78 84 5d be 1e d6 0c 3f 8f 06 ec be ad ef 50 3d
       -0.21632564 0.55014217 -0.46098754 0.051009823
0001b0 eb 3f 67 3e 70 de 89 bd 47 02 c5 bd 73 fa f4 3d
       0.22582977 -0.0673188 -0.09619575 0.11961832
0001c0 65 dc 4c be c8 56 21 be c8 4a d9 bd 37 d4 1f 3e
       -0.20005949 -0.1575576 -0.106099665 0.15608297
0001d0 7d d8 9b 3d 46 44 8f be 39 87 02 bf a0 87 7c 3f
       0.07609651 -0.27981776 -0.50987583 0.9864445
0001e0 e6 13 bd 3d 7f 8f 64 bf f8 79 45 bf 1a 57 b1 bd
       0.09232311 -0.8928146 -0.77139235 -0.086591914
0001f0 00 f1 96 bd 00 cf f6 bb 4c 47 6a be c5 2e 26 3e
       -0.07370186 -0.0075320005 -0.2287876 0.16228779
000200 c1 d6 d9 be fd 12 0e 3f c0 c1 a9 be fd f9 62 3e
       -0.42546657 0.55497724 -0.33155632 0.22165675
000210 f0 41 26 bd f6 fe c1 3d fc 03 86 be 3a 98 17 3d
       -0.040590227 0.09472458 -0.26174915 0.03701041
000220 31 a4 c6 bd dd c5 ea 3d 70 ff 13 3e 9f fb ec bd
       -0.09699286 0.11463521 0.1445291 -0.115714304
000230 e8 e1 92 3e 00 46 08 3f 5f 57 26 bf 24 75 88 3e
       0.28687978 0.5323181 -0.6497707 0.2665187
000240 d4 85 73 bb e3 58 5c be 1c d1 4f 3a 77 69 09 be
       -0.0037158625 -0.21518283 0.0007927583 -0.13419138
000250 b4 7c 32 3f 3c fa f8 bc 8c 7a 39 be b6 84 32 be
       0.6972153 -0.030392759 -0.18113154 -0.17433438
000260 ff c1 22 be 9c 3e b8 3e 88 63 3a be 1f 50 08 3e
       -0.15894316 0.35985267 -0.1820203 0.13311814
000270 38 0f 27 be 19 5f 8f bc d3 42 94 be e2 c9 e6 3e
       -0.16314399 -0.0175014 -0.28957233 0.450759
000280 95 2a 86 bf 43 2f 09 3e fc 3a 48 be 73 96 9d 3e
       -1.0481745 0.13396935 -0.19553751 0.30778846
000290 65 80 03 3d f7 bd 9e 3e 85 47 46 c0 9e ae e8 3e
       0.03210487 0.31004307 -3.0981152 0.45445722
0002a0 4c 5f 57 be 3e 88 30 3d 81 82 3f be e2 53 d7 bc
       -0.21032447 0.04309868 -0.18702127 -0.026285116
0002b0 e3 96 41 3d a0 87 b5 bd d5 0a 1d c0 91 b7 71 bd
       0.047263037 -0.08863759 -2.4537861 -0.059012953
0002c0 d0 0c 2d 3f e5 b6 74 3e c7 40 20 c0 f5 46 b8 3e
       0.67597675 0.23897894 -2.5039537 0.35991636
0002d0 40 fa 7b 3d f1 a6 d1 3d 92 e5 53 3d 2b 72 54 3d
       0.061517954 0.1023692 0.051732607 0.05186669
0002e0 3e 36 2a be 23 48 e6 bd f3 10 0b 3d 8a 72 a9 bd
       -0.16622254 -0.11244228 0.03395171 -0.082738
0002f0 2f a9 26 be ec 77 cb bd 04 cf 60 be 77 c9 cb 3d
       -0.16275476 -0.09934983 -0.2195397 0.09950536

conv2.bias f4 [64]
000000 80 7e 23 3d 1a d4 90 be 6b 51 8c bd 70 68 bd bd
       0.03991556 -0.2828682 -0.06851467 -0.092484355
000010 a9 3b 02 bd d4 7b d6 bd 1f dc 6e bd 2f c7 21 bd
       -0.031795178 -0.10472837 -0.058315393 -0.039496597
000020 16 c9 a2 bd b9 96 de bd bf fc d3 bd 86 c8 06 bd
       -0.0794851 -0.10868592 -0.10350942 -0.032906078
000030 ec 2a 2a bd 9e 15 f3 bd a4 4d 01 3c 30 d0 dd bd
       -0.04154484 -0.118693575 0.007892046 -0.10830724
000040 7a a0 3c be ac 8b c2 39 b1 c9 81 bd 1a 01 95 bd
       -0.18420592 0.00037106627 -0.06337298 -0.07275601
000050 e5 d5 64 3e 00 00 00 00 67 e4 1a be 75 d5 7f ba
       0.2234722 0.0 -0.15126191 -0.00097592856
000060 49 3b 1d 3d ae 0b 55 be ee 93 1e bd 79 c1 c5 3c
       0.038386617 -0.20805237 -0.038715295 0.024140107
000070 b8 51 ab bd 2e 95 80 bc 13 da 19 bd 71 8c 02 be
       -0.08365196 -0.015696134 -0.037561487 -0.12748887
000080 b1 db b9 bd c1 6d 19 bd 9f 36 c3 bc dc fb 75 bd
       -0.09075106 -0.037458185 -0.023829756 -0.060054645
000090 49 00 59 bc e6 93 1f be ed bb bb bc 0d f9 75 bd
       -0.013244697 -0.15583763 -0.022916758 -0.060051966
0000a0 50 95 a6 bd 6e 3a da bd 4d e0 07 bd 7e 24 a8 bd
       -0.08133948 -0.10655676 -0.033172894 -0.08210085
0000b0 6b 0f 67 3c ae d1 cb be ba 1c 00 be c2 d2 09 be
       0.014102797 -0.3980841 -0.12510958 -0.13459304
0000c0 bc 4c fe bc 39 4d 49 bd 62 35 36 bc 96 fa 75 bd
       -0.03104245 -0.04914591 -0.011121126 -0.06005343
0000d0 7c 61 9a bc 7d b3 68 be e3 32 a3 be 68 24 ce bd
       -0.018845312 -0.2272472 -0.3187476 -0.10065538
0000e0 5a 0d 63 bd 7f 39 f0 3b c4 9b ea bd e8 01 86 bd
       -0.055432655 0.007331073 -0.11455491 -0.06543332
0000f0 e5 0a 41 3e 89 2f ba be ca b3 4e bd 4c 7e a1 bd
       0.18851812 -0.3636439 -0.05046443 -0.07885417

conv2.lin.weight f4 [64, 64]
000000 43 ac c5 bd 1f a7 93 3d 94 b1 b8 3e 22 78 27 be
       -0.09651997 0.0720961 0.3607298 -0.16354421
000010 ed 24 74 bd cc 45 b0 3f 0d 14 51 be a5 72 be bd
       -0.059605528 1.37713 -0.20417805 -0.092992105
000020 f6 5f 30 3e 93 2a cb bd a1 c4 e9 bb e9 13 67 bf
       0.17224106 -0.0992023 -0.0071340357 -0.90264755
000030 c5 8d 6d 3c 4d c2 f5 3c 2d 40 20 3f 2b f9 2d bf
       0.0144991325 0.029999876 0.62597924 -0.67958325
000040 9f 5d 89 be b8 33 9a 3c 5d 71 f3 3d 04 b7 96 bd
       -0.2682924 0.01882349 0.11886857 -0.07359126
000050 82 a1 1c be da 9c 7f bd f3 2f 4e 3f f3 24 af 3f
       -0.15295985 -0.062405445 0.80541915 1.3683151
000060 90 9c b8 3d 91 1d 09 3e 9b fd 76 3e dd 5d 0d 3d
       0.09014237 0.13390185 0.2412018 0.034513343
000070 35 26 8a be 66 43 d7 3d a0 44 a4 bd 1d 94 13 be
       -0.26982275 0.10510902 -0.08020902 -0.1441197
000080 c5 83 30 bc 84 3c fd be 68 74 95 bd 0f 64 db 3e
       -0.010773604 -0.49460232 -0.07297593 0.42849776
000090 62 73 ec 3d 5d e3 02 3e 08 68 49 3e ec ed 99 3e
       0.11545445 0.12782045 0.19668591 0.30064332
0000a0 2a b2 05 bf 80 20 7b 3b 96 7c 10 bd 32 f6 37 3e
       -0.5222498 0.0038318932 -0.035275064 0.1796501
0000b0 9a 9b 1f bd 8d 24 a6 bd 4f c3 4a 3e f0 2d 1c 3f
       -0.038966753 -0.0811244 0.19801067 0.61007595
0000c0 43 89 22 3c 7c fd 85 be 11 2d be bd ec 43 03 3e
       0.009920421 -0.26169956 -0.092859395 0.12818879
0000d0 3c aa d0 3c ec d3 f5 3e 5c 0d 35 3c 2a e8 66 bf
       0.0254718 0.48013246 0.011050548 -0.90198004
0000e0 e7 38 fb bd 60 33 9c bc a5 55 29 40 75 dc 3f bf
       -0.12266713 -0.019067466 2.6458523 -0.74945766
0000f0 ed ab 74 3d 56 43 2b bc c3 cb 29 be d9 b4 8a 3d
       0.059734274 -0.010453066 -0.16581635 0.06772775
000100 1f 36 5e be 0d 20 cf be 25 ef 90 be 85 b3 57 3e
       -0.21700333 -0.4045414 -0.28307453 0.21064575
000110 cf 85 14 be 71 53 25 3e 8e 62 2c be e4 7c c1 bd
       -0.14504169 0.16145112 -0.1683447 -0.09447649
000120 39 03 24 be ca 42 cc 3d 05 31 a2 3d 70 74 a0 bc
       -0.16016854 0.099736765 0.07919506 -0.019586772
000130 b9 6b 13 3e 2d 1a 7a be c8 19 8c 3d f3 1a 7a be
       0.14396562 -0.24424048 0.06840855 -0.24424343
000140 d0 dc 70 bd 4e 3f ce 3d 76 81 2a be c8 92 68 bd
       -0.058804333 0.10070668 -0.16650948 -0.056780607
000150 96 72 9e bd 12 0c 90 be 74 63 a9 3d ed fb 27 bd
       -0.07736699 -0.2813421 0.08270922 -0.04101174
000160 02 80 91 bc 6e 45 07 bb 6a 10 90 be 8f b8 f1 bd
       -0.017761234 -0.0020640749 -0.28137523 -0.1180278
000170 45 49 5b be ac 2a 02 be 20 75 26 bc a2 35 82 be
       -0.21414669 -0.1271159 -0.010159761 -0.25431544
000180 f4 1a d6 bd 73 38 72 be 99 84 14 be 5f e2 89 bd
       -0.1045436 -0.23654346 -0.14503707 -0.0673263
000190 a3 cf 3e be dd 40 df 3c f6 20 ca be 3e a2 49 be
       -0.18633895 0.027252609 -0.39478272 -0.19690797
0001a0 06 4f 24 be f4 5b 23 bd 64 5e d1 bd 61 6b a9 3d
       -0.1604577 -0.039882615 -0.10223082 0.08272434
0001b0 6c 98 3a be d4 d6 21 be ae 44 55 be 03 db e5 3d
       -0.18222207 -0.15804607 -0.2082698 0.11223414
0001c0 10 cb 45 bd 9c 3b b9 bd e2 c8 22 be e4 8a 97 be
       -0.04828936 -0.09044573 -0.15896943 -0.29598153
0001d0 96 70 21 be eb 24 4f bd 15 af d8 be 27 41 bc 3d
       -0.15765604 -0.050572317 -0.42321077 0.09192114
0001e0 93 9c 49 be 3f e6 4e 3e d9 d2 1f be c2 1b 34 bd
       -0.19688635 0.2020502 -0.15607776 -0.043971784
0001f0 60 bb 2d be a8 e1 91 bd 5b 9c 25 be 60 cc 5e bd
       -0.16966009 -0.07123119 -0.16172926 -0.054394126
000200 80 86 cb 3d 57 89 ce 3d 91 0d 5c be 80 37 15 bb
       0.09937763 0.10084789 -0.2148955 -0.0022768676
000210 ac bd 53 3d 54 5a 49 3d 11 54 01 3e ae 8b a5 3d
       0.051694557 0.04915841 0.12629725 0.080832824
000220 99 8d a6 3d 62 ea 95 3d e2 ef ab bc 5f ad c3 3a
       0.08132476 0.073200956 -0.020988408 0.0014928988
000230 76 a8 a0 3d bb 6d 88 3d 0e 28 71 bd 0f 91 4c be
       0.078446314 0.066615544 -0.05887609 -0.1997721
000240 2c 0e 4a be 80 04 f0 bd ff 0c d6 3d aa e7 a4 bd
       -0.19731969 -0.11719608 0.104516976 -0.08051999
000250 98 f0 3b be 98 85 f5 bd 53 7b 69 bc 95 8c 3f be
       -0.18353498 -0.119883716 -0.014250594 -0.18705972
000260 89 62 da bd 57 4f f4 bd 0c 32 63 b9 b9 25 82 3d
       -0.10663325 -0.119291954 -0.00021667051 0.06354851
000270 f9 14 b5 3d 9c 67 d9 bd df 83 09 3e 56 0b 03 be
       0.08841891 -0.10615465 0.13429211 -0.12797293
000280 39 f4 45 bd b6 52 6d bd 1b 52 16 3e 65 17 6d be
       -0.048328612 -0.057940207 0.14679758 -0.23153456
000290 1b a3 23 be 42 52 96 bd 3c 83 9d bd fc 90 66 be
       -0.15980189 -0.07339908 -0.076910466 -0.22516245
0002a0 69 49 86 bd 29 3e 59 be a5 73 66 bd 74 71 8b be
       -0.065569706 -0.21215118 -0.05626263 -0.27234995
0002b0 a8 86 1c 3e 78 4f a2 3d f6 a7 60 3d c0 c6 53 3b
       0.15285742 0.07925314 0.05484768 0.003231451
0002c0 16 ee 9a 3d e9 1e c0 3d b6 5a b2 3d 74 8c b4 bd
       0.075649425 0.09380896 0.08708708 -0.08815852
0002d0 65 a6 ac bd 79 28 82 3d e7 d0 96 bd 26 e8 94 bd
       -0.08430175 0.06355376 -0.07364064 -0.07270841
0002e0 6c 33 1e 3e 40 d1 63 be f4 79 7e 3d 66 91 ec 3b
       0.15449303 -0.22247791 0.062128022 0.0072194813
0002f0 1d f7 0a be 72 57 c3 bd c7 8c 4c 3d 29 10 37 be
       -0.13570829 -0.09538163 0.049938943 -0.17877258
000300 59 6a 62 3e 6b 86 06 3e af dc a0 be c9 9c 53 be
       0.22110881 0.13137214 -0.31418368 -0.20665278
000310 59 59 13 3e 4e 41 a2 3d 4e 9f bd 3d 23 71 e1 bd
       0.14389552 0.07922612 0.092589006 -0.11007907
000320 62 8d 14 be a8 00 9f 3c b0 2a b2 bd 9c 78 f4 bd
       -0.14507058 0.019409493 -0.08699548 -0.11937067
000330 a3 c3 5c 3d d9 20 c9 bd d3 6f 9e be 46 82 22 be
       0.05389751 -0.09820718 -0.3094469 -0.15870008
000340 73 b1 a4 bd 80 74 75 bd af 45 91 be e7 42 46 3e
       -0.08041658 -0.059925556 -0.28373477 0.19361459
000350 4b 11 66 3d a8 f0 59 be e6 9e ea bd f4 ba 4c 3e
       0.056168836 -0.2128321 -0.11456089 0.19993192
000360 ce c2 a9 be 77 0a aa bd 5b 72 84 3d 8c 4d 21 bd
       -0.33156437 -0.08302777 0.06467124 -0.039380595
000370 19 e7 05 3e da 82 8c 3d 0c 22 a9 bd 05 06 89 be
       0.13076438 0.068608955 -0.08258447 -0.26762405
000380 ff d7 88 be e9 5f 8c bd d8 ac 93 bd e0 a7 94 be
       -0.26727292 -0.06854231 -0.07210702 -0.29034328
000390 19 2d fc bd 06 ae b6 3d 89 2a 8c be 91 a3 44 be
       -0.12313289 0.08919911 -0.27376202 -0.1920302
0003a0 f0 16 8b bd ae 22 8b bd fa fc 20 3d fc 07 19 3d
       -0.06791484 -0.06793724 0.039303757 0.03736113
0003b0 b5 c2 bd 3d 5b 0c 7c be a7 37 96 3d b5 1c 80 bd
       0.09265653 -0.24614088 0.073348336 -0.062554754
0003c0 07 69 55 be 1f 36 0d bd 1a 48 eb 3d b8 73 03 3d
       -0.20840846 -0.034475442 0.11488362 0.03209278
0003d0 cc 9c f8 bd 73 f4 68 be dd 09 f5 3d 2d e0 90 be
       -0.12139282 -0.227495 0.11964772 -0.28296033
0003e0 3c e8 93 be 69 cf 1b be df b0 12 3e bd 78 f0 bd
       -0.28888118 -0.1521584 0.14325283 -0.11741779
0003f0 3d 88 79 3c 23 35 7e 3d 6d cd 75 3d c8 ec cf 3d
       0.015230236 0.062062394 0.060010362 0.10152584

conv3.bias f4 [64]
000000 a0 b1 99 3d b9 be e5 bd a0 f1 1a be 62 4a 99 bd
       0.075045824 -0.11218018 -0.15131235 -0.074848905
000010 82 43 7d 3e 27 62 de bd c5 a1 0f 3e af 47 6a bc
       0.24732783 -0.10858565 0.14026554 -0.014299317
000020 4c 86 80 3d 33 08 c0 3b 90 d5 04 be 65 d9 a7 3d
       0.06275615 0.0058603524 -0.12972093 0.081957616
000030 76 a5 18 be 6e 2f b3 bd ac a9 d4 bd b4 cd b4 bc
       -0.14906868 -0.08749281 -0.10383925 -0.022070743
000040 48 b1 e6 bd 17 29 f5 3d 4d d1 5d bd 6b 70 bb 3d
       -0.112642825 0.11970728 -0.054154683 0.091523014
000050 6b 35 1d 3e 6c 9d 6f 3d 82 df 32 be 3f 3c 3c 3e
       0.15352409 0.05849974 -0.17468074 0.18382357
000060 8c ff a8 bd c5 25 38 bc 2f 47 a4 3d aa 14 f6 3d
       -0.08251867 -0.011239474 0.0802139 0.1201566
000070 28 43 b5 3d 8e d0 0d be 24 93 12 3e c4 66 13 3e
       0.088507 -0.13849089 0.14313942 0.1439467
000080 7b 82 2b be 03 40 a6 bd 2c a5 b9 3d 3e 5a 9b 3d
       -0.16748993 -0.08117678 0.09064707 0.07585572
000090 2a 47 00 bb 32 4b 9f 3d e0 5a b1 3d d8 3b 03 3d
       -0.0019573667 0.07778014 0.08659911 0.032039493
0000a0 03 27 14 be e3 fd a9 3c 07 7f 03 3d fc 49 53 3e
       -0.14468007 0.020750945 0.032103565 0.20633692
0000b0 4b 05 52 3e 45 95 1f 3d 68 3d 17 bc 10 a4 13 bd
       0.20509832 0.038960714 -0.009230949 -0.036045134
0000c0 1a f4 31 be 7b 17 cc 3d 59 f9 18 be e4 ae c2 3d
       -0.17378274 0.09965416 -0.14938869 0.09506014
0000d0 2f f2 8e 3c 95 72 b5 bd 87 ea 11 be f5 b2 96 3d
       0.017449467 -0.088597454 -0.14249621 0.07358352
0000e0 d3 da b2 bd 61 c7 1f be 84 86 4c bd ae 7b 03 3e
       -0.08733144 -0.15603401 -0.04993297 0.12840149
0000f0 e3 5e d3 bd bc c7 b5 bd a0 69 13 3c 25 8f 90 bd
       -0.103208326 -0.08875987 0.008997351 -0.07058553

conv3.lin.weight f4 [64, 64]
000000 3a bb de 3e 20 78 08 3d 73 91 88 bd 94 6c 08 be
       0.43502218 0.033317685 -0.06668367 -0.1332267
000010 49 65 10 3e fb fc 35 3d d6 f3 80 bd 95 23 7b be
       0.14101137 0.044430714 -0.06296508 -0.24525292
000020 08 c7 c9 3c 8a 61 5c bd dc 6a d1 3d 1f b1 81 bd
       0.024631038 -0.053803958 0.1022546 -0.06332611
000030 e6 10 b7 bd 29 7b 35 be 41 6a 57 3e 7d ee 37 be
       -0.0893877 -0.17722763 0.21036626 -0.1796207
000040 b9 d3 4c be ff bd be 3c 89 ef 04 be f3 d6 8c 3d
       -0.20002641 0.023283957 -0.12982 0.06876936
000050 6d ef ac 3d 72 a8 3a be 6a c3 68 be 4a 58 50 bd
       0.08444104 -0.1822832 -0.22730795 -0.05086545
000060 7d 3d 8e bd 3a cb 0f 3e 10 01 0a 3d 22 0d 1e be
       -0.06945322 0.14042369 0.03369242 -0.15434697
000070 40 13 8e bd 9d f6 45 be 68 fb ca 3d 58 59 d2 bc
       -0.069372654 -0.19332357 0.09911233 -0.025677368
000080 56 62 82 3e 6d 60 48 3e 7b 55 3f 3e 20 e4 fa 3c
       0.2546565 0.19568034 0.18684952 0.030626357
000090 a0 69 96 3e 67 a1 ef bd b9 0b 15 3e ab f2 89 3d
       0.2937746 -0.11700707 0.14555253 0.06735738
0000a0 2a 0f d1 bd 5e 1b f8 3d c5 35 b0 3d b4 97 e3 bd
       -0.102079704 0.12114595 0.08604006 -0.111129194
0000b0 9c e1 0c be 56 8f 3f 3f 21 6f b0 3e fa 7a 1f be
       -0.13757938 0.7482809 0.34459785 -0.15574256
0000c0 60 d9 1c 3e ba 46 16 3d 04 e2 67 bb 8c a7 61 bd
       0.15317297 0.036688544 -0.0035382519 -0.055091426
0000d0 8d 65 ae 3d 71 02 85 bc 7a 16 3e 3f 62 41 31 be
       0.08515463 -0.016236516 0.74253047 -0.17310098
0000e0 72 33 b3 bc fa 77 66 3d 66 ef 12 3e 24 f1 18 3e
       -0.021875117 0.056266762 0.14349136 0.14935738
0000f0 ba c5 8a 3e cd 3f 87 bd ca c3 83 be b2 a8 81 be
       0.27103978 -0.06603966 -0.25735313 -0.25324017
000100 88 a6 d9 be db ed 4c be 71 3e bb bd 76 4d d9 bd
       -0.42509866 -0.2001261 -0.09142769 -0.106104776
000110 36 9e c6 bc 66 7d 8b 3d fa da 68 be 4d ff ff 3d
       -0.024245363 0.06811027 -0.22739783 0.12499867
000120 2e 2d 12 be 8e 3a b4 3c 88 20 ce 3d b4 79 af 3d
       -0.14275047 0.022000577 0.100647986 0.08568135
000130 08 8e 17 3e 64 7a 03 3f 36 03 ba bd 08 40 26 be
       0.14800274 0.5135863 -0.09082644 -0.16235363
000140 a5 85 b6 3e 05 85 db bd 58 83 94 3d 40 26 29 3d
       0.35648838 -0.10718731 0.07251614 0.041296244
000150 5e f6 72 be 00 c7 3f 3b 5f c3 3e 3e 27 32 b2 bd
       -0.23726794 0.00292629 0.18629216 -0.08700972
000160 9c 64 1d 3f ef f0 60 bd dd e0 a4 3c 17 53 8b be
       0.6148164 -0.054917272 0.020126754 -0.2721183
000170 f8 ab 6a 3e 6d 5c cd 3e cf 91 8b 3d 0d 9e c5 be
       0.22917163 0.40109578 0.0681492 -0.38597146
000180 d5 7b 05 3e b2 63 ac bd cd 30 ec 3d 39 39 94 bd
       0.1303552 -0.08417453 0.115327455 -0.07237477
000190 ec 52 2e be f0 c8 44 3d c9 b5 c5 bd b0 87 63 3e
       -0.1702382 0.04804319 -0.096538134 0.2221973
0001a0 30 5f 30 be ac ef 28 be df 5e 33 be 1e de ed 3e
       -0.17223811 -0.16497678 -0.17516659 0.46458524
0001b0 3e a3 62 3e bd 12 62 3e 18 2d f4 bd 48 a5 82 be
       0.22132584 0.2207746 -0.119226635 -0.25516725
0001c0 46 67 ab bd b5 4f 0c be 2d 85 13 3e 59 4a 5c 3e
       -0.08369307 -0.13702281 0.14406271 0.21512736
0001d0 88 19 6e be 8f 02 1a be b5 d4 db bf 1c cb 2b be
       -0.23251927 -0.15040039 -1.7174288 -0.16776699
0001e0 8c de 38 3e 37 6c 18 3e 0f 19 b5 3e 04 5f a5 bd
       0.18053645 0.1488503 0.3537068 -0.080747634
0001f0 59 2e a1 bd 25 7e 1b 3e 4d a0 0d 3d f0 4a 03 3e
       -0.07870168 0.15184839 0.034576703 0.12821555
000200 f1 a1 a1 be 2a cf 48 3e 06 74 21 be f2 b6 06 3e
       -0.31568864 0.19610277 -0.15766916 0.13155726
000210 f4 18 79 3d 24 c3 c7 3d d2 ab 84 3e 41 00 b0 bd
       0.060814813 0.09754017 0.25912338 -0.085937984
000220 b3 c5 d4 3d 68 9e 27 3e 2e 1f 22 3e 26 f2 b0 3d
       0.10389271 0.16369021 0.15832207 0.08639936
000230 20 cf cf 3c 1b 94 2b 3e b7 25 1b be 20 fd 36 be
       0.02536732 0.16755717 -0.15151106 -0.17869997
000240 90 75 78 3e 8e 82 14 3e 6d 58 a6 3e cd ce 67 be
       0.24263597 0.14502928 0.3248934 -0.22637482
000250 3c 53 2a be 2d 96 4f 3e b9 91 21 bd 9c fa fc 3c
       -0.16633314 0.20272131 -0.039445613 0.030881219
000260 51 37 25 3e c5 94 42 bd 45 c0 11 be e9 b7 91 be
       0.16134383 -0.04750516 -0.14233501 -0.28460625
000270 db 8a e2 3e 53 08 99 3e 8b 45 2e 3e 44 a6 95 bd
       0.44246563 0.29889163 0.17018716 -0.07307103
000280 1d 3f 07 be b6 71 fb bc db 6f 12 be 98 66 95 bd
       -0.1320767 -0.03069387 -0.14300482 -0.07294959
000290 6b b7 7b 3d 8d 75 bd 3d 99 13 53 3c 90 ce f0 bd
       0.061454218 0.09250937 0.01288309 -0.11758149
0002a0 24 e5 21 3e 9e aa ba bd 62 4c 45 3e ea 68 d4 3e
       0.15810066 -0.09114574 0.19267419 0.41486293
0002b0 7b 98 96 3e fe 94 14 be da 76 da 3d 3f 7c 72 3e
       0.29413208 -0.14509961 0.106672004 0.23680209
0002c0 65 ab 59 3c a2 d3 d5 3d ba 0c b6 3e d2 c5 1a 3c
       0.013285493 0.104407564 0.35556585 0.009446578
0002d0 dd 4c 81 3a 71 41 d5 bd 13 d6 4f bf ea 09 0f bd
       0.0009864826 -0.104128726 -0.81186026 -0.034921564
0002e0 9a 9a 0c 3e d5 10 85 be 0a 92 b5 3d 0d d6 31 3c
       0.13730851 -0.25989404 0.08865745 0.010854256
0002f0 37 18 59 be 5d 53 ea bc 75 9d 50 3d b3 0a 1b 3e
       -0.21200643 -0.028604204 0.050931413 0.151408
000300 6a a9 9c be 8f 35 5c 3e 0c 68 84 bd 8b 99 ba ba
       -0.30598003 0.21504806 -0.06465158 -0.0014236433
000310 bc 1f 2e bc 42 2c 16 be 54 a5 51 3d ee 44 5a 3d
       -0.010627683 -0.1466532 0.05118306 0.053288393
000320 59 96 c0 bd e1 d8 ff bd 14 84 1c 3e b6 0d d5 bc
       -0.094036765 -0.12492538 0.15284759 -0.026007514
000330 1d 99 fe bd b1 8f 87 3e a9 39 94 bd c0 1c c0 3d
       -0.12431548 0.26476815 -0.0723756 0.093804836
000340 e5 09 e4 bc aa ff 67 3d 71 2b 4a 3e 95 2a 8e 3c
       -0.02783675 0.056640305 0.19743134 0.01735429
000350 c3 4c ba be 40 e0 71 bd e6 fc a0 bd 73 ae 14 3e
       -0.3638669 -0.059051752 -0.078607365 0.14519672
000360 a1 fa 26 3e ad 35 84 bd 3b 03 c6 3d b6 34 0c be
       0.16306545 -0.0645555 0.09668585 -0.13691983
000370 1e d2 d6 3e bc b9 16 3e de 7f 32 3e 6e 5f 15 3e
       0.41957182 0.1471929 0.1743159 0.14587185
000380 2a 3b 62 3e 30 05 87 bd c8 07 26 3e bd 20 58 be
       0.22092882 -0.06592786 0.16213906 -0.21106239
000390 b4 39 ad bd 81 79 81 3e 0c 5a a4 3d ac df ee bd
       -0.084582716 0.25288013 0.080249876 -0.11663756
0003a0 7c e2 58 3e bc c7 83 bd b5 fa 1a 3e 0b 7e cb 3d
       0.21180147 -0.06434581 0.151347 0.0993615
0003b0 66 05 2a 3e 0e cb d9 be 99 c4 b5 3e 09 65 28 3e
       0.16603622 -0.4253773 0.35501555 0.16444792
0003c0 ff f4 c8 3d 90 88 5e 3d 28 5b a5 3e 9d 72 e9 3d
       0.09812354 0.054329455 0.3229611 0.11398814
0003d0 08 28 40 3e 59 e0 b0 3e 19 c4 a4 bf 73 07 3d bc
       0.1876527 0.34546164 -1.2872344 -0.011537421
0003e0 4f d9 a8 3d 95 4d 23 3d 45 e0 80 3c 4f c1 6a bd
       0.08244573 0.03986891 0.01573194 -0.05731326
0003f0 df d6 d8 be ff ac 42 3d a1 88 67 bd 6c bb dc 3b
       -0.42351434 0.047528263 -0.056526784 0.0067362096

lin.weight f4 [2, 64]
000000 a7 7d e3 bc c1 4d 0f be b5 53 53 bc b1 ec 07 bd
       -0.027769877 -0.13994505 -0.012898375 -0.03318471
000010 9d 09 81 3d c3 c2 ee bb c4 df 8b bb 7c 7a 43 bd
       0.06300662 -0.007286401 -0.0042686183 -0.047724232
000020 72 a6 36 3e 0b ee ed bc 76 da ac bd 74 7e 88 bc
       0.17836931 -0.029044172 -0.084401056 -0.01666186
000030 e0 75 89 bd 74 87 ff bd 43 cc 0f be b3 16 34 bc
       -0.06711936 -0.124770075 -0.14042763 -0.01099174
000040 70 67 35 3c 67 e7 0e 3e 24 0d 32 3d 56 c9 f4 bc
       0.011072025 0.1395546 0.043469563 -0.02988116
000050 68 c6 5f 39 72 48 19 3e af 27 ac bd 54 60 ca 3d
       0.0002134085 0.14969042 -0.084060065 0.098816544
000060 2a bf 56 bd f5 98 c7 3b 62 b3 06 3d 18 cb c2 3d
       -0.052428402 0.006091232 0.032885917 0.09511393
000070 d5 be 83 3d a0 61 2f be 63 06 9a 3d 22 2e 9e 3b
       0.06432883 -0.17127085 0.075207494 0.004827277
000080 b8 ba c9 bd 4f 94 af bb a7 21 0b 3e f2 61 01 3d
       -0.09850067 -0.005358256 0.13587056 0.03158755
000090 78 3d 09 be c4 a3 01 3d e9 c1 bc 3d 80 e7 f8 bb
       -0.13402355 0.03165032 0.09216673 -0.0075959563
0000a0 44 42 e6 bd 16 d3 67 bd 55 66 5b 3d a9 9f be 3d
       -0.11243108 -0.05659779 0.05356439 0.093077965
0000b0 d3 37 80 3d c8 31 e7 b9 79 e1 9a 3d a6 af 36 bd
       0.062606476 -0.00044096843 0.07562537 -0.044601105
0000c0 54 f6 bd bd 84 da b6 3d 5c ca 2f bd 86 1a 88 3c
       -0.09275499 0.08928397 -0.042917594 0.01661421
0000d0 35 09 ab bd c9 cf 1d be 95 93 05 bb 8c 33 cf 3b
       -0.083513655 -0.15411295 -0.0020382155 0.0063232835
0000e0 5d f7 32 3d 83 71 a5 bd 61 ff bf 3b 9e 61 92 3d
       0.043692935 -0.08078291 0.005859301 0.07147525
0000f0 6b a5 21 be 33 24 86 bd 43 c1 2d 3d c5 88 f3 bc
       -0.15785758 -0.06549873 0.042420637 -0.029728303
000100 cf 8f 98 bd 41 88 8d 3d 7b da 59 3d e4 10 80 3d
       -0.07449304 0.06910754 0.053186875 0.06253222
000110 03 17 3d be ca f1 89 ba 73 ec 05 bd ab 35 8c bd
       -0.1846581 -0.0010524329 -0.0326962 -0.06846174
000120 9f 5d 47 3d d5 93 4a bd 1c 5a 1a 3e c5 39 1c be
       0.04867327 -0.04945739 0.15073436 -0.15256412
000130 fd 70 35 3e ca 0a e6 3b f2 3f 26 3d 45 db f7 bc
       0.17718883 0.007020329 0.040588327 -0.030255923
000140 a8 b5 21 3e a2 c1 fc bc 34 08 43 3d 21 33 23 be
       0.15791953 -0.03085405 0.047615245 -0.15937473
000150 08 a4 e7 bd 1a e6 a3 bd f1 13 9b 3d f6 2e 4c bd
       -0.11310583 -0.08002873 0.07572163 -0.049849473
000160 aa a5 66 bd a6 b7 b2 3b 7e ac 97 3d 41 0e e1 3d
       -0.056310333 0.0054540215 0.07405947 0.10989047
000170 52 28 5c bd c4 6d b4 3d 0d 85 da 3b 82 5f ca 3b
       -0.05374939 0.08809999 0.006668693 0.006175936
000180 02 7c eb 3d d6 ab c4 3d 3b 0c 83 bd f6 49 a9 bd
       0.11498262 0.096030876 -0.06398817 -0.0826606
000190 88 ca 6a bc cc cb d2 3c 17 5f c6 bc ae 82 99 bb
       -0.014330514 0.025731944 -0.024215264 -0.0046847677
0001a0 01 c8 22 3e 68 12 a2 3d 55 70 44 3d 12 75 05 3d
       0.15896608 0.07913667 0.04795869 0.03258235
0001b0 3e de da bc 09 d2 06 3d 72 04 ca bd 98 5f 3b 3d
       -0.026717301 0.03291515 -0.09864129 0.045745462
0001c0 e5 79 43 3d 71 9c 02 3e 84 53 e0 bc d9 32 fc bc
       0.04772367 0.1275499 -0.027383573 -0.030785965
0001d0 10 b2 79 bd 33 93 8b 3d 20 79 9c 3c 74 7b 13 bd
       -0.06096083 0.068151854 0.019100726 -0.036006406
0001e0 dd 1b 7f 3c 98 3c e4 3d 05 0a 4e 3c 6f fd ac 3b
       0.015570608 0.1114437 0.012575631 0.005279235
0001f0 e2 3c ac 3c bd e5 09 bc b1 83 9a 3d 66 c9 04 3e
       0.021025125 -0.00841659 0.075446494 0.12967452

lin.bias f4 [2]
000000 3d 80 c5 3d a4 2b 43 be
       0.096436 -0.19059616
