GNNModels/checkpoints/GCN_PubMed_epochs=300.pt (torch, 34099 bytes, 4 tensors)

conv1.bias f4 [16]
0.16331968 0.06464106 0.06764509 0.10939849 0.03035172 0.09434537 0.07849115 0.16107148
0.10857536 0.026489142 0.0982652 0.16902056 -0.039230216 0.077096514 0.08195574 0.020192802
00000000: 463d 273e 8862 843d 8289 8a3d 510c e03d
00000010: 2ca4 f83c 2538 c13d f8bf a03d ecef 243e
00000020: c25c de3d c2ff d83c 443f c93d ba13 2d3e
00000030: ddaf 20bd c7e4 9d3d 69d8 a73d 606b a53c

conv1.lin.weight f4 [16, 500]
-1.3043195 0.041754894 0.122183435 0.1679438 0.05367161 0.46187118 -0.5156047 0.03087681
-0.620482 0.05663409 0.11671794 0.12908714 -0.005470159 -0.01547687 -0.20907906 -0.59925765
0.07914997 0.35479507 0.11026892 -0.13592234 0.20274393 -0.09551113 -0.09799651 0.056677118
-0.12596396 -0.64248866 -0.28365868 -0.007158134 0.11035338 -0.09612664 -0.3127133 -0.7259115
-0.6748828 -0.05252917 -0.022210058 0.046430018 0.02689994 0.077280715 -0.39360082 0.6787354
-0.48494738 0.0767952 -0.14767133 -0.07260375 0.0914143 -0.0077927145 0.18694785 -0.033716075
-0.11171649 -0.010668633 -0.19964294 0.17536473 -0.083221614 -0.16180941 -0.087396435 -0.067342445
0.07518595 0.12953566 0.0059314156 0.08911687 -0.28032508 0.01672308 -0.11992257 0.025115207
-0.087892495 -0.20409296 -0.13039276 -0.10644258 0.024031272 -0.014761255 0.39082915 -0.12884016
0.09797302 0.057901416 -0.19030432 0.021505764 -0.0045512086 -0.058740977 -0.13891001 -0.059044354
-0.005630226 0.050869778 -0.1170798 0.1763288 -0.009561996 -0.0074055796 0.059715588 0.0747708
0.059938647 0.8755277 0.20262952 0.10768822 -0.17408583 -0.20025392 0.0410159 -0.043394558
0.11876326 -0.03545986 0.073234275 0.015434615 0.1934021 -0.1112607 0.050703026 0.16872074
0.28005135 0.030423723 0.082925126 -0.053407513 0.19050553 0.045594208 -0.5107691 -0.030585673
0.051270977 -0.07537602 0.10056897 0.21602842 0.12003851 -0.044167683 0.04027717 -0.44976163
0.06681882 0.23725401 -0.12117336 -0.052441977 0.11404011 -0.005825652 0.054229338 0.23002432
0.16255075 0.0037997137 0.13592511 0.23995313 -0.124670774 0.03104583 0.091309056 -0.061614525
0.14142083 0.08302319 0.18667121 0.22999723 0.025270648 0.08984706 -0.2723842 0.08888948
0.22058345 0.10216868 -0.065189876 0.0518574 0.086051695 0.04114114 0.016047807 -0.02893605
0.086510494 -0.043895103 -0.056896646 0.09451599 -0.13133147 -0.08640452 0.14199825 -0.26452056
0.1400863 -0.22013144 0.5146743 0.11684233 -0.17224924 -0.014578037 0.050187033 -0.062576845
0.0141722215 -0.5150192 0.014557419 -0.6081076 -0.08878605 -0.036105476 -0.046866614 -0.38501656
0.0032127476 -0.103818245 -0.0615939 -0.35030538 0.0894925 0.085262716 0.09366687 -0.3084383
-0.7682556 -0.12855184 0.041486356 -0.4390226 0.06022926 -0.10122038 0.057348795 0.022255566
-0.22281238 0.059822492 -0.004582869 0.09015912 0.5532812 -0.08039168 -0.042536594 -0.13518967
-0.13354285 0.25193095 -0.20928963 0.17872219 0.03610074 0.25729552 -0.03721477 0.08114599
0.015586097 0.042966772 0.11149265 0.079507805 0.18017562 0.17719732 0.14791547 0.21144013
-0.02876097 0.06845257 0.07647674 0.1143642 0.06300119 0.47438806 -0.054981746 -0.20481569
0.14913224 -0.107348755 0.24919623 0.19041792 -0.051022734 0.1282843 0.13732845 -0.20496482
0.10869064 -0.07074028 0.2530455 0.15949064 -0.35682982 -0.021564476 -0.23532021 0.18576606
-0.05297445 0.19371836 -0.0942004 0.060149807 0.13859932 0.086028114 0.16676708 0.6244097
-0.22851266 -0.021032592 -0.0072261724 0.42454165 0.113298796 0.21504861 0.20368476 0.110611744
00000000: f1f3 a6bf 2e07 2b3d 4f3b fa3d 76f9 2b3e
00000010: c3d6 5b3d 617a ec3e abfe 03bf 5df1 fc3c
00000020: e9d7 1ebf 26f9 673d d109 ef3d 6b2f 043e
00000030: 053f b3bb b392 7dbc d218 56be f368 19bf
00000040: 6119 a23d b3a7 b53e acd4 e13d 3a2f 0bbe
00000050: 1b9c 4f3e 579b c3bd 65b2 c8bd 4426 683d
00000060: b2fc 00be 237a 24bf b63b 91be c88e eabb
00000070: f400 e23d 0bde c4bd f51b a0be 56d5 39bf
00000080: 1fc5 2cbf d428 57bd def1 b5bc 672d 3e3d
00000090: 435d dc3c 5a45 9e3d 0c86 c9be 9ac1 2d3f
000000a0: 064b f8be cd46 9d3d 2737 17be 46b1 94bd
000000b0: 6c37 bb3d 075a ffbb 426f 3f3e de19 0abd
000000c0: 9dcb e4bd 7dcb 2ebc 336f 4cbe d092 333e
000000d0: 1870 aabd 5eb1 25be e7fc b2bd d6ea 89bd
000000e0: 17fb 993d ffa4 043e 525c c23b e882 b63d
000000f0: c586 8fbe d7fe 883c f799 f5bd 68be cd3c
00000100: fb00 b4bd bffd 50be ae85 05be 91fe d9bd
00000110: 3bdd c43c 31d9 71bc c21a c83e adee 03be
00000120: 14a6 c83d 092a 6d3d 23df 42be db2c b03c
00000130: 4e22 95bb 619a 70bd 6d3e 0ebe 7ed8 71bd
00000140: c27d b8bb d45c 503d 89c7 efbd 898f 343e
00000150: eba9 1cbc 81aa f2bb 5598 743d 6f21 993d
00000160: 3a82 753d 9522 603f 1d7e 4f3e a48b dc3d
00000170: 8e43 32be 5d0f 4dbe 4a00 283d 7ebe 31bd
00000180: 273a f33d 5c3e 11bd dafb 953d 78e1 7c3c
00000190: 330b 463e a6dc e3bd faad 4f3d 21c5 2c3e
000001a0: e462 8f3e 2c3b f93c a6d4 a93d d6c1 5abd
000001b0: e213 433e fec0 3a3d c4c1 02bf ce8e fabc
000001c0: 8401 523d be5e 9abd 1bf7 cd3d 8e36 5d3e
000001d0: c0d6 f53d 2ce9 34bd acf9 243d 2847 e6be
000001e0: 4ed8 883d b7f2 723e bd29 f8bd 66cd 56bd
000001f0: dc8d e93d 1ce5 bebb 951f 5e3d 7f8b 6b3e
00000200: b473 263e 9e04 793b f42f 0b3e 46b6 753e
00000210: 6453 ffbd d353 fe3c 3e00 bb3d 835f 7cbd
00000220: 9fd0 103e 1008 aa3d bd26 3f3e 6584 6b3e
00000230: 6404 cf3c bc01 b83d f175 8bbe b00b b63d
00000240: a1e0 613e d03d d13d 4582 85bd 6d68 543d
00000250: df3b b03d 9d83 283d b176 833c 4c0b edbc
00000260: 6a2c b13d 5acb 33bd 750c 69bd 9991 c13d
00000270: c27b 06be daf4 b0bd fd67 113e 3d6f 87be
00000280: c872 0f3e 236a 61be b2c1 033f 084b ef3d
00000290: 1b62 30be b8d8 6ebc eb90 4d3d 4a28 80bd
000002a0: 9b32 683c 4cd8 03bf 3e82 6e3c f1ac 1bbf
000002b0: 76d5 b5bd 56e3 13bd 35f7 3fbd e420 c5be
000002c0: f68c 523b a99e d4bd e349 7cbd 3a5b b3be
000002d0: d847 b73d 389e ae3d 6ad4 bf3d a0eb 9dbe
000002e0: 66ac 44bf 18a3 03be 99ed 293d 92c7 e0be
000002f0: f5b2 763d a14c cfbd 92e6 6a3d 4e51 b63c
00000300: ee28 64be 6e08 753d e42b 96bb 58a5 b83d
00000310: d6a3 0d3f 65a4 a4bd da3a 2ebd 296f 0abe
00000320: 75bf 08be 18fd 803e 0550 56be f302 373e
00000330: 5fde 133d 3dbc 833e 846e 18bd de2f a63d
00000340: d45c 7f3c edfd 2f3d 4256 e43d fdd4 a23d
00000350: f57f 383e 3773 353e 2777 173e c383 583e
00000360: 209c ebbc dc30 8c3d d69f 9c3d c737 ea3d
00000370: c506 813d fee2 f23e 8a34 61bd 34bb 51be
00000380: 1fb6 183e aad9 dbbd 4c2d 7f3e eafc 423e
00000390: 37fd 50bd f65c 033e d49f 0c3e 4ce2 51be
000003a0: 3399 de3d 48e0 90bd 2e8f 813e 8451 233e
000003b0: 66b2 b6be fca7 b0bc c8f7 70be 7539 3e3e
000003c0: bdfb 58bd 1b5e 463e 24ec c0bd a55f 763d
000003d0: fbec 0d3e 822f b03d fdc4 2a3e 50d9 1f3f
000003e0: 39ff 69be 8b4c acbc 87c9 ecbb 865d d93e
000003f0: 3309 e83d b435 5c3e bd92 503e 6988 e23d

conv2.bias f4 [3]
-0.49525082 0.117456876 0.34021586
00000000: 8491 fdbe 3b8d f03d c630 ae3e

conv2.lin.weight f4 [3, 16]
-2.2616582 -2.048025 -1.3898585 1.357343 2.188492 1.9023863 2.0277514 -2.1317413
-1.7426791 2.1132283 1.5981773 -2.152029 -5.3259464e-10 1.6534857 1.7542973 1.768828
1.0557534 2.4608157 2.319779 -2.4487524 -1.8624372 2.1232722 1.7751315 0.59317696
-1.0155032 -1.1246853 -2.1969538 1.7803758 -2.8735013e-07 -2.319844 2.2821484 -2.2208576
2.1169171 -2.4370167 -1.786188 1.6590645 -1.70195 -2.0893857 -2.0570314 1.9912672
1.799293 -1.8713329 2.2609985 0.9975792 -2.1553126e-08 1.480533 -2.0167599 -2.0085626
00000000: 02bf 10c0 d712 03c0 e2e6 b1bf 6abd ad3f
00000010: 4110 0c40 6581 f33f aec6 0140 736e 08c0
00000020: 1c10 dfbf 223f 0740 1391 cc3f d8ba 09c0
00000030: 0466 12b0 6ba5 d33f d08c e03f f568 e23f
00000040: ed22 873f 017e 1d40 4277 1440 5cb8 1cc0
00000050: 5864 eebf b1e3 0740 8237 e33f 72da 173f
00000060: 02fc 81bf b0f5 8fbf e49a 0cc0 5be3 e33f
00000070: 1a45 9ab4 5378 14c0 b80e 1240 8822 0ec0
00000080: 927b 0740 15f8 1bc0 cfa1 e4bf 3a5c d43f
00000090: 7fd9 d9bf 7fb8 05c0 67a6 03c0 d8e1 fe3f
000000a0: 3c4f e63f d687 efbf 33b4 1040 5a61 7f3f
000000b0: d323 b9b2 1b82 bd3f 9812 01c0 4a8c 00c0
