GNNModels/checkpoints/GNNGraphConv_PROTEINS_epochs=300.pt (torch, 72585 bytes, 11 tensors)

conv1.lin_rel.weight f4 [64, 3]
00000000: 724d 12be 06f6 55be e12d ad3d b47d 0abf
00000010: 176a 80be bae7 cbbe 4c60 9bbe 4953 f4be
00000020: 610c a1be deb9 f4be 8861 303e 326c 47be
00000030: 5425 bfbe e2ec d4be 809c 7d3c 0f58 ccbf
00000040: a28e cf3e 63d4 013e baed 8dbe bc7f 04bf
00000050: b1ef d2be 078c 1cbf f29e 2dbe 4acb 143f
00000060: cfb2 11bf ed70 fdbe 200c 44bd 994f 88be
00000070: ee12 f4bc 98cb 663d faba afbf aa6e e0bf
00000080: c725 5a3e cacf 16bf 69a3 a4be 391b 0cbf
00000090: 941d 04bf 616e 81bd 7b5e f73e cfee 0fbf
000000a0: 5cc7 87bf da38 19bf f279 a6be 009c ce3d
000000b0: 16d5 f8bd 0e11 0dbf e05d 23bf 170d f53d
000000c0: bd82 98bf 0e36 94bf 27be 3e3e 24a9 ef3e
000000d0: 3ce3 b73d 7ae6 0bbe e59c c5bf 850c d2bf
000000e0: 89d3 113f 041a 0bbd 6247 8b3c d58f 81bd
000000f0: d2b5 033e 5ff0 d1bd 968f 12bf bff7 eabf
00000100: e338 263f 3c9f 0ebf e4dd ed3d 2e8b 8d3d
00000110: ad82 993d 444f 04c0 b89f b8be 2204 0f3f
00000120: 49c2 2b3e 2a86 02c0 0d11 c13e 1235 00c0
00000130: 779a 1dc0 6d09 003f 3248 f03c aad9 11bf
00000140: a2b1 1cbf ddb2 0b3f a2b4 f03e 7b10 27bf
00000150: 44a6 893d 64cc c0be f1e1 e3bf 7abf 10be
00000160: 3bf5 8fbe a48f d5be fd85 dc3e e319 5bbc
00000170: b865 d6be 2c7e f5be 8035 af3c 009c 40bb
00000180: cb35 37bf 25ec b6bf e57a a9bf e0cb ecbf
00000190: d931 383f 8707 d6bf f4a4 1dbf f045 e53e
000001a0: ef85 6abe 1c32 e83b 8ae6 5fbd 000a a13a
000001b0: 0fa7 323b 0d72 6dbf 482b 9dbc eb17 e73e
000001c0: 00fa 18c0 7fc8 3b3f 6b85 b33d d022 d8be
000001d0: 4ebd 99bc 5303 113e 63a3 a2bb 461e debe
000001e0: 5913 1c3c 7b07 5bbe c462 2f3e c4fc 12bf
000001f0: 39a4 ecbe ec67 2a3e 2d95 5dbc 054b 1c3c
00000200: 0967 efbd cb79 16be f5a3 d93e 9706 e7be
00000210: 3f26 9a3e e469 9ebf 3f8e 403e 2bf4 ff3e
00000220: 2083 f7bc f02a fdbe 6a7a de3b 6cb6 3e3c
00000230: 1c06 12be 121f f9bd d0f9 9cbf 4458 1fbf
00000240: d73a aa3e 09b4 8ebf 0859 053f 7669 933e
00000250: 20d9 26c0 265d 433f e7dd 3e3e e55d 82bf
00000260: f71d e63e ce98 87bf 634c 64bd 239b 47bf
00000270: faa0 1cbf 4df9 e43d c9b6 68be 1257 bf3d
00000280: 354d 833d a863 f8be 5933 163c f889 063f
00000290: 7ad7 4abf b80e de3e 4640 123d 4920 be3e
000002a0: 9d24 b3be ca66 333f 1b21 27bf 80a0 a33e
000002b0: ae83 ec3e 3efd 9e3e a1fd 133f 9512 993d
000002c0: 743f 763e b4de 54be 5766 abbf e1d1 6dbe
000002d0: 52c2 20be f97d 653e ffd8 0a3e d04a 75bf
000002e0: 3bc6 31be 4fe8 b3bf 961d 05bf e19e 193d
000002f0: 41ca 5e3e 734e 0abf c7b7 c73e d6a1 7cbf
-0.14287356 -0.20894632 0.08456016 -0.5409806 -0.2508094 -0.3982523 -0.30346906 -0.47719792
-0.31454757 -0.47798055 0.17224705 -0.19474867 -0.37333167 -0.41586977 0.015479207 -1.5964373
0.40538508 0.12678675 -0.27720433 -0.5175741 -0.41198495 -0.61151165 -0.16955164 0.58122694
-0.56913465 -0.49500218 -0.047863126 -0.26623228 -0.029794183 0.056346506 -1.3728936 -1.7533772
0.21303473 -0.5891081 -0.32155922 -0.5472904 -0.5160763 -0.06319881 0.4831427 -0.5622377
-1.0607715 -0.59852374 -0.32514912 0.100883484 -0.12150018 -0.5510415 -0.63815117 0.11965387
-1.1914898 -1.1578996 0.18627225 0.46808732 0.089788884 -0.13662139 -1.5438505 -1.6410071
0.569634 -0.033960357 0.017001811 -0.06326262 0.12862328 -0.10250925 -0.57250345 -1.8356856
0.6493055 -0.5571172 0.11614588 0.06911312 0.074956276 -2.067338 -0.36059356 0.5586568
0.16773333 -2.0394387 0.3770832 -2.0032392 -2.4625528 0.5001438 0.0293313 -0.56972754
-0.61208546 0.545698 0.47012812 -0.6525952 0.06721166 -0.37655938 -1.7803327 -0.14135543
-0.28116783 -0.41711152 0.43070975 -0.013372871 -0.4187448 -0.47947824 0.021387815 -0.0029389858
-0.71566457 -1.4290816 -1.324063 -1.8499718 0.7195106 -1.6721047 -0.61579823 0.4477992
-0.22902654 0.0070860516 -0.05466322 0.0012286305 0.002726022 -0.9275215 -0.019185677 0.45135435
-2.3902588 0.7335281 0.08765682 -0.4221406 -0.018767025 0.14161424 -0.004963325 -0.43382472
0.009526097 -0.21389572 0.1712752 -0.5741694 -0.46219042 0.16641206 -0.013524336 0.00953937
-0.11689574 -0.14694898 0.42507902 -0.45122215 0.30107304 -1.2376065 0.18804263 0.49990973
-0.030213892 -0.4944682 0.0067894952 0.011640172 -0.14260143 -0.12164129 -1.2263737 -0.6224406
0.33248016 -1.1148692 0.52088976 0.28791398 -2.6070023 0.7631401 0.18639337 -1.0184904
0.44944736 -1.0593507 -0.05573691 -0.77971095 -0.6118313 0.11180363 -0.22725977 0.09342779
0.064112104 -0.48513532 0.009167516 0.52554274 -0.7923504 0.43370605 0.035705827 0.37134007
-0.3498887 0.7007872 -0.6528489 0.3195839 0.46194214 0.31052583 0.5780888 0.07474247
0.24047643 -0.2078808 -1.3390607 -0.23224594 -0.15699127 0.22411336 0.1355934 -0.9581728
-0.17360775 -1.405527 -0.5199827 0.037505034 0.21756841 -0.54025954 0.39007398 -0.9868444

conv1.lin_rel.bias f4 [64]
00000000: 8704 abbe 1dfd fabd 5c2b 123e 0661 01bf
00000010: 1276 b4be 1ac0 83be 869b 1d3e c6b2 2ebf
00000020: 8c38 ddbe d1e1 353d 817f 88be 6818 8e3f
00000030: 2233 66bf 798a 603f ea8e 27bf db43 efbe
00000040: ede9 52be 9473 5ebf 3452 01bf 4bb4 d2be
00000050: c95c 4b3d 74b2 1fbf 0cf9 debe 420e c9be
00000060: 932f edbe 9566 b8be 4d8a 03bf bce8 4ebf
00000070: 7f11 8a3e e34b b4be 816f 16bf 872e a1be
00000080: 1c0f 373f 3032 a3bd fb26 01bf b66d 4fbc
00000090: 60ac 4c3f cb4e e3be a9e1 e3be 9554 91bf
000000a0: 26a4 db3d 80b0 893e 60d9 2d3e cc66 963d
000000b0: eb5a 5f3e b4dd d5be d861 aebe 99ed 0a3f
000000c0: ed70 bebe 306b 47bf be4f 73bd 8942 383f
000000d0: b1f9 1cbf d47e e23d dccc 4fbf f1df 8ebf
000000e0: 8de0 88be d5c2 82bf 11c6 dabf 9e48 593f
000000f0: d629 11bf 926c 923f 792d 483e 57b6 7fbf
-0.33401892 -0.12255309 0.14274353 -0.5053867 -0.3524633 -0.257325 0.15391359 -0.68241537
-0.43207204 0.04440481 -0.26659778 1.1101198 -0.8992177 0.8771129 -0.65452445 -0.46731457
-0.20597048 -0.8689511 -0.50516057 -0.41153178 0.049649034 -0.6238167 -0.43549383 -0.3926869
-0.4632536 -0.36015764 -0.51382905 -0.80823874 0.26966473 -0.35214147 -0.5876389 -0.3148081
0.7150743 -0.07968557 -0.50450104 -0.0126604345 0.79950523 -0.44396052 -0.44508103 -1.1353937
0.10724668 0.2689247 0.16977453 0.07343826 0.21812026 -0.4177071 -0.34059024 0.54268795
-0.3719553 -0.7789793 -0.05940222 0.71976525 -0.613185 0.11059347 -0.81171966 -1.1162091
-0.2673382 -1.0215708 -1.7091695 0.8487643 -0.5670446 1.1439383 0.19548596 -0.99887604

conv1.lin_root.weight f4 [64, 3]
00000000: ee06 82be 7bb1 9dbe 412f dabe 9f58 913d
00000010: 467a 813e 50b2 b03e 5467 aabe 298d ae3e
00000020: 08a4 07bf 431d a9be bd53 e6be 3b4e 91be
00000030: 60e2 5f3e 138a c6be d01f 52be eaad 6b3d
00000040: b314 f7bf 7011 5b3e f87b bcbd 9c76 863f
00000050: 9e5f 5b3f 05b9 78bf b2b9 0ebe 2621 a63e
00000060: e8df fabd 5048 17be a0b7 0fbe d773 5dbf
00000070: f7d4 21bf 46cf 60be aacc d6bf dedf 5d3f
00000080: 4c29 c8be 3fa8 323f 02f1 343f 0acf fa3f
00000090: ff23 93be 98d8 39be b19d 3abe 2d05 323f
000000a0: 256c 1abf 9d04 0abf 7039 bdbd 5aa9 67bf
000000b0: 4914 09bf ec43 06bf 54d4 13be 68f2 a8bd
000000c0: e43b a8bf 9675 0a3f b279 2ebe 5718 e4bf
000000d0: 863b afbe bf29 9b3e a8b6 06c0 07bd 88bd
000000e0: b726 6abe 3cce 533e 86bf 7f3e 4b3e 1cbf
000000f0: 02c6 ddbd 7dea 6a3e 3d45 833f d309 ffbe
00000100: 385a 54bf 80d3 973f 8372 17bf 6043 34bf
00000110: 528c 69bf b590 823f 9b03 05bf f86d 0fbf
00000120: 5b78 d4be 0ff2 423f 2bc0 a1bf f47b 07c0
00000130: cae5 623f a102 903e d87a 983e 565e 27be
00000140: 2150 5fbe a149 5dbf abe2 47bf 3165 e3bf
00000150: 2ef8 a0bf 51df 86bf bb58 8d3f 4cda ecbd
00000160: b883 55be e465 863e a9c6 abbe 8320 adbe
00000170: 8dc4 51bf c82d 1e3e e895 d83d 0027 9dbb
00000180: 2e9d 143f fb1d b03f 4669 afbd 4c35 84bf
00000190: 20ad eebe f307 ec3e b4de 023f ea5b 76bf
000001a0: e47f 73bf d795 05bf cb2d 14bf 3d7a 90be
000001b0: 8f3c 813f 662a 5ebf bc05 b4bf 27ca e7bc
000001c0: babc b5bf 9dc3 f1bf b331 8abe fc82 77bf
000001d0: 090e 6fbe 93cc 8fbe 0ccd 543e 6871 d2be
000001e0: 23b1 8ebe 35da 0fbd ab6c 55bf e9bc b8be
000001f0: 0d55 673f f81e cfbf 3c2d f8be d73c 8ebe
00000200: b573 90be 1fdf dfbe 6754 b9be af8d 7cbf
00000210: 0ebd 1fbe 194a a53f ff62 7b3e af20 2dbf
00000220: 5ef4 22bf 6889 9fbf fce2 34bf d3d9 41bf
00000230: 5eb4 0bbf 7cd3 343e 83d9 72bf 2f46 1540
00000240: 240c a83c 77cb 73bf 31e9 b1bf d391 ec3e
00000250: 5500 f7be 24e9 1c3f f947 cdbe 5348 2abf
00000260: 4618 cbbf 28b2 83bf 2ba1 4a3f fff6 57bf
00000270: d55d 25bf 4db6 11bf bd9b ae3e cdb0 79bf
00000280: 69df f23d 289d 213d 92de 04c0 5a27 67bf
00000290: a639 623f 0feb 79be be2d bfbf f761 efbf
000002a0: 3df7 123e 4e0d 77bf 7165 27bf d610 7fbe
000002b0: d20c 94bf f54c a2bd 79eb abbf 42b1 44bf
000002c0: 5c45 54be 955f 193e 63b1 46bf 1b03 d13f
000002d0: d6d7 973d 8a98 55bf 7ca7 0e3f 1917 953f
000002e0: 6faf 043f df26 033e d95a bb3e b437 edbe
000002f0: 9a91 8c3e e456 d0be 1124 c3bf d0f0 3abf
-0.25395912 -0.3079947 -0.42614177 0.07096981 0.252886 0.34511042 -0.33281958 0.34092072
-0.52984667 -0.33030137 -0.44985762 -0.28379998 0.21863699 -0.38777217 -0.20519948 0.057538904
-1.9303192 0.2139337 -0.09203333 1.0504947 0.85692775 -0.9715732 -0.13938025 0.32447165
-0.12249738 -0.14773679 -0.14034891 -0.8650488 -0.63215584 -0.21954069 -1.6781209 0.8666972
-0.39094007 0.69787973 0.7068025 1.9594433 -0.287384 -0.1814903 -0.18224217 0.6953915
-0.60321265 -0.5391329 -0.09239471 -0.90492785 -0.5354658 -0.5244739 -0.14436466 -0.0824936
-1.3143277 0.5408567 -0.1703861 -1.7819928 -0.342251 0.30305287 -2.1048985 -0.06676679
-0.22866331 0.20684141 0.24975404 -0.6103255 -0.108287826 0.22941013 1.0255505 -0.49812183
-0.8295016 1.186142 -0.59159106 -0.70415306 -0.91229737 1.0200411 -0.51958627 -0.56027174
-0.41498074 0.761506 -1.263677 -2.1169405 0.8863188 0.28127006 0.29781222 -0.1634458
-0.2180791 -0.86440474 -0.7808024 -1.7765256 -1.2575738 -1.0536901 1.1042703 -0.11565074
-0.20851028 0.2624961 -0.33550003 -0.33813867 -0.8194054 0.15447152 0.10575467 -0.004795909
0.5805234 1.3759149 -0.08565001 -1.0328765 -0.4661646 0.46099815 0.5112107 -0.96234
-0.9511702 -0.5218176 -0.57882375 -0.2821826 1.0096606 -0.86783445 -1.406425 -0.028294636
-1.419822 -1.8887821 -0.26991042 -0.9668424 -0.23345198 -0.28085765 0.20781344 -0.41102147
-0.2786952 -0.035120208 -0.8336894 -0.36081627 0.9036415 -1.6181326 -0.4847201 -0.27780792
-0.28213277 -0.43724915 -0.36197206 -0.9865369 -0.15599462 1.2913238 0.24549483 -0.67627996
-0.63654125 -1.2463808 -0.7065885 -0.75723 -0.54572093 0.176588 -0.94863147 2.3324087
0.020513602 -0.9523234 -1.3899289 0.46205005 -0.4824244 0.61293244 -0.40093973 -0.6651661
-1.5866783 -1.0288744 0.7915217 -0.8436126 -0.645963 -0.56918794 0.34103194 -0.975354
0.11859018 0.039456517 -2.0760846 -0.9029442 0.88369215 -0.24406074 -1.4935834 -1.8701771
0.14352126 -0.96504676 -0.6538916 -0.24908766 -1.1566412 -0.07924835 -1.3431236 -0.76832974
-0.20729584 0.14977868 -0.7761442 1.6329073 0.07414214 -0.8343588 0.5572431 1.1647674
0.5183019 0.12807797 0.3659275 -0.4633156 0.27454835 -0.40691292 -1.5245382 -0.730237

conv2.lin_rel.weight f4 [64, 64]
00000000: 10c8 863c 40a7 e13b 9a13 a3bc 4855 a0bd
00000010: c010 77bc cfaf 7abd 5a27 0ebe 6905 4abd
00000020: 408e d2bc 796a 0abe 74f7 313d 2a62 1ebe
00000030: 1c72 4c3c 809f a8bd cce3 263c 35de b33c
00000040: b978 a8bd c881 193c fc58 1f3c e9db 87bd
00000050: 355e 87bd c7f7 bcbd 433f bbbd b307 42be
00000060: 0e00 a8bb 347a b4bd b987 7ebd facb 36bc
00000070: cef8 17be e092 26bc 275d 24be 3afe a2bd
00000080: f4bf 13bd 8644 0bbe 1d4c 99bd 6cba e73d
00000090: 04da 6f3d 68a4 01be 99e0 913d 7e3c 10be
000000a0: bb9f 9c3c 997e 073e ff67 5dbd b270 21be
000000b0: 16ac e3bc 6284 903c fb84 08bc e6cb b7bd
000000c0: e68c 01be 26ac d0bd da46 0bbe f88b 46bc
000000d0: 1e3d 32bc b090 24be 3613 993d d5eb 803d
000000e0: 7b54 573b 9ab1 85bd 1764 913d ea07 0cbe
000000f0: ee60 04be 9317 7f3c 9369 9a3d 78f0 4fbc
00000100: b037 e5bc 6aa7 d83d 5328 93be da2f 82be
00000110: b017 3d3c 1505 7ebe 38b9 52be 0491 64be
00000120: 9c03 993d face 4dbe 906e aabd 6038 d9be
00000130: fc4a b0be c79d 5ebc 57b2 5fbe 923a 34be
00000140: 1ebb cfbe c11e babe ef9f 82be 711e 16be
00000150: a2fd 64be a3cd 04be 23d8 49be 2cb4 84be
00000160: 0931 12be 8f81 21be a86d 17be fec8 7bbe
00000170: b798 14be 8c5f 93bd b30b 04be d852 bbbd
00000180: 4181 27be 31af 3fbe abd2 a3be 08a4 d93d
00000190: 7b64 93be 0f09 07be 422c 2e3e 84fe a5be
000001a0: 27cd 3dbe b114 a83d 1356 44be f5a7 a4be
000001b0: f516 6ebe 6a3c e0bd ad2f 0bbe d461 2ebe
000001c0: dc9f 063d 280a 823d 574e 76bd 6ef4 673e
000001d0: b9f6 8fbe 7a91 20be 0ab0 8fbe cfd5 3abe
000001e0: 1300 18be 58b3 c8be 3d3d 393d 7e3d e8bd
000001f0: 17c1 c6be abde 11be 8dec 47be 309c 1e3d
00000200: 2d30 b13a 4ab6 bebd a17e 9cbd 232a 14be
00000210: 5607 a4bd 898f 7cbd ec2a 1bbd 3615 a8bc
00000220: 3ec7 f9bd 4a60 21be 418a f43d 2aff 003d
00000230: e73b 4ebe ff64 443d 5fa8 fbbd 30c7 43bd
00000240: 1919 523c 8309 bcbd 34f5 273e c535 c5bb
00000250: 47db f4bc 0ad1 da3c f083 cbbc 4560 5e3d
00000260: 9107 e7bd 57f1 f73b b085 0dbe 49b0 d6bd
00000270: e9d3 14be 4885 4c3d e132 9abc 9006 c3bd
00000280: 6784 c23d 23bc 87bd c41d 08be 00c1 d43d
00000290: 34d2 5cbc 2d75 c6bd d0c2 8ebd 4a2f ddbd
000002a0: c2ea 96bd 5f40 753d 4f7e 2cbe 723d 42bd
000002b0: a78e 15be 9417 c1ba 6d1a 1ebd 5406 dabc
000002c0: 3334 2dbd a1f9 86bd 74d5 9cba f61c 4fbd
000002d0: b7ef f5bc 2b44 2cbe c8e7 c03c 377a 93bb
000002e0: bd73 60bd 6440 dfbd 04c6 97bd 3950 3e3c
000002f0: 7826 26bd 555c 75bb a1f1 293d 7ac8 6fbc
00000300: 5cd1 fa3d 844c 803d cec4 813d 8eee 4fbd
00000310: 283c d73c 5c34 32be 43a2 20bd 5514 4f3c
00000320: 8cf9 723d 79ec bfbd a766 a03d 64a2 893c
00000330: 49cd c0bd c086 bf3d 54b6 9ebd 56c7 c5bc
00000340: 1e62 c3bd 28fc abbd f44a 39bb 168d f1bd
00000350: aa89 fdbd effb 9fbd f074 89bd 8060 60bd
00000360: c1d5 a5bb 4959 65bd 8ff7 19be 9cd6 3c3d
00000370: 82eb 21be e016 c5bb 839a 89bc 9028 d1bd
00000380: 1629 833d a0c7 18bd 29ba 12be 8814 f83d
00000390: 698d 80bd 0176 f1bd 3899 8d3d 1ac1 86bc
000003a0: b436 dabd ee27 d1bd bbb5 70bd 5a7f bfbd
000003b0: 8aeb 06be 9749 84bd a52a 12be bafb 7bbd
000003c0: c40b 453d cb01 d4bd 410d 96bb 662e 8abd
000003d0: 1220 20be ba76 30bd 00d5 68bb c643 8fbd
000003e0: 2d7e 863c 62ff 9aba f788 a73d c965 02bd
000003f0: 069d 2cbe 59d1 d0bd 4208 01be 7897 c7bd
0.01645282 0.006886393 -0.019906808 -0.07828766 -0.015079677 -0.06120282 -0.13882199 -0.049321566
-0.025702596 -0.13517179 0.04344888 -0.15467134 0.012478378 -0.08233547 0.010186147 0.021956543
-0.08226151 0.009369321 0.009725805 -0.066337414 -0.066097654 -0.09226947 -0.091429256 -0.1894825
-0.0051269596 -0.08812371 -0.062141154 -0.01115703 -0.14841005 -0.010166854 -0.1605116 -0.07958646
-0.036071733 -0.13600358 -0.074852206 0.11314854 0.058557525 -0.12660372 0.07122917 -0.14085576
0.019119134 0.13231887 -0.054054257 -0.15765646 -0.027792018 0.01764125 -0.008332486 -0.089744374
-0.12651405 -0.10189085 -0.13601246 -0.012118332 -0.010878829 -0.16070819 0.07474367 0.062949814
0.003285675 -0.065280154 0.07099169 -0.13674894 -0.129276 0.015569585 0.07539668 -0.01269161
-0.027980655 0.10578807 -0.28741702 -0.25427133 0.011541292 -0.24806626 -0.20578468 -0.22320944
0.074713916 -0.20098487 -0.083218694 -0.42425823 -0.3443221 -0.013587422 -0.21845375 -0.17600468
-0.40572447 -0.36351588 -0.25512645 -0.1466005 -0.22362378 -0.12969069 -0.19711356 -0.2591871
-0.14276518 -0.15772079 -0.14787924 -0.24588391 -0.14511381 -0.071959585 -0.12895088 -0.091466606
-0.163579 -0.18719174 -0.31996664 0.106269896 -0.28787598 -0.1318705 0.1700907 -0.32420743
-0.1853529 0.082070716 -0.1917346 -0.3215939 -0.23250945 -0.10949023 -0.13592406 -0.17029506
0.032867298 0.063495934 -0.060133304 0.22651836 -0.28117922 -0.15680495 -0.28063995 -0.18245624
-0.14843778 -0.39199328 0.045224417 -0.11339854 -0.3881919 -0.14245097 -0.1952383 0.03872317
0.0013518386 -0.09312113 -0.0764134 -0.14469199 -0.08009212 -0.061660323 -0.03788273 -0.020517927
-0.121962056 -0.15759388 0.11940432 0.031493343 -0.20140038 0.04794788 -0.122879736 -0.047797382
0.012823367 -0.09181502 0.16402131 -0.0060183727 -0.029889716 0.026711006 -0.024843186 0.05429103
-0.1128074 0.0075666117 -0.13820529 -0.104828425 -0.14533962 0.049931794 -0.01882309 -0.09522736
0.0949791 -0.06627681 -0.13292605 0.10388374 -0.013477851 -0.09690318 -0.06970751 -0.10800035
-0.07368995 0.059875842 -0.16845058 -0.04742188 -0.14605199 -0.0014731758 -0.03859942 -0.026614346
-0.04228611 -0.06590582 -0.001196547 -0.05056473 -0.030021532 -0.16822879 0.023548022 -0.004500653
-0.054797877 -0.109009534 -0.07410815 0.011615806 -0.04056403 -0.0037439067 0.0414902 -0.0146352
0.122469634 0.06264594 0.06336366 -0.050764613 0.026273802 -0.17402786 -0.039217245 0.012639125
0.059320018 -0.093712755 0.078320794 0.016801067 -0.09414155 0.093518734 -0.0774962 -0.024142902
-0.09540199 -0.08397704 -0.0028273435 -0.11794488 -0.12379773 -0.078117244 -0.06711757 -0.05477953
-0.005060882 -0.055993352 -0.15035842 0.046103105 -0.15812495 -0.00601469 -0.01679731 -0.10212815
0.06404321 -0.037299752 -0.14328827 0.12113291 -0.06276972 -0.117900856 0.0691399 -0.0164495
-0.10654965 -0.10212694 -0.05876706 -0.09350462 -0.13175789 -0.06459349 -0.1427408 -0.061519362
0.048106924 -0.103519045 -0.0045792167 -0.06747131 -0.15637234 -0.043081976 -0.0035527349 -0.06995349
0.016417587 -0.0011825378 0.08180421 -0.03183535 -0.16856775 -0.1019618 -0.12600806 -0.09745687

conv2.lin_rel.bias f4 [64]
00000000: 0ef6 7ebd 1293 87be f80d 4ebe f4af 09be
00000010: 3143 0ebe 44d2 393d a972 96bd af71 b5bd
00000020: f279 0cbe f87e 60bd 2160 dbbc 761f 8abd
00000030: 2480 26bc 26d9 1bbe b2bf 8ebe b60d 0cbf
00000040: 68f7 3dbc 5887 34bd 7167 423d 9d09 41be
00000050: 474f 023d 7cfb 78be 4e06 a6bd 50e4 e9bc
00000060: 8653 c9bd 0a9d 8fba 5713 95bc 317d 69be
00000070: b608 d73c 0c75 42be 5f55 e2bd c322 353c
00000080: 2047 1cbd 8f86 32bd 959d 0fbe c1ae 97be
00000090: fb29 6d3e d8cb 82bd 8773 52be 1e02 e3be
000000a0: 7657 e6bd 5f7a b33c 2f22 a0be c685 23be
000000b0: 6941 583c 80e9 02be 178e d8bd 4d07 3c3c
000000c0: 32a6 d83c 8740 eabc 9f02 633d 28f1 bbbd
000000d0: 1544 8abe 3426 98be d94d bfbd 87ab 15bf
000000e0: 7b7a 12be 8da1 b9bd a839 08be 7009 6bbe
000000f0: e299 5cbe 798b 09be 7404 26be 2281 1b3c
-0.062246375 -0.26479393 -0.20122516 -0.13446027 -0.13892819 0.04536654 -0.073460884 -0.08859574
-0.13718393 -0.054808587 -0.026779236 -0.06744282 -0.010162387 -0.15219554 -0.27880627 -0.5470842
-0.011594631 -0.044074386 0.04746193 -0.18851323 0.031813886 -0.24314684 -0.08106671 -0.02855125
-0.09830384 -0.0010956835 -0.018197699 -0.22801663 0.02624927 -0.18989962 -0.110514395 0.011055651
-0.038153768 -0.043585356 -0.14024957 -0.29625514 0.23160546 -0.06386536 -0.20551883 -0.44337553
-0.112471506 0.021908937 -0.3127608 -0.15969 0.013199189 -0.12784386 -0.105739765 0.01147635
0.026446436 -0.028595222 0.05542242 -0.09176856 -0.27005067 -0.29716647 -0.0934102 -0.58464855
-0.14304535 -0.090640165 -0.13303244 -0.22952819 -0.21543077 -0.13432111 -0.16212636 0.009491237

conv2.lin_root.weight f4 [64, 64]
00000000: 23f2 aabd 7035 693d 3d9d 863d 600e 953d
00000010: 7012 57bd f30b c1bc c9a6 a83d 8a7b 2abe
00000020: 18c5 e83d 881b 4d3d 532d d5bd 4192 3b3d
00000030: b933 8a3c 09fc dcbd 5a75 5dbd 757c 03bd
00000040: 47ae 50bc 21c8 223d 0fa0 f9ba 1b96 0ebe
00000050: 9e3e e1bd 7e16 2abe 321b 653a 4790 55bd
00000060: 4144 2bbe cd17 58be d1b2 e9bd b821 7f3c
00000070: bc53 1dbd 220c c43d 5b19 9dbd 1893 c6bc
00000080: bab3 17be 547b 27be 0f0b 1cbe 00f7 d33c
00000090: ef2f 12be 7b65 d1bd d2ac 923d 1f83 0bbd
000000a0: b542 b3bd 9e8d 03be 07dc 88bc a998 553d
000000b0: 5d2f 5e3d 26fe 8e3d 5a31 74bd 258d b2bd
000000c0: 58d8 a33d 8859 ccbc 1d23 26be 3bab 8cbc
000000d0: c1ea 74bd 7108 45bd 80de 87bc 3f09 283d
000000e0: f0cf 11be a43b 16be 53c0 babd 191b 06be
000000f0: f70b 11be d04c 26be 7826 25bd 3c4f 61bd
00000100: 507c 293c 140e 5dbd d76d 94be 0840 91be
00000110: 3e9a 9bbd 34c3 96be 2f95 5abe 3d53 c1be
00000120: ec0f 6fbd 66f4 acbe 1e5f b9be 188a 79be
00000130: 3424 a6be 5b85 f73d 5ec3 bbbe eb7e 623d
00000140: 4180 1dbe 84ff 57be a5cf 23be e489 493a
00000150: 01e0 1dbd 5a81 6ebe 6fcb 89be ab36 3ebe
00000160: 53b2 29be a601 8ebe 8102 4a3d 6573 b9be
00000170: c5e3 b9bc 401c d13c 3407 dcbd 28ff d6bc
00000180: 1761 e6bd 9b71 82be a7ee a4be 7876 9abc
00000190: 950e d4bd 8084 8d3c 2fbf 2f3d 17be 57be
000001a0: e01f 04be 5533 873d cf53 b2be d6a3 87be
000001b0: c44a efbd 43ab fbbd 31bf 3bbd 8263 0dbd
000001c0: 1b19 c4bd 25ce 03be 9670 04bd ade4 8b3e
000001d0: bf46 afbe 4f67 a5be 237c abbe df5b 04be
000001e0: 863a 5ebe 957a 71be a5db 3cbe cb8c b4bb
000001f0: 0d0a 35be 9f86 d8bd 5a89 9bbe 8c6e 94bd
00000200: ab12 79bc a430 6bbd 0704 f8bd c8f0 35be
00000210: 087a 9c3d f88c e6bd 0337 44bd d81d b2bd
00000220: a063 c3bb fe48 21bd fc95 f63d b84e 14be
00000230: e93e a4bc 6399 e03d baa7 a2bd 2c2f 24bd
00000240: cd43 ed3c aba9 f5bd dd46 bb3c f15f 46be
00000250: 33da f3bd 0ff2 c0bd 2114 46be dcce 91bb
00000260: 37c8 13bc 3d98 b93d 2307 b7bd a476 8a3c
00000270: e6e2 3cbe 3e66 d9bd ba42 47be b29a babd
00000280: 1b68 303e 3868 bebd 5429 1ebd b6b2 973d
00000290: 38aa 91bc ba4a 30bd 79f1 c7bd 33bd 2ebe
000002a0: 923e 693c 57c2 1ebd 86cd fabd 8531 933b
000002b0: 0de2 97bd 5fe9 16be c786 8c39 9ab9 343d
000002c0: 5448 bb3b 902f fdbd cff9 1ebe 1cbe 3ebd
000002d0: 63e3 47be 21da d73c a0b5 cfbd 4a22 f5bc
000002e0: 3960 11be 829d 4fbd c157 1e3e 65d3 af3d
000002f0: 25f3 4ebd cb5e a4bd 2166 84bd 145f cbbd
00000300: e054 1cbd c0bc a93b 6392 3e3d 5186 9bbd
00000310: 6035 d33b 975f 673c d2ae f5bd 330c 2dbe
00000320: a8de 6c3d 79b3 9abc f8a6 d33d b711 fcbd
00000330: 13c0 27bd 0073 84bc 00e6 4b3d 3896 c7bd
00000340: 4881 3a3d 80c0 4e3d acbc bbbd 0741 3a3b
00000350: 1304 36be ca92 703d 6a0a b2bc c044 7f3b
00000360: 80e4 3ebc 00e0 1cbd 44e2 21bd 5df9 c03c
00000370: e429 113e 688f 853c cfd6 c4bd 4032 a2bd
00000380: c3da 0dbe 8be6 5fbc 77fb 213d c497 07bd
00000390: 903f 37bc 1f70 35bd 6ce4 1f3d 0e6a d63b
000003a0: f1a8 06be e54e 3abe 0f67 3cbe 9ca4 063d
000003b0: c21f 523d ff9f 3f3d 1cad 013c 340b 8ebd
000003c0: e2e6 17be 9b74 3cbd e46d b2bd 460c b8bd
000003d0: 1153 22be 1ae4 adbd 73ba 3e3d 6403 fbbd
000003e0: 47b4 f6bd abde 00bc 0825 7a3d 443f 88bd
000003f0: a85e 09be 7dde 18be 28e2 8139 c942 97bd
-0.08346965 0.056935728 0.065729596 0.072781324 -0.052507818 -0.023565268 0.08234937 -0.16648689
0.11365718 0.050075084 -0.104090355 0.045793775 0.016870366 -0.107902594 -0.054066993 -0.032101113
-0.012736863 0.03974164 -0.0019044894 -0.13924448 -0.109982714 -0.16610143 0.0008739709 -0.052139547
-0.16725256 -0.2110283 -0.1141106 0.015572004 -0.038409933 0.09572627 -0.07670852 -0.024240062
-0.14814654 -0.1635564 -0.15238594 0.025874615 -0.14276098 -0.10224434 0.07161869 -0.034060594
-0.08752958 -0.12846991 -0.01670648 0.05214754 0.054244388 0.06982069 -0.059617378 -0.087183274
0.08000249 -0.024945036 -0.16224332 -0.017171493 -0.05979419 -0.048103753 -0.016585588 0.041024443
-0.14239478 -0.14671189 -0.09118714 -0.13096274 -0.1416472 -0.16240239 -0.04031989 -0.055007204
0.01034458 -0.053968504 -0.2899005 -0.28369164 -0.07597779 -0.29445803 -0.21345972 -0.37758818
-0.058364794 -0.3378021 -0.3620538 -0.24369085 -0.32449496 0.120859824 -0.3667249 0.05529682
-0.15380956 -0.21093565 -0.15997179 0.0007688089 -0.038543705 -0.23291531 -0.2691302 -0.18575542
-0.16571932 -0.27735633 0.049318794 -0.36220852 -0.022691617 0.025526166 -0.107435614 -0.026244715
-0.11248987 -0.254773 -0.32213327 -0.018855318 -0.10354344 0.017275095 0.042906936 -0.21068607
-0.12902784 0.06601588 -0.34829566 -0.26492184 -0.11684182 -0.12288525 -0.04583663 -0.034518726
-0.09575101 -0.12871607 -0.032333933 0.27322903 -0.34233662 -0.3230538 -0.33493146 -0.12925671
-0.21702012 -0.23581918 -0.18443163 -0.005509948 -0.17679615 -0.10572552 -0.30378228 -0.07247648
-0.015202205 -0.057419434 -0.12110143 -0.17767632 0.07640463 -0.112573564 -0.047904026 -0.086970985
-0.005962804 -0.03937625 0.12040326 -0.14483154 -0.02004953 0.10966756 -0.079421476 -0.04008405
0.028962994 -0.11995252 0.022860939 -0.19372536 -0.119068526 -0.09421169 -0.19343616 -0.0044497084
-0.009019903 0.0906224 -0.08936908 0.016902275 -0.1844593 -0.10615204 -0.19459048 -0.09111537
0.17227213 -0.09297222 -0.038613632 0.07407133 -0.017781362 -0.043040015 -0.09762854 -0.17064361
0.014236109 -0.038759556 -0.12246232 0.004491987 -0.07416163 -0.14737462 0.00026803298 0.044122316
0.0057154093 -0.123625875 -0.15524982 -0.04656802 -0.19520335 0.02634913 -0.10142064 -0.029923577
-0.14196862 -0.05068732 0.15463163 0.08585242 -0.05052485 -0.08025893 -0.06464792 -0.09930244
-0.03816688 0.0051799715 0.046526324 -0.07593978 0.006445572 0.0141219115 -0.11996235 -0.16899185
0.05782953 -0.018884407 0.10334581 -0.12308066 -0.04095466 -0.016168118 0.049779892 -0.09745449
0.04553345 0.05047655 -0.09166846 0.0028420107 -0.17774992 0.05873374 -0.021733481 0.003895089
-0.011651158 -0.03829956 -0.039522424 0.023556406 0.14176136 0.016303733 -0.09611284 -0.07919741
-0.13852982 -0.013665806 0.039546456 -0.03310372 -0.011184588 -0.04429638 0.0390362 0.0065434044
-0.13150384 -0.18194158 -0.18398689 0.032871827 0.051299818 0.046783444 0.007914808 -0.069357306
-0.14834169 -0.04600964 -0.08712366 -0.08986716 -0.15852 -0.084907725 0.04656453 -0.12256506
-0.12046104 -0.007865588 0.061070472 -0.06652692 -0.13415015 -0.14928623 0.00024773297 -0.07385785

conv3.lin_rel.weight f4 [64, 64]
00000000: 43ef 083d 2179 b6be 89a3 8b3d ef02 63bc
00000010: 0e26 92bd f341 d43d 1a4d 1d3d 3b82 293d
00000020: c7f0 eebd 40a1 093d 6a27 40bd d522 fdbd
00000030: 0668 a53d c8ff 533d cfed 1b3e cd1c 283f
00000040: 758b febb fbd1 afbd a5cf 8e3d 9bf4 843c
00000050: cd4e 0a3e 75cb 01bb 4d95 49bd 0d81 edbc
00000060: 5fc7 4dbd 2b48 9f3d b35f 15be 841c 2c3e
00000070: 325b 4f3d 25c6 b3bd b33e 2ebd aa17 33bd
00000080: d244 36bd 6b42 2a3e 278d 5dbc cd93 d2be
00000090: 49a5 d7bd 9cfe 8dbc cc97 183e a728 403d
000000a0: 0cc3 ca3d 34aa 11be 7239 8f3d a215 f6bb
000000b0: a547 0c3e 54f3 32bd 4173 25be a179 9abd
000000c0: 4563 2bbf 2f5d f73d 5af0 2d3f 09e6 2ebe
000000d0: 9edb 953c 6b3e db3d 0995 04be ed3b 1f3f
000000e0: a19a 95bd 4952 6f3d 2a08 02be 7828 12bd
000000f0: ea29 31bd fb7a 13be eb4a 73bd 54ad abbd
00000100: d3ef 96bd d71f df3d ecf2 9ebc bf0f 373d
00000110: eb22 9fbc 3c03 a03d 9dad 3c3d e381 04bd
00000120: 6bfa a8bc 1d5a 213d 29b0 903a 4bb0 083d
00000130: 8ffc 813d 712f 64bd e864 4bbe 1362 51bf
00000140: f5ce 14bd 47f9 01bd 32a4 1dbe e174 023e
00000150: e833 e53d 3a4f 2bbe e9bb 123d d110 adbe
00000160: 6be0 fb3d f4d0 2e3c 70d4 c3bd 6976 413c
00000170: 96f0 b53d d1a0 0c3e 3efd 343d 5dbe 87bc
00000180: 070e d13d 78ad c5bd a2b6 4bbd 8a47 323e
00000190: afe2 0c3e 6718 863d 2ebc 93bd 1e34 5bbc
000001a0: a0de a23d e58f c2bd a1c0 9d3d 2e70 343e
000001b0: a28c e83c 44e7 e23b 0150 9f3d a05a 9f3d
000001c0: d3b0 ec3e e893 e43c 850b f9be bcf7 10be
000001d0: 272c 013d f6de aebe c770 9b3d 4c71 363f
000001e0: 5ba7 203d 5baf a53d 7731 14be d4f3 193e
000001f0: b79a a037 a502 503d 542d 373d 3b3e 98bd
00000200: d7d6 75bd caea 91be 02c5 f23d f131 07bb
00000210: c3b0 cf3d f260 ad3b a231 70bb d896 83bd
00000220: 513e b63a 1690 15bd 721b 6d3c 77c5 3f3d
00000230: 5f11 963d 9a57 23bd 13dd bbbd 8ff1 923e
00000240: 1783 9bbd bed9 a03c ed57 043e 742e 013e
00000250: 314f d73d 7a23 c8bb 529b 303c dd25 fb3d
00000260: 342f c63d 1172 863d 0fdc eabd 6878 633e
00000270: 4357 35bd b2ae da3d a90e 3dbd 21d6 a3bd
00000280: 7912 e4bd c906 8e3d 6d6a 2b3e 9d35 cabd
00000290: 351b 88bd 6bfc 26bd a62f 363e cf96 f03d
000002a0: accd 1c3e c7db e1bd 56d1 d5bd 6027 b73d
000002b0: d819 1cbe 2490 3fbd 0e10 c4bd 6917 053d
000002c0: 2e7e 49bb 625c 41bd f746 d33d 918e 10ba
000002d0: 5298 48bd 3b71 913e 9eee 4c3c 26a8 9f3e
000002e0: ef10 0cbe 81ed ddbd d7fc aabc caba eabd
000002f0: f809 bcbd bb10 3fbd 383f dc3d ba01 aebd
00000300: 2113 95bc 31f0 443e 162b 3ebe cae4 0a3e
00000310: 1a8c 1dbe e696 093d 9b21 a93d 3cfe 00bd
00000320: 86bb f1bd 79ab 32bd b1d2 72bd a421 203e
00000330: 639f 03be ff24 a8bd bd98 1f3c b2f9 03be
00000340: 9026 a13b 06fa e4bd 9b19 20be e477 3dbd
00000350: f351 0cbe a721 203e a4fa d5bd efd9 12bd
00000360: 656c 233d 7568 ed3d 4b47 4dbd 23a7 77be
00000370: 5148 e3bd b453 44be 9de0 bdbd 183c d3bb
00000380: b631 bcbd 6317 bb3d e686 aabd 7ee9 4e3e
00000390: 2275 2ebd 862a 9bbd 4752 553d 97d9 0bbe
000003a0: 0523 28be 98f3 acbd 50f0 2c3c b388 133c
000003b0: c99c 933c 18ba d83a 68e6 b33d 64dd 073e
000003c0: e0ec bc3e 1c02 543d af2d 14bf e3eb 41bd
000003d0: c85c 32bd a5e9 e8bd e803 763d 3cf0 23bd
000003e0: ff5d d63d 1594 cc3d fad5 d5bc f0c3 f03d
000003f0: 9c70 f0bd 47b6 bb3d b0a1 2abe 8d59 043e
0.033431303 -0.3563929 0.06818301 -0.01385568 -0.071361646 0.10364141 0.038403608 0.041383963
-0.116670184 0.033601046 -0.04691259 -0.12360159 0.080764815 0.051757604 0.15227436 0.65668947
-0.0077680894 -0.085849725 0.06973199 0.016229918 0.13506623 -0.0019805108 -0.04921465 -0.0289922
-0.050238963 0.07777437 -0.14587288 0.16807753 0.05062408 -0.087780274 -0.042540263 -0.04372374
-0.044499226 0.16626899 -0.013522423 -0.41128388 -0.105295725 -0.017333321 0.14901656 0.04691377
0.099004835 -0.14225084 0.06993379 -0.007509903 0.13699205 -0.043689087 -0.16157247 -0.0754273
-0.6694835 0.1207832 0.6794487 -0.17079939 0.018293198 0.10705265 -0.12947477 0.62200814
-0.07304884 0.058428083 -0.12698427 -0.035683125 -0.043252863 -0.14402382 -0.05939762 -0.08382669
-0.073699616 0.10894745 -0.019402944 0.04469275 -0.01942583 0.07813117 0.046064008 -0.032350432
-0.020627221 0.03939258 0.0011038828 0.03337125 0.06347 -0.055709306 -0.19862711 -0.81790274
-0.036330182 -0.03173187 -0.15394667 0.12739898 0.11191541 -0.16729441 0.035823736 -0.33801892
0.12298664 0.0106699355 -0.095620036 0.011808016 0.08883779 0.13733222 0.044186823 -0.016570264
0.10207754 -0.09652227 -0.04973472 0.17410102 0.13758348 0.06547623 -0.07213627 -0.013379125
0.079526186 -0.09500102 0.07702757 0.17620918 0.028387371 0.0069245417 0.077789314 0.07780957
0.46228656 0.027902558 -0.486416 -0.14157003 0.031536248 -0.3415448 0.0758987 0.7126663
0.039222103 0.08090087 -0.14471994 0.1503442 1.9145531e-05 0.050783772 0.044720963 -0.074337445
-0.06001934 -0.28499442 0.118539825 -0.0020629133 0.101411365 0.005291098 -0.0036650677 -0.064252555
0.001390407 -0.036514364 0.0144718755 0.046819177 0.07327532 -0.039878465 -0.09173026 0.2869992
-0.07593363 0.019635078 0.12924166 0.12615377 0.105131514 -0.0061077448 0.010779219 0.12263081
0.09676972 0.06564725 -0.11467754 0.222139 -0.044272672 0.10677852 -0.04615656 -0.07999826
-0.11136336 0.06934888 0.16739817 -0.09873507 -0.06645814 -0.04076807 0.17791614 0.117475145
0.15312833 -0.11028247 -0.10440318 0.08943057 -0.15244234 -0.046768323 -0.09573375 0.03249303
-0.0030745375 -0.047207244 0.1031627 -0.0005514408 -0.04897339 0.284067 0.012508063 0.31182975
-0.13678335 -0.10836316 -0.020872517 -0.114614084 -0.09181589 -0.046646815 0.107542455 -0.08496423
-0.018197598 0.19232251 -0.18571123 0.13563839 -0.15385476 0.033591174 0.08258363 -0.031492457
-0.118033454 -0.04362056 -0.059282962 0.15637833 -0.1285377 -0.082101814 0.0097410055 -0.1288822
0.004917927 -0.11180501 -0.15634768 -0.046256915 -0.13703136 0.15637837 -0.104481965 -0.03585237
0.039898295 0.11592189 -0.05011682 -0.24184851 -0.11097778 -0.19172555 -0.09271357 -0.0064463727
-0.09189169 0.0913532 -0.08326511 0.20206258 -0.042592175 -0.0757647 0.05208042 -0.13657223
-0.16419609 -0.08444899 0.010555342 0.00900476 0.018019097 0.0016534952 0.08784181 0.13268048
0.3689947 0.051759824 -0.5788221 -0.0473441 -0.043545514 -0.11372689 0.06006232 -0.040024027
0.10467147 0.09989182 -0.026103009 0.11756122 -0.117402285 0.09165626 -0.16663241 0.12924786

conv3.lin_rel.bias f4 [64]
00000000: e41d 9a3d 856f 51be cb1b f33d 63a1 5d3c
00000010: 1592 cc3d e34c 61be 10bf 833e 9cb0 d5bc
00000020: fff4 03be 9614 fa3d 5f4c 153c 3056 2339
00000030: b992 9c3d 1fdd bbbd a203 51be 5c66 1b3e
00000040: f69a 3dbe 1c48 92be 7ad3 233e 084e a83e
00000050: c43e 3d3d c17d 8d3e 6205 b23e 67a9 c13d
00000060: 14a3 6cbe d3db c6bd cbe7 d8bd d91a a43d
00000070: d8be 95be 6002 41be 638a 023e 5421 b3bd
00000080: bf82 ce3d 5e8b a2bd 244f 10be e887 24be
00000090: 862c 853e 5b0c 293e c772 cf3d 4c73 893a
000000a0: 6e02 9fbe 9369 193e 1569 2b3e 57af 5abe
000000b0: b00e a13d 818f 21be 96bd 4cbe 2f63 283e
000000c0: 07de 593e 7d33 e13c b977 4b3d 2e5d 0fbc
000000d0: cdc7 e0bd 4edc 9c3d 85a8 95bd 4e6c 40be
000000e0: c118 f8bd 5136 973d b417 6bbe e040 cdbd
000000f0: b08e 8cbc 671e 6c3d fe68 4dbe 6ecf f33d
0.075252324 -0.20452698 0.118705355 0.013527247 0.099888004 -0.22001986 0.25731707 -0.02608519
-0.12886427 0.12210958 0.009112447 0.00015576999 0.076451726 -0.09173035 -0.20411542 0.15175766
-0.18516144 -0.2857064 0.1599864 0.32872033 0.046202436 0.27635005 0.34769732 0.09456139
-0.23109084 -0.09709897 -0.10591086 0.08012933 -0.29247165 -0.18848562 0.12748103 -0.08746591
0.100835316 -0.079367384 -0.1409269 -0.16067469 0.2601053 0.1650862 0.10129314 0.0010486632
-0.3105654 0.1498168 0.16739304 -0.2135595 0.078641295 -0.15777399 -0.19994196 0.16444086
0.21276103 0.027490372 0.049674723 -0.008750243 -0.10975609 0.07659207 -0.07307533 -0.18791315
-0.121140964 0.07383407 -0.22958261 -0.100221395 -0.017157882 0.05764618 -0.20059583 0.119047984

conv3.lin_root.weight f4 [64, 64]
00000000: 24d4 aab9 29a6 69be eff7 ae3c d0de d7bd
00000010: 7030 39be f97f e4bd 69cb 803d db76 ec3c
00000020: e6cc 20be 0ed9 373d f498 0fbd c2ad 123d
00000030: b56a 64bd 6608 28be 5b9d 403e 4cf2 873f
00000040: 4eb5 193e d941 1dbe e768 b2bc c795 e93c
00000050: 627f 073e a64d fc3d 8a42 d33d b707 18bd
00000060: cec7 6d3d 21b6 813d daf1 c3bd 06cd 7e3d
00000070: e81c b6bc c4ed 443c d571 023e 7be0 d23d
00000080: 5d5e 9abd 54b3 0c3e ab31 023e 84b6 92be
00000090: ffcb f7bd 737f d93d 89fa b13d 50b3 573e
000000a0: 514a 693d 2bd2 683d 34e8 953e fb26 b43d
000000b0: 5e66 dcbd e022 9ebd ae07 d4bd e672 003d
000000c0: 82bf 38bf 596b 273e bc72 693f c2d7 13be
000000d0: b6d6 f4bd 6434 743e 2c7f 49bd f9b8 ef3e
000000e0: d5ea 403d 84eb e2bd 8b0d 813c e465 6e3d
000000f0: 3beb 36be 819d 70bd d9f1 05bc 16fa 04be
00000100: f2c2 c5bd 8b94 aa3d 4b56 273e 20a0 c9ba
00000110: d518 cabc 848a babc 8979 59bd 95ed 1f3d
00000120: c975 d0bd b9a7 a0bd 115b d93c 919c 123d
00000130: e33f 233d dc3e 753c e8ff 9cbd 3793 cbbf
00000140: 90fb 693b 33fc c4bd 78fa 95ba fca1 653d
00000150: b52a 8d3d 878d e2bc c772 17be 19b4 7bbd
00000160: 4d13 0ebc 9dfd 7d3d 66f4 a03c 13de e1bd
00000170: 9429 693c a889 dd3c 8bb4 533d 11fe 86bd
00000180: 52ee 32bd 6397 05be 55e4 32bd 092d ba3e
00000190: d9d2 a13e 9428 a13d e9ae 30be e704 fbbd
000001a0: 525c 93bc f018 1cbd e826 413e 7545 cbbc
000001b0: 72ec 00be 90fe 8a3c 0cc8 c4bc 90f3 023c
000001c0: ffe9 283f 427b 35bd 3760 48bf a4a7 e83c
000001d0: c17c 913d a617 e1be f99c c9bd 0fe3 013f
000001e0: 7593 08be bf82 a73d 6b38 5bbe 7b44 de3b
000001f0: 08cb d43d e7e5 3c3c 434a 2f3d 3720 13be
00000200: 0274 3c3d e7b3 62be c9d9 003e 4a1c d6bd
00000210: 412b b93d e45f a9bc fdef 623b 057a 52bd
00000220: 8ddf 05be e786 293d eae8 e0bb 73a3 c2bc
00000230: 6f25 a7bc f4c6 96bd 88aa a33d 268f a83e
00000240: 7681 a73d 4696 9b3d 3189 b2bc ff85 a63d
00000250: 6197 803d 0670 26be f533 96bd bae5 c6bc
00000260: dd6d 053e e760 9c3d f7c3 87ba 2848 333e
00000270: 8292 86bb 4a55 053e 1eca 78bc f42e 7bbd
00000280: 8d0b dcbd 6c6e 06bd d251 453c 731c 1cbc
00000290: e510 723d 0d2c 803d 80d3 983c 26f4 483e
000002a0: c7f0 ee3d 9917 bbbc 98cb e63d 6980 6c3c
000002b0: 61c2 d43a aa12 d23c b14c 9cbd a99f fcbd
000002c0: cc61 6abd de79 9d3a d0e8 983e 59a0 953d
000002d0: ada1 0d3d 2a20 4e3e 7d89 96bd a7ac d73e
000002e0: 3f48 b43c 7689 dd3c 22e0 d83c f88d 09bd
000002f0: 1e2d 6ebd a6d3 623d d729 c33b be4b 07bc
00000300: 2464 d63d b3ad 9c3e b673 acbd f514 0c3e
00000310: e6f0 9fbc 2ba0 143e 41be 3abe b65e c73d
00000320: 1b86 b2bd dc17 003e e530 82bd 275d f93c
00000330: b7ca 23bd 36b5 63bd 3d0c 77bc a070 15bf
00000340: b3fe c9bc 868a 36be aef7 acba d0bb 09be
00000350: 634a abbd 10dd 573a 326d 013d ed99 5e3d
00000360: 1d9c 36bc 6ba4 0b3e f501 f63b f758 70be
00000370: 8412 fabc 1458 2abe c397 0a3d 8e67 5e3c
00000380: 4854 a13d 8f11 933d eb33 23bd 6edb 733e
00000390: ee9c be3d bc4f bcbd c4b4 173e 20b3 8dbe
000003a0: e593 36bb cfd3 3bbd 2dc1 1e3d 8bcc 9dbd
000003b0: 5696 123d 6c4e 09be 4b6d 6c3d 0389 98bd
000003c0: ff43 163f e3b2 593c 0c51 25bf 45c8 e33c
000003d0: 8fbc 6abd c557 42be 6c19 e5bd 03be b63d
000003e0: f3a6 1ebc e251 b63d c740 62bd 92dd d93d
000003f0: d2a1 0dbe f928 143e 83f4 3cbd 82ed 9a3c
-0.00032582984 -0.22817291 0.021358458 -0.10540545 -0.18084884 -0.11157221 0.062887974 0.028865268
-0.15703163 0.044884734 -0.035057977 0.03581024 -0.055765826 -0.16409454 0.18810026 1.0620818
0.15010568 -0.1535715 -0.021778537 0.028513802 0.13232186 0.12319498 0.10315426 -0.037116732
0.058051877 0.063335665 -0.09567614 0.062207244 -0.02223058 0.012019578 0.12738736 0.102967225
-0.075375296 0.13740283 0.1271426 -0.28654873 -0.12099456 0.10620012 0.08690364 0.21064496
0.05695564 0.056841057 0.2927872 0.087964974 -0.107617125 -0.07721496 -0.10353027 0.031359576
-0.7216722 0.16349544 0.91190696 -0.14437774 -0.11955015 0.2384811 -0.049193546 0.4682081
0.047098953 -0.11080077 0.015753528 0.05820264 -0.17863171 -0.058743957 -0.008175337 -0.12986025
-0.096563235 0.083291136 0.16341512 -0.0015382804 -0.024670044 -0.022771128 -0.05309442 0.039044935
-0.10178716 -0.078444906 0.026532682 0.035793845 0.03985585 0.0149686 -0.07665998 -1.5904301
0.0035702921 -0.09618416 -0.0011442443 0.056062683 0.06892911 -0.027655376 -0.14789878 -0.06145105
-0.008671594 0.062009443 0.019647788 -0.110286854 0.014231104 0.027043179 0.05168585 -0.06591428
-0.04368431 -0.1304603 -0.043674786 0.36362484 0.31606176 0.07869068 -0.17254223 -0.122567944
-0.017988358 -0.03810972 0.18862498 -0.024813393 -0.12590197 0.016967088 -0.024021171 0.00799264
0.6598205 -0.044307 -0.7827181 0.02840025 0.07103873 -0.43963355 -0.09844393 0.5073709
-0.133375 0.08179235 -0.2140824 0.006783066 0.10390288 0.011529422 0.04279543 -0.14367758
0.04600907 -0.2213894 0.12583078 -0.104546145 0.09041453 -0.020675607 0.0034627907 -0.0513859
-0.13073559 0.04138842 -0.006863703 -0.02375958 -0.020403592 -0.07362166 0.07991511 0.32921714
0.081789896 0.07597022 -0.021793934 0.081310265 0.06278873 -0.16253671 -0.07334129 -0.024279464
0.13030191 0.0763567 -0.0010358085 0.17507994 -0.0041068206 0.13020816 -0.015184907 -0.061324075
-0.10744391 -0.03282015 0.012043433 -0.009528267 0.059098143 0.06258402 0.018655539 0.19624385
0.116670184 -0.0228384 0.11269301 0.014434912 0.0016232246 0.025643665 -0.07631815 -0.1233514
-0.057222173 0.0012014469 0.29865122 0.073059745 0.034578014 0.20129457 -0.073504426 0.4212391
0.022007106 0.027043086 0.026474062 -0.033582658 -0.058148496 0.055377625 0.0059559154 -0.008257804
0.10468319 0.30601272 -0.084205076 0.1367987 -0.019524049 0.14514224 -0.18236639 0.097348616
-0.08716985 0.12509102 -0.06356982 0.030439926 -0.039988246 -0.055592738 -0.015078601 -0.5837498
-0.024657583 -0.1782628 -0.0013196373 -0.13450551 -0.083637975 0.000823454 0.031598277 0.054346014
-0.011145619 0.13636939 0.0075075575 -0.23471437 -0.030526407 -0.16635162 0.033836138 0.013574494
0.078774035 0.071810834 -0.039844435 0.23814175 0.09307276 -0.091948956 0.1481505 -0.27675724
-0.0027859148 -0.045856293 0.038758446 -0.07705029 0.035787903 -0.13408822 0.057721417 -0.07448008
0.58697504 0.013287279 -0.6457679 0.027805457 -0.05730873 -0.18978794 -0.111864895 0.089229606
-0.0096833585 0.08902337 -0.055237558 0.10637964 -0.13831261 0.14468755 -0.046131622 0.01891208

lin.weight f4 [2, 64]
00000000: fefe bebc b09a e7bc 837d da3b e6eb 993d
00000010: 07e6 dcbd e7dc 153e d7ad debd e7a3 b43c
00000020: 67eb ad3d 4c8d 9a3d 17c8 563d 90f4 463c
00000030: 30d5 53bd 50e6 dc3d 0ac4 afbc ac67 a2bd
00000040: 1b6d 323e f5e3 a53d b581 91bd 05f5 a2bd
00000050: 4e6c 03be 1d3b 31bd ff1e bcbd 1c41 0bbe
00000060: 1a04 0b3d 8a42 63bd a887 063d 8748 01be
00000070: 100b 313d 3cc9 1e3e fd1f 01be 216b 1e3d
00000080: 73ca 32bd 63ba 193d d8c3 073d 115f b93a
00000090: 684e 1bbe ed4f 44be a7c8 9e3b 6347 473d
000000a0: 8c79 633d 90f0 61bd f6b4 c5bd 6583 153e
000000b0: 26dd fbbd a62c a33d 9553 c23d de97 2c3a
000000c0: 9004 1bbd 141b 62bd 177a d3bc 5bfa fd3b
000000d0: fc39 c33c abb8 01bd f3b2 3b3d 3937 ea3d
000000e0: 7c61 743d b5a0 793c 103c 1b3e 64e9 2abd
000000f0: 9c7e d9bd 550a 24be 389e 8a3d 26d8 debd
00000100: 913c 083e ed64 52bd cc60 813c 9aa1 c5ba
00000110: 3527 043d 693c 50bc 830d e73d 079c d03c
00000120: a72f b0bd 3c47 a93d 5d13 b2bd 4798 04bb
00000130: bd3f 0a3d 289a e9bd 9513 06be a80e 2b3b
00000140: 1e2b 213d 2799 02be 9f95 293e a33a 703e
00000150: 3dc7 d83d e158 253d 6cf4 b83d 5a2e 723d
00000160: 9a9b e4bd 485f 90bd 28d0 97bd 7a20 9a3d
00000170: ea87 f8bd 3f62 26be a013 fc3d 2b72 8fbd
00000180: 8ff8 293e 2417 47bd 26e0 0cbe ce8b 96bd
00000190: 1cc0 0bbd cdb1 aebc 177f a93d 11d3 913d
000001a0: d42a f6bd 0ad6 813d 55c9 9e3c 432e c33c
000001b0: 70f2 0d3e 4d7b 74bd c042 823c a7c6 0e3e
000001c0: 7a65 f53d 6c57 26bd 6544 3a3e 52e8 b43c
000001d0: 66b4 973b 70fb 1f3e a95a 02bc b54b 9e3c
000001e0: 5df6 debc 94fc 313d 4486 dfbd ee36 10be
000001f0: fb4e d9bb 9118 f93d 0b98 08bd d6e6 3a3d
-0.02331495 -0.028272003 0.006667794 0.07515697 -0.10786062 0.14635049 -0.10873001 0.022050811
0.08492165 0.075464815 0.052436914 0.012143269 -0.051716983 0.10786116 -0.021455783 -0.0792993
0.17424433 0.0810012 -0.07104818 -0.0795689 -0.12834284 -0.043269265 -0.091855995 -0.13599056
0.03393946 -0.05548338 0.032844216 -0.12625323 0.04322344 0.15506452 -0.12609859 0.038676385
-0.043650102 0.037531268 0.033145756 0.0014142712 -0.15166628 -0.19171114 0.004845697 0.048652064
0.055535838 -0.05516106 -0.09653656 0.14600904 -0.1229804 0.079675004 0.09488598 0.0006583909
-0.037846148 -0.055201605 -0.025815053 0.007750792 0.02383136 -0.031670254 0.045824956 0.11436314
0.05966328 0.015236069 0.15159631 -0.041726485 -0.10619852 -0.16019566 0.06768459 -0.10881071
0.13304354 -0.05136578 0.015793227 -0.0015078068 0.032263953 -0.012709715 0.11281874 0.025465025
-0.08602839 0.0826554 -0.086950995 -0.0020232366 0.03375219 -0.11406356 -0.13093407 0.0026101265
0.03934776 -0.12753735 0.16560982 0.23459868 0.10584877 0.040367965 0.09030995 0.059126236
-0.11162491 -0.070494235 -0.074127495 0.07525726 -0.121352986 -0.16248415 0.12308431 -0.07004198
0.16598724 -0.048606053 -0.13757381 -0.073508844 -0.034118757 -0.021325016 0.082761936 0.07120336
-0.120198876 0.06339653 0.019383112 0.02382577 0.13862014 -0.0596879 0.01590097 0.13942967
0.11982246 -0.040610716 0.18190153 0.022083435 0.0046296595 0.1562326 -0.007956185 0.01932321
-0.027217085 0.043453768 -0.10914281 -0.14083454 -0.0066317297 0.12162889 -0.033348124 0.0456303

lin.bias f4 [2]
00000000: c894 453c 781f 5bbe
0.012059398 -0.21398723
