GNNModels/checkpoints/GNNGraphConv_MUTAG_epochs=300.pt (torch, 74594 bytes, 11 tensors)

conv1.lin_rel.weight f4 [64, 7]
0	0xbda33315	-0.079687275
1	0xbe940cfb	-0.28916153
2	0x3e50d09f	0.20392083
3	0xbc843a39	-0.016141044
4	0x3e1581ce	0.14600298
5	0xbe841668	-0.25798345
6	0x3ddf7019	0.10910053
7	0x3eeced47	0.46274778
8	0xbef4e7f6	-0.47833222
9	0x3f0d79e8	0.5526414
10	0xbe3aecc6	-0.18254384
11	0x3dbee324	0.093206674
12	0xbedbca2d	-0.42927685
13	0x3f978d11	1.1839925
14	0x3e9ca742	0.30596358
15	0xbf0d424b	-0.5517928
16	0xbebb8f18	-0.3663261
17	0xbe9797dc	-0.29608047
18	0xbe984986	-0.29743594
19	0x3e922d47	0.2855017
20	0x3f6c7bb4	0.92376256
21	0x3d4bf2f6	0.049792252
22	0x3f481339	0.7815433
23	0x3edb089a	0.4278
24	0xbe79ce77	-0.24395166
25	0xbe5c997a	-0.21542922
26	0xbe8779ac	-0.26460016
27	0x3f07e864	0.53088975
28	0xbec9edd1	-0.39439252
29	0xbf3878e2	-0.7205945
30	0xbe98de3b	-0.29857048
31	0xbee39356	-0.44448346
32	0xbe895dbe	-0.26829332
33	0xbe7e4daf	-0.24834321
34	0xbee3f974	-0.44526255
35	0xbe893cca	-0.2680419
36	0xbe1e150c	-0.15437716
37	0x3d83cdd4	0.06435743
38	0xbebdbd94	-0.370587
39	0x3e6abaa6	0.22922763
40	0x3de9d798	0.11418074
41	0x3e31d7c2	0.17367461
42	0xbe48ebca	-0.19621196
43	0xbb7c9488	-0.003854068
44	0xbe112e78	-0.14177883
45	0xbe9dfbe7	-0.3085625
46	0x3e6df45e	0.2323775
47	0xbeba159e	-0.36344618
48	0xbe219f49	-0.15783419
49	0xbd92def1	-0.07171429
50	0xbddd9fb5	-0.10821477
51	0x3e10f3f0	0.14155555
52	0xbe034863	-0.12820582
53	0xbe85d776	-0.26140946
54	0xbe6ba95a	-0.23013821
55	0x3da7a460	0.08185649
56	0x3e10b455	0.14131291
57	0xbd01ad3d	-0.031659354
58	0x3e3b6874	0.18301564
59	0xbed1fa84	-0.4101144
60	0xbebda32f	-0.37038562
61	0xbeeb1e61	-0.45921615
62	0x3f7b97d3	0.9827854
63	0xbe94632b	-0.2898191
64	0x3f060149	0.5234571
65	0x3e6155d6	0.220054
66	0x3f2f2438	0.6841464
67	0xbe10b76d	-0.14132471
68	0xbef9cb1a	-0.48787767
69	0xbeab6ea7	-0.3348286
70	0xbe942d97	-0.28941032
71	0x3c111684	0.008855466
72	0xbebb264b	-0.36552653
73	0xbe3728c0	-0.17886639
74	0x3d43f338	0.047839373
75	0x3e99fa19	0.30073622
76	0x3e9593fd	0.2921447
77	0x3e562534	0.2091263
78	0x3d022dd8	0.031782
79	0x3dddc302	0.108282104
80	0xbe254659	-0.16140117
81	0xbe6cbd2f	-0.23119043
82	0xbc5e4f19	-0.013568663
83	0xbe6e6a62	-0.2328277
84	0xbec75d28	-0.3893826
85	0x3d521aaf	0.05129498
86	0xbec18587	-0.37797186
87	0x3f63bf4f	0.8896379
88	0xbe856fba	-0.26061803
89	0x3ea9657c	0.3308524
90	0xbf0e906a	-0.5568911
91	0xbeef20e1	-0.46704772
92	0xbeab8bf5	-0.33505216
93	0xbdc33718	-0.09531993
94	0xbdad8bc8	-0.08473927
95	0x3e78079a	0.2422165
96	0xbe0f83c1	-0.14015104
97	0x3e3c9b3a	0.18418589
98	0xbf8a2450	-1.0792332
99	0xbeaa153d	-0.3321933
100	0x3f103821	0.56335646
101	0xbe9547a0	-0.29156208
102	0xbc4bbfa0	-0.012435824
103	0xbe8d9b49	-0.27657536
104	0x3d9ff244	0.078098804
105	0xbdf2f768	-0.11863595
106	0xbeacc83d	-0.3374652
107	0xbe0da96a	-0.13834158
108	0x3a6c9205	0.0009024444
109	0xbe71eab8	-0.23624694
110	0xbca4916c	-0.020088874
111	0x3e2982d6	0.16553816
112	0x3e176610	0.14785028
113	0xbeb04872	-0.3443027
114	0xbec0ebae	-0.3767981
115	0xbe94caf8	-0.29061103
116	0xbdaca854	-0.084305435
117	0xbda4eae3	-0.080526136
118	0xbe8d4d05	-0.27597824
119	0xbeb2dd72	-0.34934574
120	0x3f129e48	0.5727277
121	0x3eb26fb2	0.34850842
122	0xbf10185b	-0.56287163
123	0xbe6c5949	-0.23080935
124	0xbef62962	-0.48078448
125	0xbefb40de	-0.49072927
126	0x3d2d9655	0.042379696
127	0xbf3ad5e6	-0.72982633
128	0xbecd185c	-0.40057647
129	0xbd2942e5	-0.04132356
130	0xbe6e7624	-0.23287255
131	0xbde8a41f	-0.113594286
132	0x3f792c93	0.9733364
133	0x3d287944	0.041131273
134	0x3f4a8828	0.7911401
135	0xbeb2d341	-0.349268
136	0x3f16dbd1	0.58929163
137	0x3e658e56	0.22417578
138	0x3f347724	0.70494294
139	0xbd270f10	-0.04078585
140	0x3da5e2b2	0.08099879
141	0x3e56aa9f	0.20963524
142	0xbea4826d	-0.32130757
143	0xbdd25a84	-0.10271171
144	0xbe88c980	-0.26716232
145	0x3f3fe581	0.7495957
146	0x3e1caebf	0.15301035
147	0xbec733fd	-0.3890685
148	0xbc811bc3	-0.015760308
149	0x3e0fba17	0.14035831
150	0xbeb96193	-0.36207256
151	0x3e760c9e	0.2402825
152	0x3ca47594	0.020075597
153	0xbf42740d	-0.7595833
154	0x3ebd2212	0.36940056
155	0xbdfac590	-0.12244713
156	0x3efe66e4	0.49687874
157	0xbe90d4fc	-0.28287494
158	0x3e8c38fd	0.2738723
159	0xbe3f9b62	-0.18711618
160	0x3fb97022	1.4487345
161	0xbd6f536a	-0.05842916
162	0x3f3f43d9	0.747129
163	0x3df03376	0.117285654
164	0xbedb50f1	-0.4283519
165	0x3d3fb5c0	0.04680419
166	0x3d1dd504	0.038533226
167	0xbd74cc17	-0.059764948
168	0xbe32776f	-0.17428373
169	0x3f58401e	0.84472835
170	0x3eef415b	0.4672955
171	0x3f147e49	0.58005196
172	0x3d5dd1d8	0.0541552
173	0xbec752e0	-0.38930416
174	0xbed03eb7	-0.40672848
175	0xbee52c6f	-0.44760463
176	0xbf058f72	-0.52172005
177	0x3aabba4c	0.0013101785
178	0x3f442908	0.7662511
179	0x3eac3b85	0.3363916
180	0x3dbc070d	0.09181032
181	0xbe721347	-0.23640166
182	0xbdc1358b	-0.09434041
183	0x3e6f2084	0.23352247
184	0x3e337100	0.17523575
185	0xbea39123	-0.31946668
186	0xbe2a4c65	-0.16630705
187	0x3d565222	0.05232442
188	0x3ef0e021	0.47045997
189	0x3e64c759	0.2234167
190	0xbe9126e7	-0.28349993
191	0xbea60f08	-0.32433343
192	0xbc828857	-0.015934153
193	0xbe2da249	-0.16956438
194	0xbee2767d	-0.44231024
195	0x3f96de52	1.1786597
196	0x3e15ff26	0.14648113
197	0xbea57009	-0.3231204
198	0xbc9e09fa	-0.019291867
199	0xbecdacb3	-0.40170822
200	0x3e1d563a	0.15364924
201	0xbf00712c	-0.50172687
202	0x3f7679a5	0.96279365
203	0x3e478aa0	0.19486475
204	0x3f2b50a6	0.66919935
205	0xbe852e33	-0.2601181
206	0xbe81100e	-0.2520756
207	0xbe9da10a	-0.30786926
208	0xbea58588	-0.3232844
209	0x3f41c13c	0.7568548
210	0xbd6f14cb	-0.05836944
211	0xbe96169a	-0.2931412
212	0xbd6c2d6a	-0.057660498
213	0xbd9e5fb7	-0.077331
214	0xbe919284	-0.28432095
215	0x3f03de59	0.5151115
216	0xbd16ea69	-0.036844645
217	0xbec93931	-0.39301446
218	0xbf1c2767	-0.60997623
219	0xb99647a0	-0.00028663594
220	0x3e8a70f8	0.27039313
221	0x3db66a0c	0.089069456
222	0xbd93de82	-0.07220174
223	0xbeacc95d	-0.33747378
224	0x3d1ae7ae	0.037818603
225	0xbf517839	-0.8182407
226	0xbeb9788e	-0.36224788
227	0x3dd75b10	0.10515416
228	0x3d0e1d98	0.03469619
229	0xbedcc398	-0.43117976
230	0x3f12cd14	0.57344174
231	0xbe779f2b	-0.24181812
232	0xbe8e9103	-0.2784501
233	0xbe886f83	-0.26647577
234	0x3ca55640	0.020182729
235	0xbe189732	-0.14901426
236	0x3dcbce15	0.099514164
237	0xbe3b48e9	-0.18289532
238	0xbdf86df7	-0.12130349
239	0x3eb8b44a	0.3607505
240	0x3e460348	0.19337189
241	0x3f2b6604	0.6695254
242	0x3e69a3c2	0.22816375
243	0xbec6bedf	-0.38817498
244	0xbe4ff306	-0.2030755
245	0xbea7001e	-0.32617277
246	0xbf0dbaaf	-0.5536298
247	0x3bbb42e2	0.00571476
248	0x3e8d488f	0.2759442
249	0xbe591b43	-0.21201806
250	0xbeaff269	-0.34364632
251	0xbe7ec4f3	-0.24879818
252	0x3e97a705	0.29619613
253	0xbf2c40b4	-0.6728623
254	0xbc95c3c7	-0.01828183
255	0xbed4849d	-0.41507426

conv1.lin_rel.bias f4 [64]
0	0xbe9e9adf	-0.30977532
1	0xbe39712a	-0.18109575
2	0xbe2ab91e	-0.16672179
3	0xbdd8e674	-0.105908304
4	0x3eff2769	0.49834755
5	0xbeb8aa11	-0.3606725
6	0x3d334d90	0.04377514
7	0xbd9939a2	-0.07481696
8	0xbe75fbfe	-0.24021909
9	0x3eb188c6	0.34674662
10	0xbe9dda88	-0.3083079
11	0xbe76fa96	-0.24119028
12	0x3f0862b2	0.532756
13	0x3d37545b	0.044758182
14	0xbbe010b4	-0.0068379287
15	0x3e0fb16f	0.1403253
16	0xbce51e0f	-0.027968435
17	0x3f09e52b	0.5386531
18	0x3cd397af	0.025829164
19	0xbe95a46a	-0.29227
20	0xbf07cac0	-0.53043747
21	0x3e96e31f	0.29470155
22	0xbeea6d73	-0.45786628
23	0x3de816ee	0.113324985
24	0xbda31e1e	-0.07964729
25	0x3ea0f522	0.31437021
26	0xbe0c07b4	-0.13674814
27	0xbef3bf6f	-0.4760699
28	0xbd9343d6	-0.07190673
29	0xbcf0fb2b	-0.029416641
30	0xbe8e05a8	-0.2773869
31	0x3e9b6b7b	0.3035544
32	0xbd3c3ad7	-0.04595455
33	0xbe10a818	-0.14126623
34	0x3eb90277	0.36134693
35	0x3ece40e4	0.40283883
36	0x3deff370	0.11716354
37	0xbd8f5116	-0.06997888
38	0xbe8b44c2	-0.27200896
39	0xbeaa07ab	-0.33208975
40	0xbeca7700	-0.39543915
41	0xbeb8e661	-0.36113265
42	0xbd365dd8	-0.04452309
43	0x3d15b968	0.03655377
44	0xbeaa4a04	-0.33259594
45	0xbe92eabf	-0.28694722
46	0x3d057c0a	0.032588996
47	0xbe35e244	-0.17762095
48	0xbedceda8	-0.43150067
49	0x3ef63e0d	0.48094216
50	0x3f34a458	0.7056327
51	0x3e196c8c	0.14982814
52	0xbec98822	-0.39361674
53	0x3e9af305	0.30263534
54	0xbe149f2c	-0.14513844
55	0xbda9dc32	-0.08293952
56	0xbeb8d64e	-0.36101002
57	0x3edae692	0.42754036
58	0xbe93c441	-0.28860667
59	0x3e87dcbf	0.26535603
60	0x3e8311b0	0.25599432
61	0xbe4b224a	-0.19837299
62	0xbe14968c	-0.14510554
63	0xbe50ed6b	-0.20403068

conv1.lin_root.weight f4 [64, 7]
0	0x3cf94f1f	0.030433236
1	0x3e5596a4	0.20858246
2	0x3df90b62	0.12160374
3	0xbd9d5eec	-0.076841205
4	0xbe9e9a4a	-0.30977088
5	0x3de458e7	0.11149769
6	0xbe6960ff	-0.22790907
7	0xbe970305	-0.2949449
8	0xbf0291d3	-0.5100376
9	0x3e6947d3	0.22781305
10	0xbe900f8a	-0.28136855
11	0x3e8f3329	0.2796872
12	0xbe969f7b	-0.2941855
13	0x3f8f20fa	1.1181939
14	0xbeeb81e7	-0.45997545
15	0x3eb11c35	0.34591833
16	0x3bb7e27e	0.005611717
17	0xbe55cf22	-0.20879796
18	0xbe4c9bb3	-0.1998127
19	0xbec9bc58	-0.39401507
20	0xbe94aec3	-0.29039583
21	0xbe800b11	-0.25008443
22	0x3e1d46cf	0.15359043
23	0x3eb85858	0.360049
24	0xbeadc8b7	-0.33942196
25	0x3dd3dc80	0.103447914
26	0x3e82ed19	0.25571516
27	0x3dc8a15f	0.09796404
28	0x3f0e7e8d	0.5566185
29	0xbe2a0a8a	-0.16605583
30	0xbe43c40f	-0.19117759
31	0x3f7a530c	0.9778297
32	0x3e976d4f	0.29575583
33	0xbeb3ad62	-0.35093218
34	0xbe7f7cb6	-0.24949917
35	0x3d642630	0.05570048
36	0xbd6d7678	-0.05797431
37	0x3c77a3c0	0.015114725
38	0x3cd3a400	0.025835037
39	0xbe4703fb	-0.19435112
40	0x3c785600	0.015157223
41	0x3eb2301f	0.34802338
42	0xbdeebb26	-0.116567895
43	0xbea58e08	-0.32334924
44	0xbecfd74b	-0.40593943
45	0x3eee3c6d	0.46530476
46	0xbd2cff98	-0.04223594
47	0x3a6299dc	0.00086441427
48	0x3d9627d3	0.073318146
49	0xbeaf4fef	-0.34240672
50	0xbe8a0ce9	-0.26962975
51	0x3de718db	0.11284038
52	0xbeaec0ed	-0.34131566
53	0xbea4c0ed	-0.3217844
54	0xbe9fe399	-0.3122833
55	0xbe0c7adb	-0.1371874
56	0xbe6a36d8	-0.22872484
57	0x3e01b1ff	0.12665556
58	0x3d93dbe1	0.07219673
59	0xbe94b067	-0.29040834
60	0x3e59375e	0.21212527
61	0xbe304d69	-0.1721703
62	0x3f89a356	1.0752971
63	0x3e4e03fd	0.20118709
64	0xbdcd62f7	-0.10028642
65	0x3eb25e5b	0.34837613
66	0xbe752bf0	-0.23942542
67	0x3e1309fa	0.14359275
68	0x3f0aa219	0.5415359
69	0xbea22e65	-0.3167602
70	0x3dc47109	0.09591872
71	0xbe3df3e4	-0.18550068
72	0x3e560f76	0.20904335
73	0x3dc92874	0.09822169
74	0x3da8a110	0.08233845
75	0xbde9e180	-0.11419964
76	0xbe50d376	-0.20393166
77	0xbef1dd09	-0.4723895
78	0xbe4f11b7	-0.20221601
79	0xbe79ecb5	-0.24406703
80	0xbd8fd3a0	-0.07022786
81	0x3ea53295	0.32265154
82	0xbe1a00be	-0.15039346
83	0x3f62d3cd	0.8860443
84	0x3f091b79	0.53557545
85	0xbecee9b8	-0.40412688
86	0xbf162b04	-0.58659387
87	0xbeaf91a5	-0.34290805
88	0xbec00dbf	-0.37510487
89	0xbcca1388	-0.024667516
90	0xbe9df564	-0.3085128
91	0xbe9cf628	-0.30656552
92	0xbe7eefcc	-0.24896163
93	0xbe79b75d	-0.24386354
94	0x3e0b58d6	0.13608107
95	0x3e8a8a17	0.2705848
96	0x3e8e7c2b	0.27829108
97	0x3d46f320	0.048571706
98	0x3e8f4443	0.27981767
99	0x3e139e09	0.14415754
100	0x3e3ce9e6	0.184486
101	0x3e0f3b1f	0.13987397
102	0x3b93c300	0.00450933
103	0x3bf7a2c0	0.007557243
104	0xbd5b2990	-0.053506434
105	0xbe765519	-0.240559
106	0xbee2b5f3	-0.4427944
107	0x3e302bf6	0.1720427
108	0xbda9c38d	-0.082892515
109	0xbeae2d96	-0.34019154
110	0xbe9fd337	-0.31215832
111	0x3c4b2a04	0.012400154
112	0xbeda37ab	-0.42620596
113	0xbd8e12a5	-0.0693715
114	0xbcbeef74	-0.02330754
115	0xbe1feb33	-0.15617065
116	0xbeb4d0bf	-0.3531551
117	0xbe3da581	-0.18520166
118	0xbea098b2	-0.31366497
119	0x3edba3dd	0.42898455
120	0xbe958c03	-0.29208383
121	0xbea41c4b	-0.32052836
122	0x3f60e5f7	0.878509
123	0xbc94a600	-0.018145561
124	0x3ed0b023	0.40759382
125	0xbea84d42	-0.32871443
126	0xbeb2e867	-0.34942934
127	0x3e8bed56	0.2732951
128	0xbf0b59e7	-0.54434055
129	0xbd95473c	-0.072889775
130	0x3e9cb187	0.30604193
131	0xbe7dc640	-0.24782658
132	0x3f4e10d0	0.80494404
133	0xbf193cf6	-0.59858644
134	0x3c5dcfce	0.013538314
135	0xbe262ab2	-0.16227224
136	0x3fd74200	1.6817017
137	0x3e3d9152	0.18512467
138	0x3f2e21da	0.68020403
139	0xbe8969d7	-0.26838562
140	0xbec82b29	-0.3909543
141	0xbe82ea6d	-0.25569478
142	0x3d83ff6e	0.06445204
143	0xbdc8b208	-0.09799582
144	0xbe39c255	-0.18140538
145	0xbea537f7	-0.3226926
146	0xbe8c9497	-0.27457115
147	0x3f47c759	0.78038555
148	0xbd0975ab	-0.033559483
149	0x3caa9fd9	0.020828174
150	0xbe59b827	-0.21261655
151	0x3ea9c593	0.3315855
152	0xbe23e789	-0.16006292
153	0xbe567870	-0.20944381
154	0xbe89703b	-0.26843438
155	0xbeb9d679	-0.36296442
156	0xbe9e8791	-0.30962804
157	0xbdd7a4c5	-0.10529474
158	0xbbc1c6c0	-0.0059135854
159	0xbea429d4	-0.32063162
160	0x3f92a2ac	1.1455894
161	0xbe4267af	-0.18984865
162	0xbe114a5a	-0.14188519
163	0xbee9937e	-0.4562034
164	0x3fc3978e	1.5280626
165	0x3df3e79c	0.1190941
166	0x3f904df7	1.1273793
167	0xbe6278d9	-0.22116412
168	0x3e593625	0.21212061
169	0x3df0fbd8	0.117667854
170	0xbedc495d	-0.43024722
171	0x3f3dd654	0.74155164
172	0xbd320f50	-0.043471634
173	0xbeac96a0	-0.33708668
174	0xbdf4fb64	-0.119620115
175	0x3f135577	0.57552284
176	0xbe80f9d1	-0.25190595
177	0xbe972c9d	-0.29526225
178	0x3cc6cb00	0.02426672
179	0xbe8ebc10	-0.27877855
180	0xbd512ec0	-0.051069975
181	0xbd9a6e9c	-0.07540628
182	0x3e04aca7	0.12956487
183	0x3e3a1484	0.18171889
184	0x3efe0948	0.49616456
185	0xbeba07e7	-0.36334154
186	0x3eb5846d	0.35452595
187	0xbdcb560f	-0.09928524
188	0xbebab400	-0.36465454
189	0xbe60e4f3	-0.21962337
190	0x3dd92046	0.10601859
191	0xbe965141	-0.29358867
192	0xbd197d1b	-0.037472825
193	0x3ea4907f	0.32141492
194	0xbebe789b	-0.3720139
195	0x3fce43cf	1.6114444
196	0xbd9c45ea	-0.076305225
197	0xbef16c66	-0.47153014
198	0xbeb74eb8	-0.35802245
199	0xbef8ef39	-0.48620012
200	0x3d3b3388	0.04570344
201	0xbefa4223	-0.48878583
202	0x3f2b4949	0.669087
203	0xbf10da84	-0.5658343
204	0xbdf17466	-0.11789779
205	0x3e93de19	0.28880385
206	0x3f15a74e	0.5845841
207	0x3d86c9f0	0.06581485
208	0xbc8ce3a2	-0.017198388
209	0x3f011910	0.5042887
210	0x3e53327d	0.20624729
211	0xbd6152d8	-0.055010647
212	0xbdc001ee	-0.09375368
213	0xbe6493d2	-0.22322014
214	0xbe56f2aa	-0.20991006
215	0x3eeada26	0.4586956
216	0x3c75df30	0.015006825
217	0x3f032374	0.5122597
218	0xbd8e45e3	-0.069469236
219	0xbe066830	-0.13125682
220	0x3f1da4d7	0.6157965
221	0xbde443ec	-0.111457676
222	0xbe208547	-0.15675841
223	0xbba6464e	-0.005074299
224	0xbebcd21d	-0.36879054
225	0x3e915594	0.28385603
226	0xbf04a91a	-0.5182053
227	0xbe9dd40a	-0.30825835
228	0xbebe501e	-0.371705
229	0xbea046bb	-0.31303963
230	0x3f61b9a7	0.8817391
231	0xbedd56ea	-0.43230373
232	0x3f1f460c	0.6221626
233	0x3e691215	0.22760804
234	0x3ea83951	0.3285623
235	0xbe58a2e4	-0.21155888
236	0xbeaf81c8	-0.34278703
237	0xbd83f42c	-0.064430565
238	0xbc9d1d8d	-0.01917913
239	0xbea3171b	-0.31853566
240	0xbf16010c	-0.5859535
241	0x3f5a7ab3	0.85343474
242	0x3bccce00	0.006250143
243	0x3f3d2e88	0.73899126
244	0xbed17dba	-0.40916234
245	0x3eafc958	0.343333
246	0xbe434671	-0.1906984
247	0xbe8b60a6	-0.27222174
248	0x3f96ee61	1.1791497
249	0xbe7d4da7	-0.24736653
250	0xbe8cb79d	-0.27483836
251	0xbe34984e	-0.17636225
252	0xbec15c00	-0.37765503
253	0xbd00b086	-0.031418346
254	0xbe72793a	-0.23679057
255	0xbedfe0d0	-0.43726206

conv2.lin_rel.weight f4 [64, 64]
0	0xbd9dbd04	-0.077020675
1	0x3de88e49	0.11355264
2	0x3ddbe5e4	0.107372075
3	0x3d071bc0	0.03298545
4	0x3d883f07	0.066526465
5	0x3df96254	0.12176958
6	0x3c37481a	0.011186624
7	0xbdcf375c	-0.10117981
8	0x3c534456	0.0128947105
9	0xbe3e749c	-0.1859917
10	0x3d37b921	0.044854287
11	0xbd1897c6	-0.037254117
12	0xbe80fba7	-0.25191996
13	0x3c505209	0.012714871
14	0x3d81eacf	0.06343614
15	0x3be5e12f	0.0070153694
16	0x3b993c27	0.00467636
17	0xbda18854	-0.07887331
18	0x3c163f06	0.009170299
19	0xbcd7b201	-0.026329996
20	0xbdba8318	-0.091070354
21	0xbe152ecc	-0.14568633
22	0x3da5df97	0.08099287
23	0xbe34c674	-0.17653829
24	0xbe5b8150	-0.21436048
25	0x3d0f6ba3	0.03501476
26	0xbe11231c	-0.1417355
27	0x3c70c3ca	0.014695117
28	0x3d4eb040	0.050461054
29	0x3d2b291c	0.04178725
30	0xbd42c0b9	-0.047547076
31	0xbe36e732	-0.17861632
32	0x3cc06340	0.023484826
33	0xbea9d5d8	-0.33170962
34	0xbe508d55	-0.20366414
35	0xbb353493	-0.0027649745
36	0xbd22827c	-0.03967522
37	0xbcd77d78	-0.026304945
38	0xbe860256	-0.26173657
39	0xbdb81328	-0.08988029
40	0xbe2c373d	-0.16817947
41	0xbd9dea64	-0.07710722
42	0xbe2d0194	-0.16895133
43	0xbb44346e	-0.0029938477
44	0x3de2276e	0.11042677
45	0x3c8dacd0	0.017294317
46	0xbda5c200	-0.08093643
47	0xbd4461d2	-0.04794485
48	0xbe1319c0	-0.14365292
49	0xbe8338e0	-0.2562933
50	0xbe73b8ca	-0.2380096
51	0xbe15979a	-0.14608613
52	0xbd680a45	-0.05665042
53	0xbdd226bd	-0.10261295
54	0xbbdb0f40	-0.0066851676
55	0x3d97ba5a	0.074085906
56	0xbd855ee6	-0.06512241
57	0xbe57de7d	-0.21080966
58	0x3d227b93	0.03966863
59	0xbe71962d	-0.23592444
60	0xbe9d896f	-0.30768916
61	0xbd3dc1e4	-0.046327487
62	0xbe10c511	-0.14137675
63	0xbdd699b2	-0.10478534
64	0xbe35416d	-0.17700739
65	0xbe19a73e	-0.15005204
66	0xbe203824	-0.15646416
67	0x3ca0be47	0.019621981
68	0xbdf62586	-0.12018876
69	0x3dd8b610	0.10581601
70	0xbdf9c784	-0.12196258
71	0x3cd40bc4	0.025884517
72	0xbe3b4969	-0.18289723
73	0xbe2d9ffe	-0.16955563
74	0xbd9bb638	-0.07603115
75	0xbdb8fc79	-0.0903253
76	0x3cab1b25	0.020886967
77	0x3d87b974	0.06627169
78	0xbdcb8ee6	-0.09939365
79	0xbe0e5f74	-0.139036
80	0xbdd56788	-0.10420138
81	0xbcf50000	-0.029907227
82	0xbc93c926	-0.018040251
83	0xbdb31ecd	-0.08746109
84	0xbdfcf6f2	-0.123517886
85	0xb9e3639e	-0.00043371035
86	0x3cc2a8c9	0.023762124
87	0x3ce45ee7	0.027877284
88	0xbd6b092f	-0.057381805
89	0x3c41454b	0.011796306
90	0xbda81c89	-0.08208568
91	0xbb8efae8	-0.0043634064
92	0x3c22753b	0.009915645
93	0x3d7245ec	0.059148714
94	0xbdbade0c	-0.09124383
95	0xbe2b179f	-0.1670823
96	0xbbe1f640	-0.0068958104
97	0x3d2c9a20	0.042139173
98	0x3acfb767	0.0015847505
99	0xbd822600	-0.06354904
100	0x3cdbdac3	0.026837712
101	0xbda03aa4	-0.07823685
102	0x3ced7b6d	0.028989518
103	0xbcf06d4d	-0.029348994
104	0x3c05afc8	0.008159585
105	0xbde1edd0	-0.11031687
106	0xbdbfdcb2	-0.09368266
107	0xbe09f396	-0.13471827
108	0x3d3ab67c	0.045584187
109	0xbe37a4f0	-0.17934012
110	0x3c91e308	0.017808452
111	0xbdaba5e2	-0.08381249
112	0xbdc0d948	-0.09416443
113	0x3ddd4b6a	0.108054
114	0x3d6fe7d6	0.058570705
115	0x3e21ba4b	0.15793721
116	0x3d1371a6	0.035997055
117	0xbd1fd60a	-0.039022483
118	0x3c2dae2c	0.010600608
119	0x3bccb033	0.0062465905
120	0x3bb39fc0	0.00548169
121	0xbcf71bd6	-0.03016464
122	0xbcd21043	-0.02564252
123	0xbdfb82a3	-0.12280776
124	0x3ce7a812	0.028278384
125	0xbdfd5cbe	-0.12371205
126	0xbca1ea7a	-0.019765127
127	0xbd9bb0ff	-0.07602119
128	0x3ca2699c	0.01982575
129	0xbdfa6745	-0.12226728
130	0xbdae421f	-0.08508705
131	0xbe499999	-0.19687499
132	0xbe684e38	-0.22686088
133	0xbdca9cc0	-0.09893179
134	0xbda9ca5d	-0.08290551
135	0x3db1dab6	0.08684294
136	0x3c0a7e1f	0.008452921
137	0xbe3e1ef0	-0.18566489
138	0xbc407fe0	-0.011749238
139	0xbdb2c914	-0.08729759
140	0xbe4e06cc	-0.2011978
141	0xbd3b9f0a	-0.04580597
142	0xbcc0c0b1	-0.023529382
143	0xbdd2e212	-0.10297026
144	0xbe6ba9eb	-0.23014037
145	0xbeb0c6f5	-0.34526792
146	0xbe3973b5	-0.18110545
147	0xbe31f0e3	-0.17377047
148	0xbd932d5a	-0.071863845
149	0xbec2d7d5	-0.38055292
150	0xbd3b813f	-0.045777556
151	0xbe269a2d	-0.16269751
152	0xbe41f903	-0.18942647
153	0xbd57b7d8	-0.05266556
154	0xbe30a41d	-0.17250104
155	0xbe7aa14d	-0.24475594
156	0xbd55bd27	-0.052182343
157	0xbe60a98b	-0.21939676
158	0x3d55fb3a	0.05224154
159	0xbdbda400	-0.09259796
160	0xbe929cfa	-0.2863539
161	0xbd63e512	-0.05563838
162	0xbeae64b8	-0.34061217
163	0xbb9e6263	-0.004833506
164	0xbe0ddc7d	-0.13853641
165	0xbe86eb31	-0.26351312
166	0xbd9dbab9	-0.0770163
167	0xbe0af3d1	-0.13569571
168	0xbeaff810	-0.34368944
169	0xbd5fafc0	-0.054610968
170	0xbcdbc060	-0.02682513
171	0xbdff6be6	-0.12471752
172	0xbd67d488	-0.05659917
173	0xbd8b0853	-0.06788697
174	0x3df42ea1	0.11922956
175	0xbeaf16e8	-0.34197164
176	0xbcb240f7	-0.021759493
177	0xbbf33cd2	-0.007423022
178	0xbedc0340	-0.4297123
179	0xbe5c0bfe	-0.2148895
180	0xbe893a22	-0.26802164
181	0xbe67ad09	-0.22624601
182	0x3cbaf5c0	0.02282226
183	0xbd9a5a71	-0.075367816
184	0xbde0a728	-0.109693825
185	0xbe8ff427	-0.2811596
186	0xbe1996c3	-0.14998917
187	0xbeb4f897	-0.3534591
188	0xbe6c42b7	-0.23072325
189	0x3ce6c110	0.028168231
190	0xbd65d984	-0.056115642
191	0x3be24333	0.0069049834
192	0xbc297f6f	-0.010345324
193	0x3ecdd8fe	0.40204614
194	0x3e73ba7b	0.23801605
195	0x3d89983b	0.06718489
196	0xbf15a82b	-0.5845973
197	0x3dac333c	0.0840821
198	0xbd41d930	-0.047326267
199	0xbdedb44c	-0.116066545
200	0x3e26dfec	0.16296357
201	0xbe551cd2	-0.20811775
202	0xbd803c54	-0.06261507
203	0xbc36e00a	-0.0111618135
204	0xbf4c81eb	-0.7988574
205	0x3d071424	0.032978192
206	0xbe0b47c7	-0.136016
207	0xbdbd1860	-0.09233165
208	0xbdbbc3e8	-0.091682255
209	0xbef3dfea	-0.4763177
210	0x3db1b3da	0.08676882
211	0x3d546b5b	0.051860195
212	0xbbecfc79	-0.0072322455
213	0xbf0ba51d	-0.5454882
214	0x3e98dca3	0.29855832
215	0x3d17b8ac	0.03704135
216	0xbdf8090d	-0.12111101
217	0xbdab35a2	-0.08359839
218	0xbd8659e3	-0.06560113
219	0x3e7946d9	0.24343432
220	0x3c42afff	0.011882781
221	0x3d9f0fc2	0.077666774
222	0x3c9bbc6c	0.019010745
223	0xbd8e3425	-0.069435395
224	0x3daadfa3	0.083434366
225	0xbeda2abb	-0.42610726
226	0xbd9b4cda	-0.07583018
227	0xbccf696e	-0.025318827
228	0x3e6baab8	0.23014343
229	0x3e28119d	0.16412969
230	0xbc20448a	-0.009781966
231	0x3e5cc569	0.21559681
232	0xbe2bcf80	-0.16778374
233	0x3bfb3080	0.0076656938
234	0xbd530c51	-0.051525418
235	0xbc2b4a0f	-0.010454669
236	0x3e027f4f	0.12743877
237	0x3dea44ef	0.11438929
238	0xbe88e1f4	-0.2673489
239	0x3daeb1d5	0.085300125
240	0x3dcd89fe	0.100360855
241	0xbf1b5f78	-0.6069255
242	0xbe20352e	-0.15645286
243	0xbebf5d75	-0.3737599
244	0x3e188161	0.14893104
245	0xbdb58e08	-0.08864981
246	0x3d77329e	0.060351007
247	0x3e37ca65	0.17948301
248	0x3d0b43d4	0.034000233
249	0xbe7c7244	-0.24652964
250	0xbd2a85b3	-0.04163141
251	0xbe79f444	-0.24409586
252	0xbee06287	-0.4382517
253	0xbd70d148	-0.058793336
254	0xbcc828da	-0.024433542
255	0xbd4e8990	-0.05042416

conv2.lin_rel.bias f4 [64]
0	0xbe250f35	-0.16119082
1	0xbdfc5163	-0.12320211
2	0xbe1c739f	-0.15278481
3	0xbcbf9ae7	-0.023389293
4	0x3ce4f0d5	0.027946869
5	0xbc000d4e	-0.007815672
6	0xbe1d4628	-0.15358794
7	0xbde6be54	-0.11266771
8	0x3d25f7f8	0.040519685
9	0x3cf942cd	0.03042736
10	0xbdd9ec67	-0.10640793
11	0x3d2dc500	0.042424202
12	0xbcd08867	-0.025455667
13	0xbe40c389	-0.1882459
14	0xbd42029a	-0.047365762
15	0xbdb08941	-0.08619929
16	0xbd3eae9d	-0.046553243
17	0xbe2f0358	-0.1709112
18	0xbd7f1f5c	-0.062285766
19	0x3d147450	0.036243737
20	0x3d5b0c86	0.05347874
21	0xbdf86082	-0.121277824
22	0xbdef2ecd	-0.116788484
23	0xbdd20120	-0.10254121
24	0xbd63ced0	-0.055617154
25	0x3d37d07c	0.04487656
26	0xbe0fa597	-0.14028011
27	0xbd00a254	-0.03140481
28	0xbd42ddb0	-0.0475747
29	0xbc94c58d	-0.018160606
30	0x3c182a13	0.009287375
31	0xbd6f0cad	-0.058361698
32	0x3ca48b41	0.020085933
33	0xbd88a8f6	-0.06672852
34	0xbe1aaa47	-0.15104018
35	0xbdccf2eb	-0.100072704
36	0x3d27dc5b	0.04098163
37	0xbdf8780b	-0.121322714
38	0x3d8d98aa	0.06913884
39	0xbdfa78df	-0.122300856
40	0xbd96daae	-0.073659286
41	0xbe546209	-0.20740522
42	0xbe238c11	-0.159714
43	0xbe70067b	-0.23439972
44	0x3d6569e7	0.0560092
45	0xbe09ad73	-0.13445072
46	0xbe10beca	-0.1413528
47	0xbe21ca55	-0.1579984
48	0x3dd83ff3	0.10559072
49	0xbca05340	-0.019570947
50	0xbd568060	-0.05236852
51	0xbe03030d	-0.12794133
52	0xbe129a7d	-0.14316745
53	0xbe4e4f9f	-0.2014756
54	0x3b97426c	0.0046160724
55	0xbd7d475f	-0.061835643
56	0xbe1b23d3	-0.15150385
57	0xbdaa3b28	-0.083120644
58	0xbccfbb35	-0.025357822
59	0x3c804d21	0.015661778
60	0xbe114b50	-0.14188886
61	0xbd1d35d2	-0.038381405
62	0xbdba2506	-0.09089093
63	0xbe3b72cc	-0.1830551

conv2.lin_root.weight f4 [64, 64]
0	0xbd853f2d	-0.065061904
1	0xbdb3ca23	-0.08778789
2	0x3ca9c0d4	0.02072183
3	0xbd8e28db	-0.06941386
4	0xbd39f0c8	-0.045395643
5	0xbc223250	-0.009899691
6	0xbe4dfa2d	-0.20114966
7	0xbdb63fe8	-0.08898908
8	0xbe2b24dc	-0.1671328
9	0xbddd3b93	-0.108023785
10	0xbb0058ab	-0.00195841
11	0xbd9acefa	-0.07559009
12	0xbec1cd11	-0.37851766
13	0xbe1510aa	-0.14557138
14	0x3d5d1200	0.053972244
15	0xbde194e8	-0.1101473
16	0x3dcea938	0.1009087
17	0xbe1d914e	-0.1538746
18	0xbd886b5a	-0.06661101
19	0x3c4a0d96	0.012332341
20	0x3c3da6d8	0.011575423
21	0xbcede2e0	-0.029038846
22	0x3c9d0861	0.019169034
23	0xbcbed685	-0.02329565
24	0xbdee4ba1	-0.11635519
25	0xbd317138	-0.043320864
26	0xbcc702b4	-0.024293281
27	0x3d8a54bb	0.06754442
28	0xbe23bd76	-0.15990242
29	0x3cc66fe9	0.024223285
30	0x3d45ea5b	0.048319202
31	0xbe1cfdc3	-0.15331177
32	0x3cd1a03e	0.025589105
33	0xbddc6b98	-0.107627094
34	0xbe0846ee	-0.13308308
35	0xbe3cec10	-0.18449426
36	0xbcd5b79d	-0.02608853
37	0xbe153658	-0.14571512
38	0x3c1652e4	0.009175036
39	0x3bb12c34	0.0054068808
40	0x3c5fc55a	0.013657892
41	0x3b8b18a0	0.004244879
42	0xbc4853d1	-0.012227015
43	0x3c55cf84	0.013049964
44	0x3c6e9172	0.014561044
45	0x3ac791f7	0.0015225996
46	0xbdbfb33d	-0.09360359
47	0xbe20bc4a	-0.15696827
48	0xbd03c1ad	-0.032167125
49	0xbd63c768	-0.05561009
50	0xbc89c35e	-0.016816791
51	0xbeabaece	-0.33531803
52	0xbd1b71d7	-0.037950363
53	0xbcb054ec	-0.021524869
54	0xbb8275dc	-0.003981335
55	0xbe041031	-0.12896802
56	0xbdd4bcaa	-0.10387547
57	0xbe56e125	-0.20984323
58	0xbe3199db	-0.17343847
59	0xbe9fa45e	-0.3118009
60	0xbe15786d	-0.1459672
61	0x3d1765b4	0.036962226
62	0xbd64d83c	-0.05587028
63	0xbd7009d9	-0.05860314
64	0xbd994dfa	-0.07485576
65	0xbcc28dca	-0.02374925
66	0xbe0c0e94	-0.13677436
67	0xbdd8149c	-0.10550806
68	0xbd3c981c	-0.0460435
69	0x3bacc9a0	0.005273059
70	0x3d1da1d4	0.03848441
71	0xbc26d950	-0.010183647
72	0xbdc32e3e	-0.09530304
73	0xbd5cb075	-0.05387922
74	0x3c8ca3c0	0.017167926
75	0xbe1972d4	-0.1498521
76	0x3d7aa605	0.061193485
77	0x3dd2e0b8	0.10296768
78	0xbd4ccc20	-0.049999356
79	0x3d2c6f68	0.042098433
80	0xbe387893	-0.18014745
81	0x3d6addc4	0.0573404
82	0xbe27a1d1	-0.16370322
83	0xbe1fbe47	-0.15599929
84	0xbd7cf08b	-0.061752837
85	0xbc84f48a	-0.016229887
86	0xbc27aa4d	-0.010233474
87	0xbe126a23	-0.142983
88	0xbcbd9134	-0.023140527
89	0x3d2383be	0.03992056
90	0x3d38ff9f	0.045165654
91	0xbdcaaca9	-0.098962136
92	0x3cfe0130	0.031006426
93	0x3d26acd4	0.040692165
94	0x3d01d55f	0.031697627
95	0x3db3570e	0.08756839
96	0xbdd4c140	-0.10388422
97	0xbd1ddbcc	-0.038539693
98	0xbdbd4e80	-0.09243488
99	0x3b033050	0.002001781
100	0xbe3c7256	-0.1840299
101	0x3cd06431	0.0254384
102	0x3db66b41	0.08907176
103	0xbe1a2760	-0.15054083
104	0x3e1af268	0.15131533
105	0x3d848224	0.06470135
106	0xbe16f01c	-0.14740032
107	0xbe35c1d1	-0.17749716
108	0x3d756a3c	0.059915766
109	0xbb83c2e8	-0.0040210374
110	0xbd0f0538	-0.034917086
111	0xbd5c9d9f	-0.053861257
112	0xbe39fc82	-0.1816273
113	0xbdb2e6bc	-0.08735415
114	0xbcb670cd	-0.022270584
115	0xbbe2d995	-0.0069229105
116	0xbdc00a6e	-0.09376989
117	0xbdf55a9c	-0.11980173
118	0x3c1e2c1d	0.009654072
119	0xbdc907d2	-0.09815945
120	0xbda9f27e	-0.08298205
121	0x3db082ce	0.08618699
122	0xbdec8e63	-0.115505956
123	0xbd737223	-0.05943502
124	0xbe243340	-0.16035175
125	0xbdcb3ee2	-0.09924103
126	0xbd1c3352	-0.03813488
127	0xbccb100a	-0.024787921
128	0xbe107616	-0.14107546
129	0xbe4a9453	-0.19783144
130	0xbe3866fc	-0.18008035
131	0xbe4eef9b	-0.2020859
132	0xbe60280d	-0.21890278
133	0x3d27672c	0.040869877
134	0xbcb2082c	-0.021732412
135	0xbcb3ffb8	-0.021972522
136	0xbd7268a7	-0.059181836
137	0xbe0a32a8	-0.13495886
138	0xbdd6ba2f	-0.104847305
139	0xbe09cfdb	-0.13458197
140	0x3d940b29	0.07228691
141	0xbdeda72e	-0.116041526
142	0xbe7bd96d	-0.2459466
143	0x3ce08b9e	0.027410325
144	0xbd518560	-0.051152587
145	0x3d3e4c20	0.046459317
146	0xbdafca5a	-0.085835174
147	0xbc317355	-0.01083072
148	0xbcd48486	-0.025942098
149	0xbd160166	-0.036622427
150	0xbe025bf0	-0.12730384
151	0xbdddccd1	-0.10830081
152	0xbe281b3b	-0.16416638
153	0xbd94cafd	-0.072652794
154	0xbcb33f84	-0.021880873
155	0xbe2bf0c4	-0.16791064
156	0xbd8c6d2b	-0.0685676
157	0xbe1ceef4	-0.15325528
158	0xbdf2eee4	-0.11861971
159	0xbdf09714	-0.11747566
160	0xbe565111	-0.20929362
161	0xbdddbd11	-0.10827077
162	0x3c699a17	0.014257929
163	0xbd63bdab	-0.055600803
164	0xbe5decf3	-0.2167242
165	0xbe172843	-0.14761452
166	0x3c39f73b	0.011350448
167	0xbd3dae9b	-0.046309095
168	0xbecc86cf	-0.399466
169	0xbdd42f92	-0.10360636
170	0x3cfd76bd	0.030940408
171	0xbdc01706	-0.09379391
172	0xbe3babf4	-0.18327314
173	0xbe3978a7	-0.18112431
174	0x3e24c186	0.16089448
175	0xbe46c944	-0.19412714
176	0xbd54629a	-0.051851846
177	0x3d8a793c	0.06761405
178	0x3b83dcb1	0.004024111
179	0xbd963205	-0.07333759
180	0xbe2d838f	-0.16944717
181	0xbe7d9c54	-0.24766666
182	0xbde10446	-0.10987143
183	0xbe8590aa	-0.26086932
184	0xbd2ea088	-0.042633563
185	0xbe1a85b8	-0.15090072
186	0xbde7f718	-0.11326426
187	0xbe791431	-0.24324109
188	0x3e69529e	0.22785422
189	0xbd8cb5f0	-0.06870639
190	0xbb8e3ae4	-0.0043405164
191	0xbe26a670	-0.16274428
192	0xbc143145	-0.00904495
193	0xb92f1f67	-0.00016700999
194	0x3de1fa8c	0.11034116
195	0xbe0c2f0b	-0.1368982
196	0xbeabd731	-0.33562616
197	0xbc838310	-0.016053706
198	0x3d94c05d	0.07263253
199	0xbe1011f8	-0.14069355
200	0x3d86ff97	0.06591719
201	0xbe637deb	-0.22216003
202	0x3d0def0f	0.034651812
203	0x3e1a5478	0.15071285
204	0xbf51a0e3	-0.8188612
205	0xbd2bc4d4	-0.041935757
206	0xbee11fd8	-0.43969607
207	0x3ce26821	0.027637543
208	0xbd4d173c	-0.050070986
209	0xbe84af32	-0.25914913
210	0xbd785d20	-0.060635686
211	0xbbf9275e	-0.00760357
212	0xbdc6da75	-0.09709636
213	0xbeefe0e7	-0.46851274
214	0x3de0df60	0.109801054
215	0xbe5208ca	-0.20511165
216	0xbe7bb252	-0.24579743
217	0xbd9ca63c	-0.07648894
218	0xbd0190e1	-0.031632308
219	0x3dbfb389	0.093604155
220	0x3d909ec9	0.07061536
221	0xbe43bdbd	-0.19115348
222	0x3d93e34f	0.0722109
223	0x3dbd909b	0.09256097
224	0x3bdcffab	0.006744345
225	0xbd8c6643	-0.068554424
226	0xbe3de79c	-0.18545383
227	0xbd42082a	-0.047371067
228	0xbe395db2	-0.18102148
229	0xbe0cfb66	-0.13767776
230	0xbe8f7100	-0.280159
231	0x3cfd87f1	0.030948611
232	0xbd640406	-0.0556679
233	0x3cb74e88	0.022376314
234	0xbe46cef9	-0.19414891
235	0x3de7b5ea	0.11313994
236	0xbd0c3816	-0.034233175
237	0xbe0243e3	-0.12721209
238	0x3e5edc33	0.21763687
239	0x3e5c6bf4	0.21525556
240	0xbde15f90	-0.11004555
241	0xbf0371f2	-0.5134574
242	0x3e391875	0.18075736
243	0xbf196623	-0.59921473
244	0xbd31673c	-0.043311343
245	0xbdd8b6c1	-0.105817325
246	0x3d3d8880	0.046272755
247	0xbe1adfac	-0.15124387
248	0x3d5416a0	0.05177939
249	0xbdbe454c	-0.09290561
250	0x3d83ac53	0.064293526
251	0xbe3bd1f7	-0.18341814
252	0xbd8a1ab1	-0.06743372
253	0x3de4ee2c	0.1117824
254	0x3dba6637	0.09101527
255	0xbd882ad7	-0.06648796

conv3.lin_rel.weight f4 [64, 64]
0	0x3d64e362	0.05588091
1	0x3e2fcc2b	0.17167728
2	0x3d083dde	0.033262126
3	0x3dc37803	0.09544375
4	0x3d08fe6d	0.033445764
5	0x3d54bb0b	0.05193619
6	0xbe179cea	-0.14805952
7	0x3d9bd5fb	0.07609173
8	0xbde22244	-0.11041692
9	0x3cc6f1d3	0.024285233
10	0xbdff7098	-0.124726474
11	0xbdbe577c	-0.0929403
12	0xbcf0dfb0	-0.029403538
13	0x3d4a356f	0.049367364
14	0x3e11e1a4	0.14246231
15	0x3d569e75	0.05239721
16	0x3e31e39f	0.17371987
17	0x3d7ba003	0.061431896
18	0xbd511b53	-0.05105145
19	0x3b56eb22	0.0032793959
20	0x3c7545c1	0.014970244
21	0xbdb8cb4f	-0.09023153
22	0xbd3dae70	-0.046308935
23	0xbda56a5a	-0.080769256
24	0xbef8cc6f	-0.4859347
25	0x3a9107aa	0.0011064906
26	0xbcaab5ed	-0.020838702
27	0x3d7e65ae	0.062108688
28	0x3bbc1c09	0.0057406467
29	0x3da76799	0.081740566
30	0x3dcca5da	0.09992571
31	0x3c4f1140	0.01263839
32	0x3e22ed55	0.15910847
33	0xbe0044e3	-0.12526278
34	0x3ddaa5d1	0.10676158
35	0xbd8cc5a7	-0.06873637
36	0xbd506f2e	-0.05088728
37	0xbd5cf7be	-0.053947203
38	0xbd90c627	-0.070690446
39	0x3bbe1487	0.005800787
40	0xbdd0f08a	-0.10202129
41	0x3d94cbd3	0.07265439
42	0x3c832996	0.01601104
43	0x3d7c07a2	0.061530717
44	0xbcd53303	-0.0260253
45	0x3e42cab8	0.19022644
46	0x3da80e36	0.082058355
47	0x3e291608	0.1651231
48	0xbf2acd17	-0.6671919
49	0x3db35e32	0.08758201
50	0xbd8896a6	-0.06669359
51	0xbd62d63c	-0.05538009
52	0x3cb49939	0.022045719
53	0x3e34e45d	0.17665239
54	0x3b520ecf	0.0032052284
55	0x3d27fc45	0.041012067
56	0xbdeff93e	-0.11717461
57	0xbdf68138	-0.12036365
58	0xbd07aa3b	-0.03312133
59	0xbb683701	-0.0035433176
60	0xbd96f121	-0.073702104
61	0x3d832dcf	0.06405222
62	0x3d207085	0.039169807
63	0x3e8d2e11	0.27574208
64	0xbdd416b2	-0.10355891
65	0x3cfb82be	0.030701991
66	0xbdb26072	-0.08709802
67	0x3dbfb020	0.09359765
68	0xbd59ffeb	-0.053222578
69	0xbdf495d2	-0.119426385
70	0xbcdeb589	-0.027186172
71	0xbd255fc8	-0.040374547
72	0x3d657177	0.05601641
73	0x3d48403c	0.048889384
74	0x3d8a9fca	0.067687586
75	0xbcb3e50b	-0.021959802
76	0x3d16c365	0.036807436
77	0xbe799f9e	-0.24377295
78	0xbc5e9771	-0.013585911
79	0xbd50a7b9	-0.050941203
80	0x3ca8b09a	0.020592023
81	0x3c5df4e3	0.013547155
82	0x3d9c4884	0.07631019
83	0xbd8f1eb9	-0.06988282
84	0x3ca5bac9	0.020230668
85	0xbd1c0004	-0.038085952
86	0xbcfcfba7	-0.030881716
87	0xbe25a96d	-0.16177912
88	0x3d27bfb1	0.040954296
89	0xbdc22372	-0.09479417
90	0xbdef90f2	-0.11697568
91	0xbced9356	-0.02900092
92	0x3da4ebb0	0.08052766
93	0xbc846665	-0.016162107
94	0x3c086fbc	0.008327421
95	0x3d7d9a81	0.061914925
96	0x3d6f2717	0.05838689
97	0xbe175ff0	-0.14782691
98	0xbd50600d	-0.05087285
99	0xbde76a9b	-0.1129963
100	0xbcb8ad9a	-0.022543717
101	0xbd177b4d	-0.036982823
102	0x3ce7ddb3	0.028303957
103	0xbd87eeb6	-0.066373274
104	0xbe2ecddb	-0.17070715
105	0xbe22806d	-0.15869303
106	0x3d9c386b	0.076279484
107	0xbbf8c394	-0.007591674
108	0x3cde4d19	0.027136372
109	0xbe012665	-0.12612303
110	0xbde7a9d3	-0.11311688
111	0xbd374644	-0.044744745
112	0xbe0a0e73	-0.13482074
113	0xbdc515de	-0.096233115
114	0xbdc89765	-0.09794501
115	0xbdcd7480	-0.10031986
116	0xbde88f62	-0.11355473
117	0x3c609541	0.01370746
118	0x3dff34bd	0.12461231
119	0xbdc3df64	-0.09564093
120	0xbcddb2e0	-0.027062833
121	0x3d8c2cbd	0.06844471
122	0x3be7a868	0.007069636
123	0xbd4a3ac8	-0.049372464
124	0xbdb466e6	-0.08808689
125	0x3d6abb2a	0.0573074
126	0xbb995526	-0.00467934
127	0x3ebc2918	0.36750102
128	0x3cdbbc8d	0.026823306
129	0xbd5026ab	-0.050818127
130	0x3e0f60d6	0.14001784
131	0x3c91ed09	0.017813222
132	0x3e449fc5	0.19201572
133	0xbc6533c6	-0.0139893945
134	0x3e3cf8a9	0.18454231
135	0xbcb13c0f	-0.021635083
136	0x3de6dcbd	0.11272571
137	0xbc150458	-0.009095274
138	0x3e0cda93	0.13755254
139	0x3de139bd	0.10997341
140	0x3baaeca4	0.005216198
141	0x3d9015d0	0.070354104
142	0x3e3ad1b5	0.1824406
143	0x3d0e3692	0.03472001
144	0xbc8c0cb4	-0.017095901
145	0x3c787b99	0.015166187
146	0xbcca5f00	-0.024703503
147	0x3d8ac0a5	0.06775025
148	0x3c9d9225	0.019234726
149	0x3e37d3cb	0.17951886
150	0x3c2a68e0	0.010400981
151	0xbc8ddb5c	-0.017316513
152	0xbe81ef98	-0.25378108
153	0x3dabb92a	0.083849266
154	0xbd2833c0	-0.041064978
155	0xbc71b17c	-0.014751788
156	0xbd5247b4	-0.051337913
157	0x3d882966	0.06648521
158	0x3e0a76d6	0.13521895
159	0xbd581d48	-0.0527623
160	0x3d8c8675	0.06861583
161	0x3e74b7ae	0.23898193
162	0x3e1e9900	0.15488052
163	0x3df5d36b	0.120032154
164	0x3d4f01b0	0.05053872
165	0xbdc19590	-0.09452355
166	0xbd5fd72c	-0.054648563
167	0x3dc30654	0.09522691
168	0xbd5a854b	-0.053349774
169	0x3d9040cc	0.07043609
170	0xbc144f57	-0.009052119
171	0x3da2f5e2	0.07957055
172	0x3d6734b8	0.05644676
173	0x3df70441	0.12061358
174	0x3dac40be	0.08410786
175	0x3e2582cc	0.16163176
176	0xbc8048ae	-0.015659656
177	0x3d9358b1	0.07194651
178	0x3da1fd22	0.079096094
179	0x3db04009	0.08605964
180	0x3ce4b49a	0.027918149
181	0x3e582ecc	0.21111602
182	0x3d399e61	0.045317058
183	0x3de76c68	0.11299974
184	0xbd83b760	-0.064314604
185	0x3e106d7e	0.14104268
186	0x3c633600	0.013867855
187	0x3c304c00	0.010760307
188	0x3e3e351f	0.18574952
189	0x3e2ac761	0.1667762
190	0x3d2c9b0f	0.042140063
191	0x3df56017	0.11981218
192	0xbd8ed59a	-0.06974335
193	0xbd44158a	-0.047872104
194	0x3d914b7d	0.07094476
195	0xbee23f07	-0.4418871
196	0x3de98ae1	0.11403442
197	0xbcca7b3e	-0.02471697
198	0xbd9a4eb3	-0.07534542
199	0xbe026f2d	-0.12737723
200	0x3dd9564f	0.10612165
201	0x3d0389e1	0.032113913
202	0x3d7fa7e2	0.062415965
203	0xbbaa061a	-0.0051887156
204	0x3d49dc70	0.04928249
205	0xbe3bd765	-0.18343885
206	0xbe2afa6a	-0.16697088
207	0xbd3a7607	-0.045522716
208	0xbbabeb67	-0.005246568
209	0x3d888528	0.066660225
210	0x3dc47b88	0.09593874
211	0xbdcc520c	-0.09976587
212	0xbe077e1e	-0.13231704
213	0xbc631545	-0.0138600515
214	0xbe23e8a9	-0.16006722
215	0x3d7a53ec	0.06111519
216	0x3e07d347	0.1326419
217	0x3daf7c8e	0.08568679
218	0x3c2f8ab2	0.01071422
219	0xbd3f918f	-0.046769675
220	0xbbaf88c4	-0.00535688
221	0xbe01b024	-0.12664849
222	0xbd2ab0aa	-0.041672386
223	0xbd04f3d4	-0.032459095
224	0xbcbb91e3	-0.022896713
225	0x3e132f95	0.1437362
226	0x3d80126d	0.062535144
227	0xbd293db4	-0.04131861
228	0x3e0a9245	0.1353236
229	0x3c8e50dc	0.017372541
230	0xbc3769b8	-0.011194639
231	0xbd02095e	-0.031747214
232	0x3dc6031b	0.09668561
233	0xbccd1e3e	-0.025038835
234	0x3c962109	0.0183263
235	0x3da3da0e	0.08000575
236	0xbbc550d6	-0.0060215993
237	0xbe96b939	-0.2943819
238	0xbd4b78e2	-0.04967583
239	0xbd425ff2	-0.04745478
240	0x3eda39d4	0.42622244
241	0x3d30cbd2	0.04316313
242	0x3ccbd5b9	0.024882184
243	0xbd047770	-0.032340467
244	0x3e14eb80	0.14542961
245	0xbeda056a	-0.42582256
246	0xbdc328b8	-0.09529251
247	0x3de0cfc6	0.1097713
248	0x3b0b66f0	0.0021271072
249	0x3ddc958f	0.107707135
250	0xbe2fe612	-0.17177609
251	0xbde7a606	-0.11310963
252	0xbbb8d4a6	-0.005640584
253	0xbd80054a	-0.06251009
254	0xbd852efe	-0.06503104
255	0x3edf49b5	0.43610922

conv3.lin_rel.bias f4 [64]
0	0x3d201447	0.039081838
1	0xbd3232b2	-0.043505378
2	0xbdc28f9e	-0.09500049
3	0x3bb52f26	0.005529302
4	0x3cfbb86a	0.030727584
5	0xbcccac00	-0.02498436
6	0xbd6d4e3f	-0.05793595
7	0x3d28bba9	0.04119459
8	0x3ca186cd	0.019717598
9	0xbdd37e8b	-0.103268705
10	0xbe0bb287	-0.13642322
11	0x3d596d6a	0.05308286
12	0xbdbea119	-0.09308071
13	0xbeaed559	-0.34147146
14	0x3ddbf535	0.10740129
15	0xbcaa7365	-0.020806978
16	0xbd5a6238	-0.053316325
17	0xbc44c5eb	-0.012010078
18	0xbddaa1dd	-0.10675404
19	0xbd6b44a1	-0.057438497
20	0x3e00e5b9	0.12587632
21	0xbe1e5933	-0.15463714
22	0x3dffea08	0.1249581
23	0x3c30d5fa	0.0107932035
24	0xbe96a468	-0.29422307
25	0xbd3c407e	-0.045959942
26	0x3daff668	0.0859192
27	0xbe05dcf6	-0.13072571
28	0x3c63e85c	0.013910379
29	0xbd8f6bd1	-0.07002986
30	0x3aaaa51b	0.0013019176
31	0x3d505565	0.05086269
32	0x3df1a196	0.11798398
33	0xbca7c1a1	-0.020478072
34	0x3e1b9f7e	0.1519756
35	0x3e2799dc	0.16367286
36	0x3d9e2fb7	0.07723945
37	0x3d9c4945	0.076311626
38	0x3d8f4a92	0.06996645
39	0x3be0e9e2	0.0068638185
40	0x3e654423	0.22389273
41	0xbc653118	-0.013988756
42	0xbd1c98d6	-0.038231693
43	0xbdffe76d	-0.12495313
44	0xbca24aad	-0.019810999
45	0xbdd2d286	-0.102940604
46	0xbc53b9fe	-0.012922762
47	0x3d1fcd2d	0.03901403
48	0x3e02e4c5	0.12782581
49	0xbd8dbe27	-0.06921034
50	0x3ce2c49d	0.027681643
51	0x3d392a9d	0.045206655
52	0x3e468843	0.19387917
53	0x3d9bc8e3	0.076066755
54	0xbc6087d6	-0.013704261
55	0x3d091d33	0.033475112
56	0xbe46dfd1	-0.19421317
57	0x3d7fd3a3	0.062457692
58	0x3d682cc1	0.056683306
59	0x3da8c721	0.08241106
60	0x3c4cfec4	0.012511913
61	0x3d9ece53	0.07754197
62	0xbd05be93	-0.03265245
63	0xbd7be702	-0.061499603

conv3.lin_root.weight f4 [64, 64]
0	0x3c6a75a6	0.014310276
1	0x3c6b9e93	0.014381069
2	0xbd1e7154	-0.038682297
3	0x3d9ef8e1	0.07762314
4	0x3da48c66	0.080345914
5	0x3d1d93eb	0.038471144
6	0xbdf61bef	-0.12017047
7	0xbd6a06ce	-0.057135396
8	0xbd3a63c3	-0.045505296
9	0x3e003561	0.12520362
10	0xbe02584e	-0.12728998
11	0xbc04e27f	-0.0081106415
12	0xbc8a68fb	-0.016895762
13	0x3e9673be	0.2938518
14	0xbb638b9b	-0.0034720663
15	0xbd20337b	-0.039111596
16	0x3db4e207	0.08832174
17	0x3d5df789	0.054191146
18	0x3d009f4c	0.031401917
19	0xbdd7e2c6	-0.105413005
20	0x3d59fadf	0.053217765
21	0xbd79e84f	-0.061012562
22	0x3d7bc443	0.061466467
23	0x3d5461fc	0.051851258
24	0xbf105dd7	-0.5639319
25	0xbe002b88	-0.12516606
26	0x3e12a86f	0.14322065
27	0xbdf35405	-0.1188126
28	0xbe1ec111	-0.15503336
29	0x3c027b5d	0.007963982
30	0x3d612637	0.054968085
31	0xbd749408	-0.059711486
32	0x3dc85002	0.09780885
33	0x3bbdeaa7	0.005795795
34	0x3e2eccae	0.17070267
35	0x3c72198b	0.014776598
36	0xbdd7c547	-0.105356745
37	0xbd938cb4	-0.07204571
38	0x3b414a05	0.0029493582
39	0xbc23fc7c	-0.010008927
40	0x3db6200b	0.088928305
41	0xbc46c57b	-0.012132044
42	0x3d673c91	0.056454245
43	0x3e5a6ac4	0.2132979
44	0x3d515996	0.051110826
45	0x3d2eda1d	0.042688478
46	0x3cbca077	0.023025734
47	0x3de1a6f4	0.11018172
48	0xbf696d01	-0.9118195
49	0xbdcc2bd0	-0.09969294
50	0x3ce0df2d	0.027450169
51	0xbc390d2e	-0.011294646
52	0xbd597479	-0.053089593
53	0x3d9ba9b7	0.0760073
54	0x3e0ca6cf	0.13735507
55	0x3ca85e20	0.020552695
56	0xbda4f66e	-0.08054815
57	0x3d907a93	0.07054629
58	0x3e13b0a9	0.14422859
59	0x3db162c2	0.08661415
60	0xbdfaef49	-0.12252671
61	0xbc35cb58	-0.011095844
62	0x3d8b1a74	0.06792155
63	0x3e3a1f97	0.18176113
64	0xbdcc2863	-0.09968641
65	0x3db8f1bf	0.090304844
66	0x3b5323d8	0.003221741
67	0x3db5ba65	0.088734426
68	0xbe2b7ccc	-0.16746825
69	0x3d1dc7a2	0.038520463
70	0x3cdfc354	0.02731482
71	0xbcceb06a	-0.025230605
72	0xbd810d2b	-0.0630134
73	0x3e237bac	0.15965146
74	0x3cd1d956	0.02561633
75	0x3ba7316c	0.005102327
76	0xbd14c165	-0.036317248
77	0xbe8d424c	-0.27589643
78	0x3da1d113	0.07901206
79	0xbe151304	-0.14558035
80	0xbb24af62	-0.002512895
81	0xbdbfcb6e	-0.09364973
82	0xbdf91b43	-0.12163403
83	0xbdeae53a	-0.11469503
84	0x3b0c4a58	0.0021406617
85	0xbbb59dff	-0.0055425162
86	0x3e391137	0.18072973
87	0xbd956f77	-0.07296651
88	0xbcf17f8a	-0.02947976
89	0xbdbad5f4	-0.091228396
90	0xbe112f8a	-0.14178291
91	0xbe0c9906	-0.13730249
92	0xbd87630e	-0.0661069
93	0x3da5ec75	0.08101741
94	0x3c938911	0.018009694
95	0x3bc90b09	0.0061353487
96	0x3d492523	0.049107682
97	0x3db2e0e5	0.087343015
98	0xbd1aa99e	-0.037759416
99	0x3ccb783e	0.02483761
100	0x3d534dc7	0.051587846
101	0xbd9896d0	-0.0745064
102	0x3da10c34	0.07863656
103	0xbd7555ca	-0.059896268
104	0xbd9a93fd	-0.07547758
105	0xbd43c3ca	-0.04779414
106	0x3ba29038	0.00496104
107	0xbc42a511	-0.011880175
108	0x3cc5ce64	0.024146266
109	0xbe952b61	-0.29134658
110	0x3b322214	0.0027180957
111	0x3d9aab96	0.07552259
112	0xbef5461e	-0.47905058
113	0x3afb2b36	0.0019162658
114	0xbc3a2f8d	-0.011363876
115	0x3d25787d	0.04039811
116	0xbdf43b31	-0.11925352
117	0x3d1f2e52	0.038862534
118	0x3e081c43	0.13292031
119	0xbda2bdd9	-0.07946367
120	0xbdaa8428	-0.08325988
121	0x3d8d5608	0.06901175
122	0xbdcf8c61	-0.10134197
123	0x3d5616f1	0.052267972
124	0xbe06b74e	-0.13155863
125	0x3dd97bd4	0.106193215
126	0x3cd921e2	0.026505414
127	0x3ed6e537	0.41971752
128	0xbd8b7af8	-0.06810564
129	0x3bc8c681	0.006127179
130	0x3d8fbde8	0.070186436
131	0xbdaa85bf	-0.08326291
132	0x3c39b077	0.011333576
133	0x3cb3652e	0.021898832
134	0x3e4944f0	0.19655204
135	0xbcaca894	-0.021076478
136	0x3e035e7c	0.12829012
137	0xbc0e436c	-0.008683067
138	0xbd56cd9f	-0.05244219
139	0x3d263fd4	0.040588215
140	0x3e1c442a	0.15260378
141	0xbd8d013e	-0.068850026
142	0xbd7119bf	-0.058862444
143	0x3d1996c6	0.037497304
144	0xbd5b6f78	-0.0535731
145	0xbda0892b	-0.07838663
146	0x3dc59d9b	0.096492015
147	0xbcbbde5c	-0.022933178
148	0x3e3e40e6	0.18579444
149	0x3d5d12a1	0.053972844
150	0x3d996baa	0.074912384
151	0x3d5802fa	0.052737214
152	0xbe504ada	-0.20341054
153	0x3a29ffff	0.0006484985
154	0xbd342534	-0.043980792
155	0x3deb42a3	0.11487319
156	0x3de7f516	0.11326043
157	0x3de970d3	0.11398473
158	0x3e1630b2	0.14667013
159	0xbdf27f76	-0.118407175
160	0x3e2d71b8	0.16937912
161	0x3db70e69	0.089382954
162	0x3e3058f8	0.17221439
163	0x3debf017	0.11520403
164	0x3e34a6d7	0.1764177
165	0xbda2ecc6	-0.07955317
166	0x3e0adbe7	0.13560449
167	0x3da7e789	0.08198459
168	0x3dbac081	0.091187485
169	0xbc29917b	-0.010349627
170	0xbc5a6211	-0.013329045
171	0x3d650bc3	0.05591942
172	0x3d4a2054	0.049347237
173	0x3e217239	0.15766229
174	0x3d9b4a90	0.07582581
175	0x3dc1cf33	0.09463348
176	0xbec77fc7	-0.38964674
177	0xbbe67613	-0.0070331185
178	0x3c887160	0.016655624
179	0xbd2f8d9c	-0.04285966
180	0x3dd9b44c	0.10630092
181	0x3d8f7574	0.07004824
182	0x3d7519f9	0.059839223
183	0x3d2113ee	0.039325647
184	0x3be549fd	0.0069973455
185	0x3e0e2eef	0.13885091
186	0xbccec1bf	-0.02523887
187	0xbd82fe62	-0.06396176
188	0x3cf259e4	0.029583879
189	0xbc7b8838	-0.015352301
190	0x3da8b4ba	0.08237596
191	0x3e430907	0.19046412
192	0xbdc63260	-0.09677577
193	0xbd48ca22	-0.049020894
194	0x3d9736c6	0.07383494
195	0xbeed8afc	-0.463951
196	0x3d81114c	0.06302127
197	0x3dd348bd	0.10316608
198	0xbd83d894	-0.064377934
199	0xbe188af1	-0.14896752
200	0x3e15ed10	0.14641213
201	0xbdf566e7	-0.11982518
202	0x3bfcf507	0.007719639
203	0x3e011e53	0.12609224
204	0x3dd92cf1	0.10604275
205	0xbe8fd6e8	-0.28093648
206	0xbe200dd8	-0.15630281
207	0x3d96ec86	0.07369332
208	0x3ce41ae5	0.027844856
209	0xbcdb3e31	-0.026763054
210	0xbd826cd9	-0.06368417
211	0xbddc1583	-0.107462905
212	0xbd8e672f	-0.069532745
213	0x3dd7ccdd	0.105371214
214	0x3d5c2f22	0.053755887
215	0xbc173f59	-0.009231412
216	0x3e8b8384	0.27248776
217	0x3ab3777f	0.0013692229
218	0x3e0b15b7	0.13582502
219	0x3e0bd0c3	0.13653855
220	0xbd621eea	-0.055205263
221	0xbda7569c	-0.08170816
222	0x3db497e1	0.08818031
223	0xbd0aefcc	-0.033920094
224	0xbe1463dc	-0.14491218
225	0xbc401f2b	-0.011726181
226	0xbe1c3e25	-0.15258081
227	0x3af8f05b	0.001899253
228	0x3d5e4710	0.05426699
229	0x3dbbd6ec	0.091718525
230	0x3df32cd8	0.11873788
231	0x3d243859	0.0400928
232	0xbc1581f0	-0.009125218
233	0xbcda65dc	-0.026659898
234	0xbe16b7f2	-0.14718607
235	0x3c8ad550	0.016947418
236	0x3d9782b7	0.07397979
237	0x3cb0a24d	0.021561766
238	0x3dbc3e4b	0.09191569
239	0x3da85bd9	0.082206436
240	0x3f734332	0.95024407
241	0xbced7469	-0.028986173
242	0x3cdb1f71	0.02674839
243	0xbcfccb67	-0.030858709
244	0x3e2926e2	0.16518739
245	0xbef101d0	-0.47071695
246	0x3d8afc73	0.06786432
247	0x3e381fbc	0.17980856
248	0xbdbb658a	-0.091502264
249	0x3d12f6fb	0.03588007
250	0x3bb51024	0.0055256058
251	0xbbe65d75	-0.007030184
252	0x3e1ed2cb	0.15510099
253	0xbd4c731f	-0.049914476
254	0x3d1da57d	0.0384879
255	0x3ec9ce6d	0.39415303

lin.weight f4 [2, 64]
0	0xbdf94f5c	-0.1217334
1	0x3d91f80c	0.07127389
2	0xbe030057	-0.12793098
3	0x3dceb17b	0.100924455
4	0x3dff76e1	0.12473846
5	0xb9b07f9e	-0.00033664418
6	0x3e46c482	0.194109
7	0x3e584a0a	0.21121994
8	0xbd7c5289	-0.06160215
9	0x3e721de3	0.23644213
10	0xbd2e6fd0	-0.0425871
11	0x3e11580c	0.14193743
12	0xbe6c20f7	-0.2305945
13	0x3de7fd00	0.11327553
14	0xbe2e1723	-0.17001013
15	0xbbd664e9	-0.006542791
16	0xbe28a072	-0.16467455
17	0x3dc45c55	0.095879234
18	0xbdb4030a	-0.08789642
19	0x3db17baa	0.08666165
20	0xbd34ac18	-0.044109434
21	0x3e9c7411	0.30557302
22	0xbdabcfc7	-0.0838924
23	0x3dae3b75	0.08507434
24	0xbd44fdcf	-0.048093613
25	0xbe8d889c	-0.27643287
26	0x3d5b1902	0.053490646
27	0xbe44a6b6	-0.1920422
28	0x3e6e5982	0.23276332
29	0xbe57ab12	-0.21061352
30	0xbe33fe5a	-0.17577496
31	0xbc119381	-0.008885265
32	0x3e0dc542	0.13844779
33	0xbcdc7d60	-0.026915252
34	0xbe27e4ed	-0.16395922
35	0xbce67248	-0.028130665
36	0xbdfc6a3b	-0.12324949
37	0xbdd5bff9	-0.104370065
38	0xbd2a427c	-0.04156731
39	0x3d5a56cd	0.053305436
40	0x3d85fb4d	0.065420724
41	0x3cb4ab7e	0.02205443
42	0x3c9a3bd5	0.018827358
43	0x3e6b8f66	0.23003921
44	0x3e6c3e6a	0.23070684
45	0x3daa7afb	0.08324238
46	0x3be55a20	0.006999269
47	0x3de14250	0.10998976
48	0xbd9b7bab	-0.07591947
49	0xbd5b6020	-0.05355847
50	0x3e213cbd	0.15745826
51	0xbdcaa8f5	-0.09895507
52	0xbdfb428f	-0.122685544
53	0xbd9b5ff2	-0.075866595
54	0xbd9b870e	-0.07594119
55	0xbe1211a8	-0.14264548
56	0x3e160866	0.14651641
57	0xbe29ea7a	-0.16593352
58	0x3d4a6fba	0.049422957
59	0xbe23c754	-0.15994006
60	0x3bff6834	0.0077944044
61	0x3e42d755	0.19027455
62	0xbcb95646	-0.022624146
63	0xbdcc73ac	-0.09983
64	0x3e2316df	0.15926693
65	0x3de1fed4	0.11034933
66	0x3b671048	0.0035257507
67	0xbe4cf903	-0.20016865
68	0xbe8dda42	-0.2770558
69	0x3ac1a828	0.0014774846
70	0xbe5a16c0	-0.21297741
71	0xbd10eba5	-0.035380978
72	0xbd0b9929	-0.03408161
73	0xbe1633a8	-0.14668143
74	0xbe2936be	-0.16524789
75	0x3d71cf05	0.05903532
76	0x3e9d70fe	0.3075027
77	0xbeaa60a8	-0.33276868
78	0x38be0228	9.060308e-05
79	0x3ca1d039	0.019752609
80	0x3c712a8a	0.014719615
81	0x3afd763f	0.0019337608
82	0xbcd9b375	-0.02657483
83	0xbd2246d7	-0.03961834
84	0x3e44ae82	0.19207194
85	0xbe302dd7	-0.17204987
86	0x3c8ce9df	0.017201362
87	0x3dbf398a	0.093371466
88	0x3e5a4d17	0.2131847
89	0x3e29d0e0	0.16583586
90	0xbd54a3b1	-0.05191392
91	0x3df6e365	0.12055091
92	0xbd87373e	-0.066023335
93	0x3e3c510b	0.1839029
94	0x3c885e6e	0.01664659
95	0x3d2f6de6	0.042829417
96	0xbe80a24d	-0.25123826
97	0x3cbbb9b1	0.022915693
98	0x3dfc0597	0.12305754
99	0x3db5e799	0.08882064
100	0x3e4f372f	0.20235895
101	0xbc4b16e4	-0.012395594
102	0x3d10d640	0.035360575
103	0x3a0b013b	0.00053026126
104	0xbe3dcab6	-0.1853436
105	0x3cc5dfe2	0.024154607
106	0xbceacba8	-0.028661564
107	0xbedd6d1f	-0.43247315
108	0xbe3eed26	-0.18645152
109	0xbdb512ae	-0.088414535
110	0xbdff33dc	-0.12461063
111	0xbdf20c68	-0.118187726
112	0x3d8a68c5	0.067582645
113	0x3d39ef55	0.04539426
114	0xbc10e91e	-0.008844642
115	0xbce0619e	-0.027390298
116	0x3e0aff43	0.13573937
117	0x3e7f9292	0.24958256
118	0x3d32d921	0.0436641
119	0x3e689659	0.22713603
120	0xbe889f37	-0.2668397
121	0x3e521a44	0.20517832
122	0x3da0f94f	0.07860052
123	0x3da6b6dd	0.08140347
124	0xbc621b1b	-0.013800408
125	0x3d42a634	0.047521785
126	0xbcd5b0fb	-0.026085367
127	0x3df562a4	0.11981705

lin.bias f4 [2]
0	0xbbb8116d	-0.0056173117
1	0x3da047b4	0.07826176
